VQ_LSTM_BASE_CLASS_TS_MODEL__DATALOADER_BESSEL_4_QUBIT_AS_RESERVOIR_2_QuLAYERS_old/VQ_LSTM_BASE_CLASS_TS_MODEL__DATALOADER_BESSEL_4_QUBIT_AS_RESERVOIR_2_QuLAYERS_NO_2_Epoch_30_torch_model.pth (torch, 3471 bytes, 8 tensors)

q_params_1 f8 [2, 4, 3]
00000000: 0000 0040 80d1 833f 0000 0040 b06d 783f
00000010: 0000 0060 d180 85bf 0000 0060 53a2 79bf
00000020: 0000 0020 23e3 8a3f 0000 0060 58f4 5e3f
00000030: 0000 0040 980d 773f 0000 00c0 1b5e 993f
00000040: 0000 0020 3838 923f 0000 0040 d2cc 1a3f
00000050: 0000 00e0 5182 90bf 0000 0080 1b52 603f
00000060: 0000 0040 a504 8a3f 0000 00e0 099f 56bf
00000070: 0000 0020 262e 813f 0000 0080 a2ac 803f
00000080: 0000 00c0 72ac 54bf 0000 0060 0b2b 76bf
00000090: 0000 00e0 8f43 703f 0000 0000 b8d8 69bf
000000a0: 0000 00a0 66d1 86bf 0000 0080 9a59 363f
000000b0: 0000 00c0 b5fd 743f 0000 0020 09a7 8e3f
0.009676935151219368 0.005963982082903385 -0.010499606840312481 -0.006258321460336447 0.013128542341291904 0.001889311126433313 0.005628199316561222 0.02477305755019188
0.017792584374547005 0.00010223420395050198 -0.016122130677103996 0.00199227686971426 0.012704173102974892 -0.0013806911883875728 0.008388803340494633 0.00814177468419075
-0.0012618179898709059 -0.005412144120782614 0.00397068215534091 -0.0031550973653793335 -0.011141587980091572 0.0003410341450944543 0.005124769173562527 0.014967032708227634

q_params_2 f8 [2, 4, 3]
00000000: 0000 00e0 ef60 813f 0000 0040 8b3a 713f
00000010: 0000 0040 980f 843f 0000 0000 9471 94bf
00000020: 0000 0080 3faa 673f 0000 0000 d413 65bf
00000030: 0000 0000 10e1 383f 0000 0000 9bfb 95bf
00000040: 0000 0080 43ab 55bf 0000 00a0 4ed5 6bbf
00000050: 0000 00a0 f94a 76bf 0000 0060 bd43 70bf
00000060: 0000 0000 7be3 90bf 0000 00a0 9320 64bf
00000070: 0000 00a0 a74d 843f 0000 00c0 7472 86bf
00000080: 0000 00e0 9a0b 1a3f 0000 00e0 1f4d 80bf
00000090: 0000 0080 db42 613f 0000 00e0 b4ec 71bf
000000a0: 0000 0000 0f33 753f 0000 0080 f492 8bbf
000000b0: 0000 00e0 c8d9 8a3f 0000 00c0 54a4 7d3f
0.008485673926770687 0.004206222482025623 0.00979536958038807 -0.019964516162872314 0.0028887977823615074 -0.0025729313492774963 0.00037962570786476135 -0.02146761119365692
-0.0013225707225501537 -0.003397611202672124 -0.005442595575004816 -0.00397085165604949 -0.016492769122123718 -0.0024569400120526552 0.009913739748299122 -0.010960495099425316
9.93550565908663e-05 -0.00795960333198309 0.0021070754155516624 -0.004376131575554609 0.005175646394491196 -0.013463888317346573 0.01311070378869772 0.00723679643124342

q_params_3 f8 [2, 4, 3]
00000000: 0000 00a0 1052 8e3f 0000 0020 a9c1 6c3f
00000010: 0000 00c0 799b 77bf 0000 00c0 b49c 8ebf
00000020: 0000 00c0 453f 6a3f 0000 0020 64bc 653f
00000030: 0000 0000 9200 893f 0000 0020 566c 52bf
00000040: 0000 0060 ccd6 713f 0000 0000 42a7 8dbf
00000050: 0000 0000 7a4a 563f 0000 0060 bb94 793f
00000060: 0000 0020 0227 82bf 0000 0000 e6f6 473f
00000070: 0000 0080 4cf6 61bf 0000 00a0 2bb8 7f3f
00000080: 0000 00a0 9555 73bf 0000 0060 52d3 5cbf
00000090: 0000 00a0 2672 90bf 0000 0000 caca 90bf
000000a0: 0000 0040 8b71 70bf 0000 00c0 ac51 6abf
000000b0: 0000 0040 fd5f 6ebf 0000 0040 f4c5 843f
0.014804963953793049 0.003510313341394067 -0.0057635074481368065 -0.014947330579161644 0.0032039987854659557 0.0026533084455877542 0.012208119034767151 -0.0011244622291997075
0.004355238284915686 -0.014479175209999084 0.0013605300337076187 0.006245357450097799 -0.008863464929163456 0.000731336884200573 -0.002192639745771885 0.00774399796500802
-0.004720291588455439 -0.0017593674128875136 -0.016060451045632362 -0.016398578882217407 -0.004014533944427967 -0.0032127737067639828 -0.0037078806199133396 0.010143192484974861

q_params_4 f8 [2, 4, 3]
00000000: 0000 00c0 92a6 84bf 0000 00c0 3895 6a3f
00000010: 0000 0060 ab4d 553f 0000 0040 0706 80bf
00000020: 0000 0000 7c31 883f 0000 0020 d4a0 6cbf
00000030: 0000 0020 30fb 5dbf 0000 0040 b05c 8a3f
00000040: 0000 0060 9839 6d3f 0000 0080 b4cd 7c3f
00000050: 0000 0060 e467 6fbf 0000 0020 17a9 733f
00000060: 0000 0040 a53a 543f 0000 00a0 13a4 88bf
00000070: 0000 00a0 70ba 7ebf 0000 00a0 fc0e 783f
00000080: 0000 0020 5f4d 81bf 0000 0000 54a0 4e3f
00000090: 0000 0020 8f69 7c3f 0000 0060 52fe 493f
000000a0: 0000 0020 478b 8dbf 0000 00c0 2b00 633f
000000b0: 0000 00c0 e201 71bf 0000 00a0 1275 873f
-0.010083338245749474 0.0032449825666844845 0.001300256117247045 -0.007823998108506203 0.011813133955001831 -0.0034946578089147806 -0.0018299074145033956 0.012872101739048958
0.003567502601072192 0.007032113149762154 -0.0038337192963808775 0.004799928981810808 0.0012346853036433458 -0.012031701393425465 -0.007502021733671427 0.0058736675418913364
-0.008448355831205845 0.0009346399456262589 0.006936606485396624 0.0007932569715194404 -0.014425807632505894 0.002319417428225279 -0.0041521890088915825 0.01145376730710268

q_params_5 f8 [2, 4, 3]
00000000: 0000 00e0 7911 933f 0000 00a0 30fa 863f
00000010: 0000 0000 743a 6cbf 0000 0020 4906 7f3f
00000020: 0000 0040 c0d8 66bf 0000 0080 18b5 87bf
00000030: 0000 0000 c7b8 853f 0000 0000 a370 12bf
00000040: 0000 00c0 75a1 32bf 0000 00a0 7f7d 78bf
00000050: 0000 0040 3178 7c3f 0000 00a0 7ee6 2dbf
00000060: 0000 0080 0195 7a3f 0000 0020 937d 44bf
00000070: 0000 0060 e15d 933f 0000 0060 86c7 87bf
00000080: 0000 0060 eddd 603f 0000 0000 907d 773f
00000090: 0000 0080 192d 7c3f 0000 0060 2298 84bf
000000a0: 0000 00a0 0f82 8dbf 0000 0000 df3a 8a3f
000000b0: 0000 0060 fd7f 79bf 0000 00e0 f68b 653f
0.018621353432536125 0.01121938694268465 -0.003445841372013092 0.0075743538327515125 -0.0027889017947018147 -0.011575881391763687 0.010606341063976288 -7.034296868368983e-05
-0.00028428196674212813 -0.0059790597297251225 0.006950561888515949 -0.00022812171664554626 0.006489759311079979 -0.0006253212341107428 0.01891281269490719 -0.0116110322996974
0.0020589481573551893 0.00573498010635376 0.006878947839140892 -0.01005579810589552 -0.014408227987587452 0.012807600200176239 -0.0062255761586129665 0.0026302167680114508

q_params_6 f8 [2, 4, 3]
00000000: 0000 00c0 0abc 323f 0000 00c0 8caa 89bf
00000010: 0000 0000 4e0a 64bf 0000 0020 a864 7dbf
00000020: 0000 0020 2a25 60bf 0000 0060 8939 80bf
00000030: 0000 0060 9410 723f 0000 0080 e32f 6a3f
00000040: 0000 00a0 83c6 793f 0000 00c0 ad9b 6abf
00000050: 0000 0040 b41c 523f 0000 00a0 2e73 7c3f
00000060: 0000 00e0 accf 84bf 0000 0040 fcd9 6d3f
00000070: 0000 00e0 bea9 703f 0000 00e0 6aa3 543f
00000080: 0000 00e0 d60c 82bf 0000 0080 c01d 863f
00000090: 0000 0000 3420 65bf 0000 00e0 b55f 753f
000000a0: 0000 0020 28cd 8abf 0000 00a0 a5f6 51bf
000000b0: 0000 0020 d7c1 90bf 0000 0040 8d38 9d3f
0.0002858663792721927 -0.012532329186797142 -0.0024463199079036713 -0.007176071871072054 -0.001970846438780427 -0.007922242395579815 0.004410342779010534 0.003196663223206997
0.0062928334809839725 -0.0032480615191161633 0.0011054764036089182 0.0069457837380468845 -0.01016173418611288 0.0036439825780689716 0.004068132024258375 0.0012596648884937167
-0.008813551627099514 0.01079893484711647 -0.00257883220911026 0.0052182297222316265 -0.013086617924273014 -0.001096402877010405 -0.01636444218456745 0.02853604033589363

classical_nn_linear.weight f8 [1, 4]
00000000: 61a2 6812 aa60 0340 435e f7d5 ce43 e1bf
00000010: 1a97 b96f c600 e03f bcd5 5473 0dfd c5bf
2.4221993864232876 -0.5395273379353472 0.5000946218612825 -0.17178505069175098

classical_nn_linear.bias f8 [1]
00000000: 5fbd 44ed 820b c73f
0.18003880105377854
