VQ_LSTM_BASE_CLASS_TS_MODEL__DATALOADER_BESSEL_4_QUBIT_2_QuLAYERS_old/VQ_LSTM_BASE_CLASS_TS_MODEL__DATALOADER_BESSEL_4_QUBIT_2_QuLAYERS_NO_2_Epoch_3_torch_model.pth (torch, 3471 bytes, 8 tensors)

q_params_1 f8 [2, 4, 3]
000000 1a da 4e 2f 84 49 e8 bf 0e c7 67 64 60 b6 dd bf
       -0.7589741634354283 -0.46425638013089177
000010 84 32 93 cd e1 6f ea 3f a7 af 1f fc 30 3e e5 3f
       0.8261574759613528 0.6638417171757184
000020 ec fd aa 25 35 84 d6 3f 1a bf 61 fb 31 61 e6 bf
       0.3518193118906925 -0.6993646535683837
000030 9a 3a a6 19 d3 84 f6 bf a2 33 55 fa ae 6f f1 bf
       -1.4074278833319682 -1.089766481268477
000040 a1 65 00 15 2f 68 c7 bf 97 5c 40 21 f9 8a cc bf
       -0.18286694074121804 -0.22299112437824384
000050 75 6a 64 de 4d 1c cf bf d1 74 ab c3 6d 0d b8 3f
       -0.24305127486225656 0.09395490672200714
000060 6b 01 7d ba 87 19 f4 bf ff 23 b4 66 93 9e ed bf
       -1.2562329563807804 -0.9256073957377565
000070 07 a6 99 df 88 76 6b bf be 12 14 87 81 12 e1 3f
       -0.0033524201688137664 0.5335090292215552
000080 a8 46 61 75 74 44 f2 bf c6 66 53 ff 92 67 6d bf
       -1.1417126259952202 -0.0035894270937263132
000090 d7 ac 72 96 3a de 9f 3f e2 62 4d 1d ab 79 f5 bf
       0.031121173317541242 -1.3422042030926424
0000a0 cf fa e3 1f 20 d2 84 bf 5e ab ea 49 02 69 d1 3f
       -0.010166407559606764 0.27203423708367847
0000b0 44 6d b7 15 86 98 de bf 19 29 55 60 45 79 8b 3f
       -0.47805931206467656 0.013414899828280856

q_params_2 f8 [2, 4, 3]
000000 94 9d d9 25 39 4f f7 3f 67 3c 9b 26 f3 84 e7 3f
       1.456841609813499 0.7349792245894492
000010 d4 1a a6 0a 4b 2b f5 bf 0c cf b6 4d fc c9 a7 3f
       -1.3230696121187764 0.04646290253313454
000020 9b 96 eb a1 69 0a a9 3f 62 8a c0 5d 6f 8c bb bf
       0.04890756703916318 -0.10761161841268455
000030 dc 7e b2 ff ea 5a ee bf bc 9f 2f 05 6c 32 ea bf
       -0.9485983842932586 -0.8186550236978216
000040 36 16 1c 2f 64 87 cc 3f 8e 6c 4a 3d 57 4f bd bf
       0.2228818159130001 -0.1144918942103905
000050 ec 23 4c fa e7 78 d4 bf 4a b3 1e eb 21 2c a5 bf
       -0.319879526549413 -0.041352329207575325
000060 c6 e8 a3 15 d1 11 f0 bf 90 99 dd 16 7d ac e3 bf
       -1.004349789173419 -0.6148057409853198
000070 a9 8d f9 7f c6 1f 8c bf 06 b8 bd e0 b8 7d b3 bf
       -0.013732481747132779 -0.07613711821406363
000080 43 06 e6 4f 1a f0 f3 bf 5c f8 b7 9f e5 60 78 bf
       -1.2461188431774566 -0.005951783150065362
000090 08 3e cc 4c 0b 3e 96 bf f9 e9 bc 77 66 64 f5 bf
       -0.021721054613463436 -1.3370117833388788
0000a0 4c 5d 75 5f 7e f5 76 3f 97 f7 8d a0 93 9e d0 3f
       0.00560521473320048 0.25967875174671334
0000b0 25 3f 32 08 da e0 e7 bf cb ac e1 7f d8 4e 90 bf
       -0.746197715767242 -0.015925772481222105

q_params_3 f8 [2, 4, 3]
000000 a8 66 03 ae 3e 1a aa 3f 2e 5e 71 a9 6d 9c 9e 3f
       0.05098148225961313 0.029893601862879197
000010 19 21 f8 4c 18 22 b6 bf 60 90 74 f3 8c 5f 5b 3f
       -0.0864577472604008 0.0016707302546104183
000020 c8 aa 6c 3a 5a 0c 9b bf 36 b8 3a 88 53 a4 b2 bf
       -0.02641430837244732 -0.07281992031013904
000030 59 da 71 3b 9b 25 cb 3f 4c e3 9f dc be 6f cc 3f
       0.21208515551161858 0.2221602036732072
000040 ae 20 fe bf 58 1c c4 3f dd 0e 22 46 ff 63 a3 bf
       0.15711507200854186 -0.03787229281536295
000050 e5 8f 05 2f 22 a4 f1 3f 42 d5 54 0a 5e a2 a4 3f
       1.1025716625963409 0.04030126453509776
000060 8a ee 0a e3 78 03 bc 3f b6 6b 4b 16 71 bc d1 3f
       0.10942798178705906 0.2771265714379142
000070 ed 96 1f 3d 7e 8d 83 3f 13 ff 36 26 f8 19 d4 bf
       0.00954722045930675 -0.3140850423042007
000080 5a 09 20 4c 1e 49 c6 bf e8 5b fb 40 31 7e 86 3f
       -0.17410639493034347 0.010982880397404984
000090 31 4c e9 a9 7b 66 9d 3f 59 8b e8 ef 4b 64 ee bf
       0.028711254354061026 -0.9497432409010386
0000a0 ae 07 4a 3d 48 b6 7d 3f af 64 47 28 df 55 ec bf
       0.007253915963362374 -0.8854823862740399
0000b0 79 a8 87 09 60 15 93 bf 4c 92 7f 5e 69 f8 86 bf
       -0.018636227208766763 -0.011215995022163437

q_params_4 f8 [2, 4, 3]
000000 0e aa 61 fd 27 8b e8 bf 63 8f 36 5e cb 2b d4 bf
       -0.7669868420464938 -0.31517299843311813
000010 6c aa 76 99 8a 15 e5 3f da 92 df 61 d6 4c f1 bf
       0.6588795659384465 -1.0812591384102945
000020 b9 81 34 b7 b3 92 df bf e3 e9 69 89 b3 54 ee 3f
       -0.4933289803612087 0.9478395160543268
000030 c5 67 d6 01 7f d9 f3 bf 44 03 21 8c 86 8e ec bf
       -1.2405996391084824 -0.8923981415647195
000040 54 23 6b 7e 3b 5d d5 3f b4 6e aa 5b ed c4 d5 bf
       0.33381545396382717 -0.34014448119863094
000050 ed a5 90 f4 a5 be e4 bf 66 f3 2b f3 e8 14 c3 3f
       -0.6482724930439737 0.1490756213533146
000060 31 24 5a 41 5d 84 e4 bf 0f f2 55 d0 95 50 da bf
       -0.6411577488335124 -0.4111685308960497
000070 e4 8b a7 40 9b f7 63 3f 1c 8f 88 d9 f4 e1 a2 bf
       0.0024374038959975464 -0.03688016086041854
000080 85 c5 ae 99 a1 08 f0 bf 3a 90 fa 7f 3a bc 80 3f
       -1.002107239077618 0.008171517401315598
000090 f6 3e d1 98 fd 58 9c bf c0 1c f4 74 b9 9a f6 bf
       -0.02768322224829852 -1.4127745216845113
0000a0 ef b6 38 e4 17 76 51 3f e0 4e 58 1c fc a4 d4 3f
       0.0010657532992683313 0.3225698735052287
0000b0 ba b7 c7 ab 0b 42 ea bf bf 0e 43 80 d8 aa 87 3f
       -0.8205622057991981 0.011556331075900926

q_params_5 f8 [2, 4, 3]
000000 da d5 80 e5 ad 8c ea bf 79 ac 10 1d b4 77 f0 bf
       -0.8296727640615089 -1.0292245040280064
000010 56 1a 19 07 c0 d0 ef 3f ab e0 d7 96 16 7e dc 3f
       0.9942321909555385 0.4451958153799846
000020 d8 16 69 a0 43 db ef 3f 8b 5d 22 c6 68 a2 eb bf
       0.9955156453149483 -0.8635753507432339
000030 02 9d e5 10 ae fd 9f bf ec d8 31 64 b8 1f cb bf
       -0.031241149693781452 -0.21190552608795288
000040 ee e8 f8 e0 b6 ee 81 3f 4d 4e 58 6e 53 7d ce bf
       0.008756092777833815 -0.23819964302002675
000050 1a e5 c6 0f 60 0e e4 3f ce 73 c9 e1 12 cc b6 3f
       0.6267547901290158 0.08905141842247064
000060 ba 50 66 13 65 b9 eb bf 8c a7 d5 00 ef 81 8f bf
       -0.8663812045001784 -0.01538454743668518
000070 9d d3 c7 ff 11 76 70 3f f9 e5 57 e3 c8 8f d2 3f
       0.0040188506213682225 0.290025922789567
000080 44 03 cd d4 15 99 e1 bf ae 39 fb df 08 12 98 3f
       -0.549937167765258 0.023506296797501207
000090 9e 8e 01 b5 0d bb ea bf a6 ed f1 1a e7 16 eb 3f
       -0.835333684470658 0.846545746447579
0000a0 04 c7 ee 9f 63 fa 8a bf 00 00 00 c0 f3 07 37 3f
       -0.013172891920337111 0.00035142613342031837
0000b0 00 00 00 80 02 12 76 bf 00 00 00 80 2a bd 9c 3f
       -0.005388269200921059 0.028065361082553864

q_params_6 f8 [2, 4, 3]
000000 cf d2 6f 55 d0 f3 c5 bf 3c e0 80 b4 21 d4 dd bf
       -0.1715031068012167 -0.46607248904502163
000010 e4 7e 0f 5d ac 96 b3 bf e2 ca b7 7e ab 67 b7 bf
       -0.07651784202561945 -0.09142562717151351
000020 08 17 0d 65 c1 fd ec 3f 40 d9 20 1a e8 d4 cd 3f
       0.9059760068564353 0.23305989528462057
000030 c2 d2 f9 b2 b5 ff 8c 3f 1f 5a c5 b8 00 59 d4 3f
       0.01415960266533867 0.31793230098756625
000040 6c 8b b0 81 6e 3e c3 bf a1 a6 fe f0 a0 ec e7 bf
       -0.15034276325703944 -0.7476353365829774
000050 b8 45 dc 1f 69 12 8a bf c9 24 af fb aa 04 d0 bf
       -0.012730428013614112 -0.25028490618258253
000060 f4 4a 73 51 9b 59 ab 3f b4 40 07 58 f6 b9 c4 bf
       0.0534180199553215 -0.16192511842974044
000070 bb a6 3d 04 87 52 85 3f d7 1e d2 85 cd 22 ef 3f
       0.010411314789695472 0.9729983915030641
000080 b8 d9 0a a7 ac 29 d5 bf 04 dd 7a 90 6f ec 6f 3f
       -0.3306686049721992 0.003896921061677385
000090 46 2e fa ea e0 be cb bf 21 a9 a3 bb 6f 2c b3 bf
       -0.21676265214442675 -0.07489679652249893
0000a0 37 06 2d 97 8e 45 74 3f e5 28 22 80 a7 70 d6 bf
       0.004949147218952946 -0.35062587273627194
0000b0 70 ab 0f ea c6 5c c2 3f bf 27 59 a2 10 93 5a bf
       0.14345632962007526 -0.0016219770854086627

classical_nn_linear.weight f8 [1, 4]
000000 5e 49 c9 93 20 d6 df 3f 6d 83 e6 13 92 6d f1 3f
       0.49744429046872607 1.0892506387101222
000010 6f 1d fa 61 0a f0 dc 3f 60 57 d2 2c f5 04 f7 bf
       0.45215091293399373 -1.4387103796811616

classical_nn_linear.bias f8 [1]
000000 01 bc 48 fb b2 f4 d5 bf
       -0.3430602506586525
