VQ_LSTM_BASE_CLASS_TS_MODEL__DATALOADER_BESSEL_4_QUBIT_2_QuLAYERS_old/VQ_LSTM_BASE_CLASS_TS_MODEL__DATALOADER_BESSEL_4_QUBIT_2_QuLAYERS_NO_2_Epoch_70_torch_model.pth (torch, 3471 bytes, 8 tensors)

q_params_1 f8 [2, 4, 3]
-1.5906328028017072 -0.9336603341436183 1.5907104192787562 1.5603252042462032 0.6836608574889612 -1.5597150328036904 -1.6447110759411305 -1.7438364549417187
-1.5043377704307668 -0.09605604076322527 -0.017855396740778944 0.08968299317793996 0.16152545697879442 -1.236291270809385 -0.0033524201593882353 -0.010113262098588092
-1.5758391481423575 -0.003589427111033405 -0.0011088028375561203 -1.5897076899722924 -0.01016640757848942 0.005136730745715623 -1.5675999027805352 0.013414899804982214
00000000: 80a6 bf61 3b73 f9bf 4804 17a3 8be0 edbf
00000010: dc56 c3c4 8c73 f93f 9aca b58f 17f7 f83f
00000020: 8f0d 0fbc 8ce0 e53f ed8a 0fc0 97f4 f8bf
00000030: fb93 a88f bc50 fabf 93c1 f80d c1e6 fbbf
00000040: 0434 627b c411 f8bf a84a a9f1 2097 b8bf
00000050: 1b29 3c64 af48 92bf 92e6 b4f2 76f5 b63f
00000060: 1d02 99bd ddac c43f 2f4e 075b d9c7 f3bf
00000070: 6404 4ede 8876 6bbf bf26 c10f 43b6 84bf
00000080: 6172 501c a336 f9bf 3357 b401 9367 6dbf
00000090: 5e74 33fb a72a 52bf 5c17 aa54 716f f9bf
000000a0: c512 8a20 20d2 84bf 73b3 faa8 400a 753f
000000b0: 9c7b baa2 e314 f9bf 3839 885f 4579 8b3f

q_params_2 f8 [2, 4, 3]
1.5767882571719043 0.4539318936382763 -1.5772544856252941 -0.013479749723999542 -0.0029102362875716233 0.01872859171395551 -1.1617436841646396 -0.2587475319529248
1.069123301299205 0.020516652477378862 -0.0017594056876472663 -0.032601265718701956 -0.07493239939898295 -1.1401994671245002 -0.01373248174302635 0.0080283607445994
-1.5604488906456002 -0.005951783152007806 0.00020062359018902616 -1.5965447360863947 0.005605214821815613 0.0007749853186496834 -1.4743566449068537 -0.015925772467091804
00000000: 9a52 d452 863a f93f 736a 725b 380d dd3f
00000010: d6ad 1333 6f3c f9bf f161 c861 459b 8bbf
00000020: 5157 b835 35d7 67bf 0c74 a583 962d 933f
00000030: 9a25 9d8b 8096 f2bf 4f25 eace 518f d0bf
00000040: d68b e708 211b f13f 5aab a73d 5102 953f
00000050: 0ac7 e278 7bd3 5cbf 15db 23f4 1cb1 a0bf
00000060: 4d56 d40c c52e b3bf 3176 e3cb 413e f2bf
00000070: ce6e d57f c61f 8cbf e356 b556 2c71 803f
00000080: f56f 8641 99f7 f8bf 5a24 da9f e560 78bf
00000090: f020 7084 cf4b 2a3f e678 417e 728b f9bf
000000a0: 604c 8c65 7ef5 763f 8e02 9b4c 0c65 493f
000000b0: 593e 48fe f696 f7bf 7d87 a37f d84e 90bf

q_params_3 f8 [2, 4, 3]
0.04110350460107906 0.02601063791121933 1.5220448392189951 -0.0022281728000729307 0.0012450387281383443 0.003549119709848795 0.6490107389750682 0.07794775804900558
0.901335463260303 0.00563514296150754 1.5767712658000543 0.31174514047472635 -0.24276809743828828 0.8947760989674678 0.009547220278434538 -1.625285395375665
-0.023392273473383154 0.01098288013198841 1.6154948864097065 -1.5530807212800046 0.007253915895757747 -0.051970146495790334 -0.04890483846646797 -0.011215994840641239
00000000: 2476 06c0 840b a53f 1107 b55c 88a2 9a3f
00000010: cddb 77b0 4b5a f83f 0dfb cb29 d140 62bf
00000020: bca6 a727 1266 543f a220 ab22 0b13 6d3f
00000030: 9fd2 542b b2c4 e43f b2f3 9d5f 62f4 b33f
00000040: 44b2 2d78 bdd7 ec3f d5b8 a52b e014 773f
00000050: de23 be81 743a f93f f2a7 c1e3 a1f3 d33f
00000060: 3b3a 8167 0613 cfbf f4d8 497c 01a2 ec3f
00000070: ea9e e836 7e8d 833f eae0 3c42 2b01 fabf
00000080: 4767 30e6 24f4 97bf eaba dc37 317e 863f
00000090: 40c2 7f2a 11d9 f93f a221 9f2b 6bd9 f8bf
000000a0: 82b7 a438 48b6 7d3f eeaf 22bf d49b aabf
000000b0: eec6 a813 0e0a a9bf a5e2 4258 69f8 86bf

q_params_4 f8 [2, 4, 3]
-0.08014286440412574 -0.010742312687910715 0.1478138049151533 -1.6273973794406924 -0.2769810490068843 1.5811107592187104 -1.402100100164367 -0.9799232051202189
1.0842159032923833 -0.006522342777644365 -1.0321778628277445 -0.014163336656626153 0.10024698307567656 -0.4841049899483489 0.002437403985368894 0.04290573668110636
-0.3300373973375213 0.008171517434257165 -0.13954913196443344 -1.5745841776810008 0.00106575326521777 0.2968733430597079 -1.4526734424384522 0.011556331081765162
00000000: 8e9c 9f25 3e84 b4bf 0682 6ccd 1000 86bf
00000010: 1d03 0111 90eb c23f b8b3 a4d5 d109 fabf
00000020: 752a c6b8 0eba d1bf 622b a3cb 3a4c f93f
00000030: dac9 be83 006f f6bf a0a6 d2e8 875b efbf
00000040: 271a 67c6 f258 f13f cfc5 c50e 2cb7 7abf
00000050: 6101 48ef cc83 f0bf 3788 f0dd aa01 8dbf
00000060: 962b d549 c9a9 b93f f725 ea7e 93fb debf
00000070: 6d05 f04c 9bf7 633f e757 b69f bdf7 a53f
00000080: 1562 012d 551f d5bf 0a52 1c81 3abc 803f
00000090: 9578 fcf6 bedc c1bf f205 bf2d 7f31 f9bf
000000a0: 8e9e dcda 1776 513f 78b8 df0c f9ff d23f
000000b0: 7da7 f081 263e f7bf d5a3 7680 d8aa 873f

q_params_5 f8 [2, 4, 3]
-1.4145085094022003 -0.6030215572640758 1.4204777126387818 1.2912047097276171 2.457115953898978 -0.2268442821191159 -0.030221154064844376 0.29690710289720273
0.04872660812814142 -0.12991588193665693 1.2239695102507167 0.4402967789212373 -1.5505897039047107 -0.7458842341209918 0.004018850599620817 0.8819606224802377
-0.5976322887063094 0.02350629672133551 -1.6507861836126256 1.2434621822404082 -0.013172891973157554 0.00035142613342031837 -0.005388269200921059 0.028065361082553864
00000000: 11bd bcac d3a1 f6bf 286e 67dd f34b e3bf
00000010: f0af 87d6 46ba f63f 668a 0b45 c6a8 f43f
00000020: c1ce c368 2ca8 0340 d03b 7ec2 3b09 cdbf
00000030: df6c 6c51 4bf2 9ebf 9f30 39a6 8600 d33f
00000040: bcf3 b5a8 b1f2 a83f 6c10 1368 15a1 c0bf
00000050: 583f 9d0d 6195 f33f 080e 808a d22d dc3f
00000060: 978f 3c26 37cf f8bf 75da 049d 48de e7bf
00000070: 013e 49fe 1176 703f 9232 bd7b 0539 ec3f
00000080: 0fdf e0bf cd1f e3bf bb3e acde 0812 983f
00000090: c8e0 f4c5 9e69 fabf c690 e899 38e5 f33f
000000a0: 1464 bfa1 63fa 8abf 0000 00c0 f307 373f
000000b0: 0000 0080 0212 76bf 0000 0080 2abd 9c3f

q_params_6 f8 [2, 4, 3]
-0.1826160431671471 0.06608408045172193 0.18142921767316914 0.6443710410541106 0.22196727458567633 -0.34689198445047525 -0.4360154989699337 0.07590411837319073
0.13693993111184435 -1.460220950801565 0.24844839144474853 -0.10083209243288964 -0.01780170382928223 0.049374107810403536 0.01041131425430732 1.4034065867632541
-1.3749807364749893 0.003896919826613817 1.7248882244656036 0.0005067769959493989 0.004949147251819471 -1.3792569080808113 0.1169036106693674 -0.0016219776023951007
00000000: 715c 9066 f65f c7bf 8c8d 53e4 e2ea b03f
00000010: e9f9 3896 1239 c73f de23 7a04 b09e e43f
00000020: 8459 9074 6c69 cc3f b165 1d70 7a33 d6bf
00000030: c9ff 278d ade7 dbbf bd68 0bca 736e b33f
00000040: 9d28 d266 3f87 c13f 2807 caa4 105d f7bf
00000050: 45df ff29 28cd cf3f 53f2 62cb 21d0 b9bf
00000060: d814 0a1f 9c3a 92bf 8235 a124 9047 a93f
00000070: ca53 d8f1 8652 853f 033a 1277 5a74 f63f
00000080: 24a4 fccc ebff f5bf 5eed bbe6 6eec 6f3f
00000090: 495d 1565 2499 fb3f 382d de4f 279b 403f
000000a0: e237 6f99 8e45 743f 9cd3 0fb1 6f11 f6bf
000000b0: c9f7 9b20 65ed bd3f 77d7 7430 1193 5abf

classical_nn_linear.weight f8 [1, 4]
1.8722066029046636 2.127975143013648 -0.014169291229629625 -2.578960185467685
00000000: e94a 2de9 8ef4 fd3f 6c8e efd4 1706 0140
00000010: 0294 8213 ca04 8dbf 8e28 b2e0 b5a1 04c0

classical_nn_linear.bias f8 [1]
-0.10769256038627892
00000000: c6ae e158 bd91 bbbf
