VQ_LSTM_BASE_CLASS_TS_MODEL__DATALOADER_BESSEL_4_QUBIT_2_QuLAYERS_old/VQ_LSTM_BASE_CLASS_TS_MODEL__DATALOADER_BESSEL_4_QUBIT_2_QuLAYERS_NO_2_Epoch_2_torch_model.pth (torch, 3471 bytes, 8 tensors)

q_params_1 f8 [2, 4, 3]
-0.6166126092440816 -0.39133086553053736 0.6387895370420423 0.5146956702388066 0.28650308885725156 -0.4958864886026622 -1.1994018717446022 -0.9274433196784408
-0.04146682005069869 -0.2725740681581319 -0.2648237268033844 0.08431224553046004 -1.178223952249971 -0.7192784881659601 -0.003352420168284403 0.3540100765313554
-1.1719508750115029 -0.0035894270928965373 -0.035262396423875075 -1.2916538515860996 -0.010166407565106332 0.361494403668685 -0.5094369860709874 0.013414899826467177
00000000: 5625 e05d 4abb e3bf 379e 579d 900b d9bf
00000010: f3eb 53c1 f670 e43f f230 e20d 6378 e03f
00000020: 7912 360d 1156 d23f d5e8 c4ae 9abc dfbf
00000030: d277 5e04 c030 f3bf d433 dd9c 9dad edbf
00000040: c146 f997 233b a5bf bc84 1e81 da71 d1bf
00000050: f0d2 7437 dff2 d0bf 5aa5 34c1 7c95 b53f
00000060: 9a70 e45b 01da f2bf af73 ec51 5404 e7bf
00000070: f205 87df 8876 6bbf 3406 4ae1 19a8 d63f
00000080: 7b16 8b8f 4fc0 f2bf d134 36ff 9267 6dbf
00000090: 5098 d6ae e90d a2bf 2809 a53a 9daa f4bf
000000a0: bc5a 1420 20d2 84bf e66a 5c6c b922 d73f
000000b0: bf86 51cb 4e4d e0bf 0e35 4560 4579 8b3f

q_params_2 f8 [2, 4, 3]
1.3548892459464825 0.6632717099102291 -1.2828126354870895 0.04244338086362262 0.07293767090866289 -0.050814312665269395 -0.855148329879324 -0.7357776016360534
0.2894956221731354 -0.0840192591998814 -0.2710155210099948 0.000863425559952273 -0.8888123596752049 -0.5559412192141872 -0.013732481746639795 0.02968113337881103
-1.2950570705335553 -0.0059517831475620255 -0.024642133523944832 -1.2855437477688292 0.005605214736657909 0.17028058738265314 -0.6720777999345696 -0.01592577248441799
00000000: 07ad 9058 a0ad f53f 57a5 cd97 8539 e53f
00000010: 7c00 c58a 6686 f4bf 5c5b 7b89 23bb a53f
00000020: 61f9 320f 0bac b23f 64d1 2166 5504 aabf
00000030: 63f1 c107 605d ebbf 4fff 0478 7d8b e7bf
00000040: 0a67 64a5 1887 d23f 3065 7f42 4982 b5bf
00000050: a690 dc7b 5158 d1bf c079 7145 f04a 4c3f
00000060: 30bd 229e 2671 ecbf e1be 603d 45ca e1bf
00000070: 8f37 f57f c61f 8cbf d64a ae24 bb64 9e3f
00000080: ae52 46c3 8db8 f4bf 56ee 8b9f e560 78bf
00000090: fd24 5b96 c93b 99bf 0ae9 2352 9691 f4bf
000000a0: 2c30 b25f 7ef5 763f 8fe0 f918 c1cb c53f
000000b0: 7dc5 624d a981 e5bf 0abb ef7f d84e 90bf

q_params_3 f8 [2, 4, 3]
0.11158114830978114 0.04044316689320065 -0.06390306721654593 0.04393115679318306 -0.012317533139086942 -0.056740429285553166 0.24664350591370743 0.20382274653494992
0.16489255985421356 -0.046613046839980785 1.1150272718457745 -0.024465454464966365 0.17222545514570897 0.2398352596161668 0.009547220504094485 -0.31231521898255155
-0.1575047570979837 0.010982880389655674 0.061187116289009844 -0.8956341680816837 0.0072539159354214604 -0.753061028338326 -0.019188214248596958 -0.01121599501981553
00000000: e633 d706 9590 bc3f a751 4e7e f7b4 a43f
00000010: c024 cf8f f35b b0bf c282 6703 257e a63f
00000020: d889 ff4f ef39 89bf 67ef 48e0 140d adbf
00000030: acc7 d5af 0392 cf3f 7c35 461f dd16 ca3f
00000040: 9bba f60b 331b c53f 9e40 7d4f aadd a7bf
00000050: 7b9c 2bd6 26d7 f13f 1738 3cdb 780d 99bf
00000060: 48dc b1d4 7b0b c63f 5853 3dfa ebb2 ce3f
00000070: f18b a93e 7e8d 833f 48ae e4f8 f8fc d3bf
00000080: 3fa2 59aa 1d29 c4bf 0332 b740 317e 863f
00000090: 7eb2 cbee ea53 af3f 76e9 a2fc 08a9 ecbf
000000a0: fe7c 5e3b 48b6 7d3f 1f5e 1371 1319 e8bf
000000b0: a05b aa42 13a6 93bf 48eb 6a5e 69f8 86bf

q_params_4 f8 [2, 4, 3]
-0.6996606080256627 -0.2915225503594495 0.6634570343335257 -0.9813683617782983 -0.4587744803902868 0.9030424401103542 -1.1148267260860012 -0.8283521022827902
0.4198216376700467 -0.31400112965386107 -0.5448739759208258 0.2999080909559541 -0.5089555816825517 -0.36797437987111287 0.002437403915191023 -0.050031221630986875
-1.117866888610616 0.00817151740379641 0.0486281514765105 -1.3498485556404378 0.0010657532974223786 0.21581558799271874 -0.7038445913153927 0.011556331073834355
00000000: 5aa1 b8a4 9e63 e6bf 46c8 f532 4ea8 d2bf
00000010: c16f 183f 0a3b e53f 2557 659f 5e67 efbf
00000020: d200 61a3 8f5c ddbf 7d91 6542 b9e5 ec3f
00000030: 21f0 938c 54d6 f1bf ea13 9c44 dc81 eabf
00000040: 778b fc92 5bde da3f 0e4e b131 9818 d4bf
00000050: 9faf 608c 9b6f e1bf 1f8b 9db4 b131 d33f
00000060: d42e 4e37 5d49 e0bf e5fc d369 e48c d7bf
00000070: 5cdb 4a43 9bf7 633f 6637 5e39 b19d a9bf
00000080: 6ad2 fd63 c8e2 f1bf 8462 1080 3abc 803f
00000090: 175a 8300 cae5 a83f ce74 90cc fa98 f5bf
000000a0: 35d1 b6e3 1776 513f 85a7 325e d89f cb3f
000000b0: ab50 a517 e585 e6bf 3ee1 3080 d8aa 873f

q_params_5 f8 [2, 4, 3]
-0.7800566416936346 -1.0372461109625346 0.922339234172073 0.44786704033456015 0.8953321513354636 -0.7427783209245201 -0.008883013337598937 -0.19492775675178303
0.03771830220219191 -0.19328458548698274 0.610242189448124 0.05308291653326605 -0.8668520046204176 -0.05020161318511643 0.004018850620630619 0.261503895572345
-0.515648611987997 0.02350629679740581 -0.756958164150412 0.7602704647679279 -0.013172891920836791 0.00035142613342031837 -0.005388269200921059 0.028065361082553864
00000000: 8b41 a358 39f6 e8bf dfcb c760 8f98 f0bf
00000010: 91c6 d291 cd83 ed3f 305e cc84 daa9 dc3f
00000020: 6561 a19c 8fa6 ec3f 2f8e 910a d7c4 e7bf
00000030: dc08 33de 4131 82bf 4670 2a8a 64f3 c8bf
00000040: e88e d634 d04f a33f a266 be9e 8cbd c8bf
00000050: 4e36 caa0 1a87 e33f 842d f91c af2d ab3f
00000060: b022 4a6a 40bd ebbf 044c ac9d 06b4 a9bf
00000070: bed9 baff 1176 703f e8a0 d0d5 7abc d03f
00000080: 72eb 9684 3180 e0bf 46ce fadf 0812 983f
00000090: 44eb ee53 0039 e8bf 0460 c9b9 2254 e83f
000000a0: 322c f39f 63fa 8abf 0000 00c0 f307 373f
000000b0: 0000 0080 0212 76bf 0000 0080 2abd 9c3f

q_params_6 f8 [2, 4, 3]
-0.157708253985791 -0.41946113322856254 0.0010360471456871932 -0.06374721371984671 0.9527785415784505 0.24588865436664079 0.0042771984228976755 0.28023621900348616
-0.14327514889296364 -0.7400799161403145 0.009713404019871492 -0.26052127438077805 0.05749118147191181 -0.1286464796528874 0.010411314785627306 0.9748391424466833
-0.29050128529868097 0.003896921053670357 -0.22823734726649322 -0.0388109529814849 0.0049491472323824805 -0.358324529365213 0.11077120163926246 -0.0016219770915352608
00000000: 5fd0 96b8 c82f c4bf c139 4a82 73d8 dabf
00000010: 70dc e626 7ff9 503f 104b 23c6 bc51 b0bf
00000020: e51e 8d6c 297d ee3f 6128 7b88 4779 cf3f
00000030: a57f 84b5 f784 713f 2494 f1e4 63ef d13f
00000040: 5b93 690f d756 c2bf 69f8 8713 bcae e7bf
00000050: 2a14 c904 9fe4 833f fb2b 586c 61ac d0bf
00000060: f3e4 75f0 7b6f ad3f 2e66 6de3 7c77 c0bf
00000070: 09de 1904 8752 853f 026a 75db e131 ef3f
00000080: 7771 f3b3 9297 d2bf 1f24 618f 6fec 6f3f
00000090: 0b21 1ea3 e136 cdbf a86b 907b 07df a3bf
000000a0: 7647 1998 8e45 743f 869a be01 caee d6bf
000000b0: c816 6160 805b bc3f ba46 08a4 1093 5abf

classical_nn_linear.weight f8 [1, 4]
0.44854595855623064 1.0343855823180723 0.41367364128977413 -1.3757504974590997
00000000: 7920 b01b fab4 dc3f 1c29 78e5 d78c f03f
00000010: dca2 2302 a179 da3f 58ae 20f4 1203 f6bf

classical_nn_linear.bias f8 [1]
-0.37774570645623085
00000000: 78c5 db53 fc2c d8bf
