VQ_LSTM_BASE_CLASS_TS_MODEL__DATALOADER_BESSEL_4_QUBIT_2_QuLAYERS_old/VQ_LSTM_BASE_CLASS_TS_MODEL__DATALOADER_BESSEL_4_QUBIT_2_QuLAYERS_NO_2_Epoch_57_torch_model.pth (torch, 3471 bytes, 8 tensors)

q_params_1 f8 [2, 4, 3]
-1.5956916520674354 -0.948843743552058 1.6055829789152218 1.5557954795163185 0.693824353685119 -1.5740462642877098 -1.6785428098169493 -1.7861428825402408
-1.4811481340220694 -0.09179283985313215 -0.0002701777550364751 0.08558553552213984 0.18134760295657254 -1.2429315071146336 -0.003352420167265976 -7.253683987323411e-05
-1.2705197946299291 -0.0035894271063937945 -0.013889382191688684 -1.5860670674968635 -0.010166407566419667 -0.023990055014055784 -1.5262558915633935 0.013414899821089692
00000000: d913 42f8 f387 f9bf e63f f28d ed5c eebf
00000010: 3c48 17c7 77b0 f93f 7a98 fccc 89e4 f83f
00000020: 9ade 8721 cf33 e63f 631b b822 4b2f f9bf
00000030: 8e98 91b4 4fdb fabf 64e5 278f 0a94 fcbf
00000040: d97f c262 c8b2 f7bf 5919 2d4d bc7f b7bf
00000050: 10a1 3a9f d4b4 31bf 5507 1404 efe8 b53f
00000060: 4607 f4f3 6536 c73f 019b e325 0ce3 f3bf
00000070: c530 63df 8876 6bbf c0ee 876b dd03 13bf
00000080: ecb2 6d90 0c54 f4bf 4d19 1101 9367 6dbf
00000090: c817 3352 0972 8cbf 2296 82dc 8760 f9bf
000000a0: 1ae8 1f20 20d2 84bf d5c2 db56 d990 98bf
000000b0: 3b79 394c 8b6b f8bf 09e8 1560 4579 8b3f

q_params_2 f8 [2, 4, 3]
1.5635747764665417 0.47859411061202123 -1.5894849123915924 -0.018739811530847042 -0.0033361468544210312 0.007750634748947957 -0.9473481004419327 -0.35933658062337853
0.987734469748166 0.043547148515289735 0.008409811946227516 -0.007109273581420456 -0.12254196997675326 -1.0141989508866318 -0.01373248173398012 0.0007150550565119904
-1.5462284951550413 -0.005951783151817946 -0.020001121383852016 -1.5835998511481386 0.0056052148211135555 0.17767577906192789 -1.5691605114261324 -0.01592577246926959
00000000: 9063 1cfc 6604 f93f f3c1 4831 49a1 de3f
00000010: 2951 43bb 876e f9bf 04fd a176 8730 93bf
00000020: 9eef 4c34 6854 6bbf d6ce 512c 21bf 7f3f
00000030: 276d aaf6 ac50 eebf 0f2b 82db 5eff d6bf
00000040: a668 9651 859b ef3f 5019 6ad5 cf4b a63f
00000050: 184b 32da 2939 813f 1400 7d18 9d1e 7dbf
00000060: 8804 7019 e95e bfbf 2721 dbad 283a f0bf
00000070: 81dc 857f c61f 8cbf 5046 910a 516e 473f
00000080: df58 2d17 5abd f8bf 4ccd d69f e560 78bf
00000090: 006b e888 2c7b 94bf 8a1b 2acc 6c56 f9bf
000000a0: 97f2 7f65 7ef5 763f e85f 2e76 14be c63f
000000b0: 7bff 6b0d 481b f9bf 751b ad7f d84e 90bf

q_params_3 f8 [2, 4, 3]
0.22556612308467622 0.06230885997709002 1.3978872584589732 0.02234405517226707 0.011287478014996114 0.01459622202074961 0.8207777601454151 0.09498666366782733
0.7364009677204497 0.023241877045972522 1.578630585030494 0.3325969631631673 -0.24162016413329962 0.8700289316196278 0.00954722021996294 -1.5945942627389094
-0.05212010213810614 0.010982880271492548 1.5727155326733593 -1.5343839264557406 0.007253916022394904 -0.11971665788715778 -0.05968156070454765 -0.01121599508270124
00000000: 1afa ddc8 59df cc3f e18d b467 f2e6 af3f
00000010: e438 a907 bf5d f63f f24d e628 5ce1 963f
00000020: 9508 6ea7 e31d 873f 7c50 cbc1 9fe4 8d3f
00000030: 647a a3b8 cf43 ea3f 9d6c 02c6 0b51 b83f
00000040: 4444 23c3 9890 e73f 2f8c 3df7 b7cc 973f
00000050: b9bd f224 1242 f93f db38 e2c5 4449 d53f
00000060: b2da 80d7 68ed cebf f529 fce9 46d7 eb3f
00000070: 954c e634 7e8d 833f 43a5 0d46 7583 f9bf
00000080: e070 4b6c 7caf aabf 4ed2 a73c 317e 863f
00000090: 8ce4 2bc3 d729 f93f e82a fa28 d68c f8bf
000000a0: 8f8a 5841 48b6 7d3f 4f69 693a c0a5 bebf
000000b0: 4ef0 ccde 948e aebf 4f11 9460 69f8 86bf

q_params_4 f8 [2, 4, 3]
-0.06529077032712069 0.021639392747717517 0.15416609372928497 -1.654140073498918 -0.2576129397892423 1.5308440006715276 -1.2610286203902767 -0.966039681829847
0.8926325018425992 -0.0055143220534433785 -1.0745119623664832 0.005687075203784134 0.20050536817884132 -0.4197152174916449 0.0024374039642059272 0.01120746173114825
-0.3553769307976801 0.008171517485383922 -0.11851690974526823 -1.580661658022178 0.0010657532605442362 0.5966408837060193 -1.4412994966511805 0.011556331069276417
00000000: 161f 495b e5b6 b0bf 1b82 a010 a328 963f
00000010: a613 5ced b6bb c33f ece4 ea94 5b77 fabf
00000020: 27f5 dafb ba7c d0bf 9b97 6247 567e f83f
00000030: fd56 be58 2c2d f4bf 371e 030d cce9 eebf
00000040: 0757 5809 7290 ec3f 8200 118e 2f96 76bf
00000050: b265 9874 3331 f1bf 378e 29a0 544b 773f
00000060: 6f12 80ef 28aa c93f 2ba6 3037 9ddc dabf
00000070: 5e6a 074a 9bf7 633f 2d04 da0c f0f3 863f
00000080: 5bd9 e1e1 7ebe d6bf 4309 de82 3abc 803f
00000090: 4b00 61cb 1f57 bebf 37f1 f3e0 634a f9bf
000000a0: a7bf 93d9 1776 513f 202a 5f9f ae17 e33f
000000b0: b4ba 9d0f 900f f7bf aec9 0880 d8aa 873f

q_params_5 f8 [2, 4, 3]
-1.324444202840727 -0.6888958971556812 1.374146029291879 1.2400662003221183 2.37166779684395 -0.26985751764899457 -0.06931684461549668 0.34537303862687
0.07940066780233117 -0.105575127746135 1.173208066048748 0.5194153966730508 -1.5530259823565358 -0.8092903399383335 0.0040188505374763855 0.7178411316083861
-0.6151649807313685 0.02350629678236198 -1.493182563075778 1.013518020288416 -0.013172891953125973 0.00035142613342031837 -0.005388269200921059 0.028065361082553864
00000000: 503e 8967 ec30 f5bf 3b3b 9468 6f0b e6bf
00000010: 41ca fb8b 80fc f53f bf22 f4a7 4fd7 f33f
00000020: 7d5e 43f7 2cf9 0240 8c75 3877 5845 d1bf
00000030: 177b afac bfbe b1bf afa4 7484 971a d63f
00000040: b3d7 7d27 9a53 b43f e2cf f0b8 f806 bbbf
00000050: 1253 31d2 75c5 f23f e4fc b709 0d9f e03f
00000060: 19f4 c0c5 31d9 f8bf aa1f e0da b4e5 e9bf
00000070: 5efc 03fa 1176 703f ae69 fff6 8df8 e63f
00000080: a357 3c78 6eaf e3bf 6da4 b8df 0812 983f
00000090: 04e3 3566 13e4 f7bf 01ba f0ab 5e37 f03f
000000a0: f830 0fa1 63fa 8abf 0000 00c0 f307 373f
000000b0: 0000 0080 0212 76bf 0000 0080 2abd 9c3f

q_params_6 f8 [2, 4, 3]
-0.16815346878183673 0.02245017358209523 0.14653183989361662 0.6205847578504619 0.2630796758242601 -0.4532007222066779 -0.4047569085091116 0.08671243085228163
0.11947566234577517 -1.4193528407996951 0.22956805951864398 -0.1300572061882869 -0.18336310867517921 0.06712394352941033 0.010411314211310209 1.3857721434455257
-1.2962296284864425 0.0038969199737413102 1.594233282218502 -0.013172481638710662 0.004949147198793735 -1.2429292533753709 0.1526746108064254 -0.0016219775079974858
00000000: c23f 9088 0d86 c5bf c269 4ca5 2dfd 963f
00000010: a838 152a 8ec1 c23f 5ba4 eb90 d4db e33f
00000020: 2314 fa22 4cd6 d03f 49ae 199a 3d01 ddbf
00000030: d41b 3885 89e7 d9bf 57ce aa2e c932 b63f
00000040: 446b 71fe f495 be3f 9a82 0b53 abb5 f6bf
00000050: 675c eb75 7c62 cd3f 850a 98eb b6a5 c0bf
00000060: c7c1 863d 7178 c7bf 29c4 3ce6 082f b13f
00000070: e71e 5ef0 8652 853f d3e6 3c69 1f2c f63f
00000080: bb49 6747 5bbd f4bf 0484 f4fa 6eec 6f3f
00000090: d82b 15c2 fa81 f93f 056d c38e 2cfa 8abf
000000a0: 3361 ca95 8e45 743f 99d2 e7c8 09e3 f3bf
000000b0: 87eb 2b76 d78a c33f 3633 8216 1193 5abf

classical_nn_linear.weight f8 [1, 4]
1.719671998819271 1.988716263790424 -0.007174173532279379 -2.502171008857234
00000000: 5969 2cc9 c683 fb3f 070d 2025 c8d1 ff3f
00000010: b0c8 268b aa62 7dbf 4554 e03b 7204 04c0

classical_nn_linear.bias f8 [1]
-0.18201336681629643
00000000: 9096 f4c8 364c c7bf
