VQ_LSTM_BASE_CLASS_TS_MODEL__DATALOADER_BESSEL_4_QUBIT_2_QuLAYERS_old/VQ_LSTM_BASE_CLASS_TS_MODEL__DATALOADER_BESSEL_4_QUBIT_2_QuLAYERS_NO_2_Epoch_26_torch_model.pth (torch, 3471 bytes, 8 tensors)

q_params_1 f8 [2, 4, 3]
-1.5786558526664218 -0.7719228343875003 1.57273673348547 1.5606731242506642 0.5489141261769369 -1.5634658882286763 -1.6754863188280507 -1.7392297246094688
-1.4419840021812245 -0.07754687310887158 0.00185903770456625 0.07096840484370583 0.045521655440754344 -1.319799283816774 -0.00335242017467616 -0.0036576265376309807
-1.5662329592515727 -0.0035894271131892475 0.007583069860396762 -1.6093023659983234 -0.01016640757860038 -0.001271919235690098 -1.5805840979126393 0.013414899808347784
00000000: de75 ada3 2c42 f9bf a75b 1784 97b3 e8bf
00000010: 7e9b 38fe ed29 f93f a771 c661 84f8 f83f
00000020: 6dc1 875b b490 e13f fca8 a5ce f403 f9bf
00000030: c530 04be cace fabf 2edc 368c e2d3 fbbf
00000040: ab93 2bd1 5d12 f7bf d3df e8a3 1cda b3bf
00000050: 1041 2989 5e75 5e3f 815e da41 fc2a b23f
00000060: ac71 c14a 9d4e a73f af6f 94da e51d f5bf
00000070: c6e9 67e0 8876 6bbf a5fe 854b 99f6 6dbf
00000080: e471 9e4a 4a0f f9bf 4d31 0002 9367 6dbf
00000090: 4ce7 dbd0 6c0f 7f3f 5b69 75d6 b3bf f9bf
000000a0: a10c 8b20 20d2 84bf 2aed 4ee1 d0d6 54bf
000000b0: 96cc 118d 124a f9bf cfd3 a55f 4579 8b3f

q_params_2 f8 [2, 4, 3]
1.506984250985573 0.7080337687946648 -1.4641741863236608 0.02143385099479663 0.010728481947464431 -0.014879609881957693 -0.8854585373801 -0.7912996374535075
0.3649342943215761 0.2047783739454798 -0.5760850775181985 0.16319265816106426 -0.9397733683312299 -0.425167165168756 -0.01373248175455296 -0.3756794181495209
-1.0850934436577 -0.005951783167954418 -0.0726067295928923 -1.6142973133035738 0.005605214759995984 0.7203586315149277 -1.517414238526812 -0.015925772481224194
00000000: 191f 9984 9b1c f83f 89f9 2d6f 36a8 e63f
00000010: 4285 5ee9 416d f7bf 3630 3364 c1f2 953f
00000020: f4f9 cc78 d0f8 853f 82dd 8f6e 3379 8ebf
00000030: 665e 8024 ad55 ecbf 1262 069e 5352 e9bf
00000040: 5433 d35e 155b d73f f70e 8381 2d36 ca3f
00000050: ecef f4f8 496f e2bf cee1 df3c 7fe3 c43f
00000060: f64c 5499 9f12 eebf cfe6 6e57 f035 dbbf
00000070: 6cd2 3a80 c61f 8cbf 4ce1 aeaf 210b d8bf
00000080: 4ad2 59f1 8a5c f1bf 82ad f2a0 e560 78bf
00000090: 422c 12c9 5a96 b2bf 608d 6a6b 29d4 f9bf
000000a0: 85c1 4c61 7ef5 763f 0aef 778b 2d0d e73f
000000b0: 8351 0f27 5447 f8bf 25af e17f d84e 90bf

q_params_3 f8 [2, 4, 3]
0.18575405593317823 -0.0513697225773946 0.715592079392555 -0.09978824310953363 0.07778646976298054 -0.24247581050629505 0.5533689923188818 0.06006325592124119
0.5837323452367896 -0.02334577812159654 1.295459859098842 0.13871820700808618 -0.7256340755096009 0.6652208231236709 0.009547220301692548 -1.0612536459082236
-0.21442993662955248 0.01098288007645809 0.6505047151986023 -1.6258267880737571 0.007253915953277375 -0.41460093588327507 0.09673279801218518 -0.011215995015761577
00000000: 9e8a aaf5 c9c6 c73f 02f2 f2dc 214d aabf
00000010: aa90 485c 21e6 e63f 4245 aee8 b88b b9bf
00000020: 180b b467 d0e9 b33f 6b0a 1986 7209 cfbf
00000030: 8e29 94e3 32b5 e13f 12fb be6f 9cc0 ae3f
00000040: bf19 8d74 efad e23f 1db2 20a6 f4e7 97bf
00000050: c4c3 011e 34ba f43f 82d0 3aa9 84c1 c13f
00000060: 6aa9 e5f3 6438 e7bf 56e6 fd2d 7d49 e53f
00000070: 4c33 b537 7e8d 833f 40fc 5e1a e5fa f0bf
00000080: 5dbb 8dae 7072 cbbf c047 f435 317e 863f
00000090: 507f b543 efd0 e43f d7cc 3bf3 6203 fabf
000000a0: e29c 983c 48b6 7d3f 429e 205d d288 dabf
000000b0: 6ab4 e90b 7bc3 b83f 9742 475e 69f8 86bf

q_params_4 f8 [2, 4, 3]
-0.488645259940706 0.025329006346574402 0.12658647063636244 -1.4483211332455443 -0.3613932495676068 1.4183361690943204 -1.5736811273264462 -1.0140800855035395
0.30211651575342474 0.019634694353315982 -1.4278007937612105 -0.13364103146739312 -0.26048762856886293 -0.2862125100751644 0.0024374039078151792 -0.43311049632130894
-0.09467963458542358 0.008171517447976478 0.3671170190767749 -1.573156849756787 0.0010657532874763288 0.8583388903642833 -1.203675634350293 0.01155633110593407
00000000: ab9b b2c4 f645 dfbf 5a48 98d7 d8ef 993f
00000010: 21e7 bf47 fc33 c03f 0853 d6c7 522c f7bf
00000020: 9bd5 f826 1121 d7bf 8ee7 4f44 81b1 f63f
00000030: 2531 0343 cc2d f9bf 8d33 2c0a ac39 f0bf
00000040: f183 af82 e055 d33f dc31 7508 1e1b 943f
00000050: 0e84 26a5 45d8 f6bf 4330 c739 261b c1bf
00000060: add0 6d4d d4ab d0bf 53a6 9e46 4e51 d2bf
00000070: aa57 4742 9bf7 633f 4647 5016 15b8 dbbf
00000080: 8641 24ae ec3c b8bf 30ff 9481 3abc 803f
00000090: 2b58 af61 d87e d73f c9f0 5284 a62b f9bf
000000a0: 1aed fae0 1776 513f 1ffc df1e 8377 eb3f
000000b0: cd6c c861 4142 f3bf 603b 4b81 d8aa 873f

q_params_5 f8 [2, 4, 3]
-0.9994101274626771 -0.9330885215073458 1.4619223746532093 0.46619764161403454 1.9534832983355808 -0.4507346869608171 -0.09520635055051276 0.02752791917577553
0.1476992405423529 -0.3819677632898477 0.5655603191355538 0.6669888405037743 -1.4893753610638394 -1.1191455461166369 0.004018850611656301 0.8154989110249601
-0.41150035174960903 0.023506296785599328 -1.2024348223495132 1.2250590421572922 -0.013172891940562655 0.00035142613342031837 -0.005388269200921059 0.028065361082553864
00000000: d9c9 97f2 2afb efbf 93b4 8475 dcdb edbf
00000010: b0d1 46b7 0864 f73f 4818 0da2 2ed6 dd3f
00000020: f122 fab3 7741 ff3f 34d9 ea4c d6d8 dcbf
00000030: 2168 fc81 715f b8bf f4f8 5862 4730 9c3f
00000040: 2e00 e307 cfe7 c23f d031 ddea 2872 d8bf
00000050: e647 53f4 1119 e23f 6a57 18fb f857 e53f
00000060: 51cc 3342 7bd4 f7bf 6c8f 0029 05e8 f1bf
00000070: 02f9 1cff 1176 703f 7fd3 182c 9118 ea3f
00000080: fda6 4392 0556 dabf 5be1 c6df 0812 983f
00000090: f000 d94b 2c3d f3bf 26c1 9b82 d799 f33f
000000a0: e4ae a0a0 63fa 8abf 0000 00c0 f307 373f
000000b0: 0000 0080 0212 76bf 0000 0080 2abd 9c3f

q_params_6 f8 [2, 4, 3]
-0.27244772398877515 -0.396173108821444 0.01665104546368839 0.2404975986067536 0.44638036070170184 -0.48003047709267554 -0.3980732526606986 0.2142684853031682
-0.18063439563994235 -1.186283044202 0.22263950751634165 -0.3003102389841855 0.016082186099404077 0.04678092619522561 0.01041131388369806 1.1955259191881138
-0.7261405380283064 0.0038969205530493814 0.28059548976566534 -0.04824376894474658 0.004949147149498552 -0.9308341285810996 0.12466317743855765 -0.0016219771650206661
00000000: eeb0 1994 c86f d1bf 0956 7c74 e65a d9bf
00000010: 0ecf d7be f80c 913f 552a 6414 a0c8 ce3f
00000020: 7097 b2ee 7e91 dc3f 7c90 0cc0 d1b8 debf
00000030: 4ec3 653c 087a d9bf 6764 7854 266d cb3f
00000040: 1934 e722 071f c7bf c159 eaed 03fb f2bf
00000050: 1845 ca8d 737f cc3f 4ad3 c56f 4838 d3bf
00000060: cb68 613d d977 903f 1790 2b68 abf3 a73f
00000070: ed69 1ce5 8652 853f bfee 46c9 df20 f33f
00000080: 9834 e414 8b3c e7bf 3e1b 934a 6fec 6f3f
00000090: 71b6 fcc8 46f5 d13f a0f9 b443 68b3 a8bf
000000a0: 6e2b 6792 8e45 743f 1935 88a7 64c9 edbf
000000b0: 6432 1d0e ede9 bf3f 1a5a 3bb8 1093 5abf

classical_nn_linear.weight f8 [1, 4]
1.0690535417075258 1.511944746443782 -0.0047951620714205175 -2.0519128087318963
00000000: a2e8 f4e2 d71a f13f 645c 75f9 ec30 f83f
00000010: 948e 6984 17a4 73bf daf9 3d43 516a 00c0

classical_nn_linear.bias f8 [1]
-0.3391898245714077
00000000: 1fe4 ea3c 49b5 d5bf
