VQ_LSTM_BASE_CLASS_TS_MODEL__DATALOADER_BESSEL_4_QUBIT_2_QuLAYERS_old/VQ_LSTM_BASE_CLASS_TS_MODEL__DATALOADER_BESSEL_4_QUBIT_2_QuLAYERS_NO_2_Epoch_12_torch_model.pth (torch, 3471 bytes, 8 tensors)

q_params_1 f8 [2, 4, 3]
-1.5740577844985806 -0.5272513976596935 1.5798625651095788 1.3312093638011218 0.31816914641950966 -1.327167865368345 -1.7316294372520564 -1.5460201430115674
-1.0930793296009778 -0.08538912032159895 -0.13191161298410348 0.0589080494203285 -0.40006316827787364 -1.2536614203360454 -0.0033524201846345915 0.06881392041605817
-1.5489419717268136 -0.0035894271015459926 -0.006060557965611467 -1.5927745985724435 -0.010166407566662303 -0.06052288307932787 -1.593636240979894 0.013414899825051866
00000000: 4cf8 2637 572f f9bf 62ff b652 3edf e0bf
00000010: ff1f 15f8 1d47 f93f ff79 9a30 a24c f53f
00000020: 32f4 9d1f e25c d43f 5ff2 205f 143c f5bf
00000030: 8f9d 9c11 c1b4 fbbf 2012 139e 7fbc f8bf
00000040: eb1d 49c0 407d f1bf 7829 37b7 0fdc b5bf
00000050: cc5a ddcf 7ae2 c0bf 4682 7623 3229 ae3f
00000060: 6f9b 058c a29a d9bf 859a 0947 ff0e f4bf
00000070: 5a4b c6e1 8876 6bbf e94e b201 ca9d b13f
00000080: a77e 7f60 77c8 f8bf 2f88 6600 9367 6dbf
00000090: 1801 20a4 f4d2 78bf 704a ac37 017c f9bf
000000a0: 780a 2220 20d2 84bf 237f f8f6 dafc aebf
000000b0: 11aa 0bb7 887f f9bf 0fc2 3860 4579 8b3f

q_params_2 f8 [2, 4, 3]
1.5414066735827114 0.7530353174075248 -1.5361434769538638 -0.024163079936257846 -0.030329347640485674 -0.011166399731517415 -1.0527250734375835 -0.8913949407966973
0.07287544772113681 0.2502766504017198 -0.6238304316705762 0.17345660664727344 -1.1352505072693524 -0.6027530832861056 -0.013732481761750613 -0.6239962034091884
-0.9398257605831444 -0.005951783146595465 -0.0030375834439539413 -1.5850862492075326 0.005605214744551982 0.5191589661880938 -1.219919365910134 -0.015925772470208814
00000000: 77fb 4d0b 9aa9 f83f 10f2 9f85 dd18 e83f
00000010: 6fb0 b72e 0b94 f8bf 962f 63d8 34be 98bf
00000020: 614c e610 a80e 9fbf eb95 49cd 68de 86bf
00000030: 777f 213f f6d7 f0bf 5f55 d1ae 4e86 ecbf
00000040: 9dc5 a420 f7a7 b23f 4561 1b5b 8804 d03f
00000050: 3dca c83c 6bf6 e3bf 5b9f 697a d333 c63f
00000060: 16d4 976f fc29 f2bf 15dd 88d5 c049 e3bf
00000070: 1922 7a80 c61f 8cbf 620f cfe2 c6f7 e3bf
00000080: e492 3479 0d13 eebf 56ed 7a9f e560 78bf
00000090: 84f3 9e31 46e2 68bf 75f8 1a66 835c f9bf
000000a0: eb0f 3d60 7ef5 763f 3e7f a643 f39c e03f
000000b0: 1375 452b ca84 f3bf ee3c b17f d84e 90bf

q_params_3 f8 [2, 4, 3]
0.03554759542812216 0.07614128878375905 0.1553194383750469 -0.053104468329644675 0.021005878580173436 -0.0771569312476296 0.289121527285783 0.1266237826831678
0.3476734809439486 -0.09652212749707735 1.1997216898014156 0.2673905855724228 -0.4548213424776841 0.40420740801330696 0.009547220450475251 -0.6996371300637769
-0.12662034027072064 0.010982880347926775 0.09928342513199827 -1.3619031405696504 0.007253915920495572 -0.8678083181592922 0.05292903932014281 -0.011215995022437251
00000000: 0365 a15f 4b33 a23f e997 33d9 fe7d b33f
00000010: 3f80 20e2 81e1 c33f 029d 7e45 8230 abbf
00000020: be34 1aa6 9082 953f 3a48 5e80 8ec0 b3bf
00000030: c4c4 1094 f780 d23f e98f c246 3535 c03f
00000040: a9ce 9545 4840 d63f d1b6 f094 acb5 b8bf
00000050: a5fb df5e 0f32 f33f 98ad 1267 ed1c d13f
00000060: dbb9 ddf9 ca1b ddbf 0df5 8dbf 88de d93f
00000070: 29e8 d13c 7e8d 833f 7a1e 1668 6d63 e6bf
00000080: 374e 3c66 1835 c0bf e224 483f 317e 863f
00000090: 5f0f fa77 a36a b93f ba0f 91f2 5aca f5bf
000000a0: c4e8 573a 48b6 7d3f 0a1c 36f3 15c5 ebbf
000000b0: 3005 c7d9 8319 ab3f dffa 815e 69f8 86bf

q_params_4 f8 [2, 4, 3]
-0.7559228877747433 -0.15569697863348547 0.6251792538079539 -1.296116675919343 -0.41930576678354314 1.2988690600049044 -1.5231667546015926 -0.994433016422343
0.15940631207251452 -0.010212826620676832 -1.134958063858198 -0.1184366428137223 -0.6925645021718453 -0.46129287659604473 0.002437403900175167 0.11084638615542125
-0.17262287896876466 0.008171517481026992 0.1306348435756298 -1.5691435279239452 0.0010657532773408896 0.6488163463523066 -1.1471401317311685 0.011556331084387566
00000000: f64a 2932 8530 e8bf ea8d a8eb e0ed c3bf
00000010: 64c5 27ec 7701 e43f 1ffb edd6 e4bc f4bf
00000020: 6402 d7da e7d5 dabf 021e 68ec 2ac8 f43f
00000030: 8ce4 551a e45e f8bf 4d17 7330 65d2 efbf
00000040: 4b4f 9010 6d67 c43f d527 af62 76ea 84bf
00000050: 98a3 69c9 c928 f2bf c570 8823 dd51 bebf
00000060: e75a e607 7d29 e6bf cde5 b68e d285 ddbf
00000070: 8d88 3a41 9bf7 633f 94d5 6ac3 6d60 bc3f
00000080: b629 dba9 8118 c6bf 54b6 b782 3abc 803f
00000090: 4b0d 707e a4b8 c03f 519d 723e 361b f9bf
000000a0: 43b5 31de 1776 513f 0d30 967f 1ac3 e43f
000000b0: 986e 5b9c af5a f2bf f6b4 8d80 d8aa 873f

q_params_5 f8 [2, 4, 3]
-0.9636022726739485 -1.0046264485571266 1.256951210577686 0.34872351564148657 1.6594662796478863 -0.5862489913244836 -0.17488671062102865 -0.0034001798047461167
-0.07065407008226292 -0.5470844291622379 0.5987083753144273 0.34806928447716884 -0.9504364613293557 -0.08689347603853219 0.004018850623715031 0.5922851972045045
-0.5377407106594537 0.023506296789466558 -1.321011505203302 1.2018230384064048 -0.013172891923105525 0.00035142613342031837 -0.005388269200921059 0.028065361082553864
00000000: 5b8c ef6e d4d5 eebf e4fd d32e f312 f0bf
00000010: 9194 61df 781c f43f 61af c16f 7c51 d63f
00000020: 7c70 7e83 2c8d fa3f 13a7 a13e 8dc2 e2bf
00000030: a3a8 4f0f b062 c6bf 981e fba1 b1da 6bbf
00000040: 0326 5598 6216 b2bf 6ee2 6c34 b781 e1bf
00000050: e422 7a77 9e28 e33f 7394 6464 c446 d63f
00000060: d6bc cab9 f969 eebf cb3d d29d a63e b6bf
00000070: b31c f1ff 1176 703f 86be fc15 00f4 e23f
00000080: 2b53 c001 2c35 e1bf 78e3 d7df 0812 983f
00000090: 81ce c7f5 dc22 f5bf ca8e 58cb aa3a f33f
000000a0: ee20 07a0 63fa 8abf 0000 00c0 f307 373f
000000b0: 0000 0080 0212 76bf 0000 0080 2abd 9c3f

q_params_6 f8 [2, 4, 3]
-0.27809286123214655 -0.5555267215077616 -0.04069744484746257 0.02550107258450782 0.8203910191302666 -0.2330730799339814 -0.18427331695102295 0.2807044811531881
-0.30378277176761503 -1.014527242372322 0.1278646602977042 -0.35828075841356966 -0.2093413042409143 0.03864415157827819 0.010411314825904076 1.1716590879620004
-0.4735225150513232 0.0038969210085447598 0.06808740118899821 -0.07799630175501636 0.004949147319008413 -0.6187244822008072 0.11262455694423329 -0.0016219769383764224
00000000: 898f 0f00 46cc d1bf 09c2 9df9 dfc6 e1bf
00000010: 781d 4da5 4bd6 a4bf 59b4 0d03 f41c 9a3f
00000020: 6417 a3aa a440 ea3f 247d f2b3 56d5 cdbf
00000030: 4240 ea9e 4496 c7bf 9930 99ed 0ff7 d13f
00000040: fe20 754b 2d71 d3bf 363e eeea 803b f0bf
00000050: 1e7a 2583 de5d c03f ec07 0b6b 12ee d6bf
00000060: da56 b523 b2cb cabf d4b5 6b8e 2ac9 a33f
00000070: 4225 7c05 8752 853f 48ba 8d99 1dbf f23f
00000080: 9d2a 0461 314e debf e06c 2d89 6fec 6f3f
00000090: 5d5a 6009 2d6e b13f 872a 3fcd 90f7 b3bf
000000a0: fa37 0d9e 8e45 743f 1d2f 0949 97cc e3bf
000000b0: 044e cd84 f6d4 bc3f 60ae ee79 1093 5abf

classical_nn_linear.weight f8 [1, 4]
0.791584362737254 1.3585237357185955 0.1526605759328041 -1.8390448879807049
00000000: 8168 bfba a854 e93f 9104 7c62 83bc f53f
00000010: af8c 82ba 618a c33f be0c 1c55 ba6c fdbf

classical_nn_linear.bias f8 [1]
-0.35062015989293943
00000000: e7bd 038a 8f70 d6bf
