VQ_LSTM_BASE_CLASS_TS_MODEL__DATALOADER_BESSEL_4_QUBIT_2_QuLAYERS_old/VQ_LSTM_BASE_CLASS_TS_MODEL__DATALOADER_BESSEL_4_QUBIT_2_QuLAYERS_NO_2_Epoch_48_torch_model.pth (torch, 3471 bytes, 8 tensors)

q_params_1 f8 [2, 4, 3]
0	0xbff926f033be3f24	-1.5720064183441957
1	0xbfecf366af304dc9	-0.9047120496419946
2	0x3ff943fa34b67fc5	1.5790960368249085
3	0x3ff95974e256ec52	1.5843399850262085
4	0x3fe4f51592e807ee	0.6549175137772616
5	0xbff97b4c2a268a1d	-1.592601933146063
6	0xbffb21427e3da0c9	-1.6956200534132668
7	0xbffc6dd934a20ba6	-1.776818471524828
8	0xbff6ccbf12e64788	-1.4249869097006655
9	0xbfb334135d61e3c4	-0.07501336126178076
10	0x3fa3502101fc17b5	0.03772071027019256
11	0x3fb6e225e302c6fc	0.08938824455506372
12	0x3fc2b78c5ddf9419	0.14622644981059876
13	0xbff4035d4eb22a4a	-1.2508214067517138
14	0xbf6b7688ddac97ef	-0.003352420154800299
15	0xbf8c440bd505bfa5	-0.013801662863187245
16	0xbff214cf9b8e7bb0	-1.1300808025768951
17	0xbf6d6792ffa492a5	-0.0035894270960333424
18	0xbf83086af9a84751	-0.009293399566590617
19	0xbff9ca6f58449a70	-1.6119225929229763
20	0xbf84d220203172d6	-0.010166407568413954
21	0xbf735d7c4ba0d878	-0.004727826622959445
22	0xbff8f5cf2093b8f1	-1.5600119850674299
23	0x3f8b79455ffa8a71	0.013414899817978583

q_params_2 f8 [2, 4, 3]
0	0x3ff8a7a454903e0e	1.540928201986279
1	0x3fe10bc3a628f806	0.5326860661805319
2	0xbff90ccbcb7909fd	-1.5656240413815106
3	0xbfa31965d2f2df07	-0.037303144455505026
4	0x3f7bc4c118653391	0.006779436377041829
5	0xbf73d87b11aac0dd	-0.004845123995139225
6	0xbfead3502d0060b0	-0.838295066731936
7	0xbfdf42f3cd5bc3d2	-0.4884614472821883
8	0x3fe98f90b5ae0bc3	0.7987750576434042
9	0x3f8ed0226b2c979d	0.015045422454544705
10	0xbfa97411f7cb0032	-0.04971367025200414
11	0xbfa0ed4f4a8693eb	-0.03306052956330759
12	0xbfd17cd88468aedc	-0.2732449811035005
13	0xbfebbf0bc2e5a931	-0.8670710379204022
14	0xbf8c1fc67ff6b07b	-0.013732481746807182
15	0xbf73c228b3035762	-0.00482383630897751
16	0xbff8696b1408e2ee	-1.5257368834119762
17	0xbf7860e5a15aafd1	-0.005951783173866646
18	0xbf99e0b03fcf410a	-0.025271181006076872
19	0xbff9cd31dadf0be8	-1.6125963735255429
20	0x3f76f57e647b9c6b	0.005605214806315133
21	0x3fdc741bc5d62934	0.44458669967629594
22	0xbff876493c44ccf7	-1.5288784364936967
23	0xbf904ed87fac0bd2	-0.015925772469028328

q_params_3 f8 [2, 4, 3]
0	0x3fd2e2d95d298f37	0.2950957689083568
1	0x3fa0bde1d2c1c7b8	0.032698685624282076
2	0x3ff40871aeb370a2	1.252061541009461
3	0x3f528d2a3ff79ce0	0.0011322891804129084
4	0x3f9619f43aedc1d0	0.021583381745075958
5	0x3f71c523720d46d0	0.004338396510165501
6	0x3febfbb440bff107	0.8744755997318244
7	0x3fa000667c021c7e	0.03125305427334356
8	0x3fe53a24e98f9a49	0.6633476793038621
9	0x3f813057245f6f14	0.008392983243474407
10	0x3ff90acd54145c81	1.565137222705545
11	0x3fd4ecf28c5822cf	0.3269621248769398
12	0xbfcefc3759f16221	-0.24207202808135356
13	0x3feb7c30fe18934c	0.8589100802242711
14	0x3f838d7e3ca21c55	0.009547220445041452
15	0xbff6720e78b08cd1	-1.402845832294407
16	0x3f9f942b18e3b378	0.030838654894000922
17	0x3f867e313c33b212	0.01098288025829056
18	0x3ff9690606b40d52	1.5881405126427421
19	0xbff93793a99124d4	-1.5760685561856933
20	0x3f7db6483bac1744	0.007253915939832659
21	0x3f91b60afda5cbd0	0.017296001178191578
22	0x3fa10d989bc6f863	0.03330685521676526
23	0xbf86f869612d1cdb	-0.011215995100100453

q_params_4 f8 [2, 4, 3]
0	0xbfa580822f1ab5b5	-0.041996067285576734
1	0xbf663dbab051296a	-0.002714981676523444
2	0x3fb63bcc17d1b074	0.08684993344803776
3	0xbff9c4ab9c47600b	-1.6105152229920374
4	0xbfd10805c880c05c	-0.2661146600758053
5	0x3ff88f5bbbf5ab41	1.5349995939420327
6	0xbff3af320fd39e69	-1.2302723520496335
7	0xbfef953c5a4266c4	-0.9869672549131896
8	0x3fe59c11b4fb6bd9	0.6753014120871469
9	0x3fa9abd684e939e6	0.05013914463471618
10	0xbff25bc703f9551e	-1.147406592868101
11	0xbfc201f1a9f0c60d	-0.14068432615162899
12	0x3fd050f1b7a42dd3	0.25494044240687436
13	0xbfd75e9889ba8a52	-0.36514867258134587
14	0x3f63f79b44b7842a	0.0024374039255552664
15	0xbf8b607c45596da2	-0.013367625109075135
16	0xbfd610b9825ee824	-0.3447707913543374
17	0x3f80bc3a8211b101	0.008171517462152613
18	0xbfb54f665fd08600	-0.0832427963182667
19	0xbff9ab1be851effb	-1.6042746615412387
20	0x3f517617d3710e85	0.0010657532382233614
21	0x3febdfed5ba43083	0.8710848607893386
22	0xbff6b597df4c89c5	-1.4193342898002907
23	0x3f87aad880996a1f	0.011556331085718572

q_params_5 f8 [2, 4, 3]
0	0xbff46ef19d19327e	-1.2770858894974988
1	0xbfe8c5bc213c547a	-0.7741375588544905
2	0x3ff5582ba1c40ff5	1.334025985620426
3	0x3ff348286bd2ddc0	1.2051166736472254
4	0x40029f4473608cc2	2.32776727808377
5	0xbfd113f9674c6305	-0.266844130399065
6	0xbfb7191ef003bf4a	-0.09022706374866832
7	0x3fd3e88108c47816	0.31106592041203507
8	0x3fc0d4cd951b4e1d	0.13149423390005746
9	0xbfbf97d6acc422eb	-0.12341062276767516
10	0x3ff18a53f29a1a30	1.0962714649809975
11	0x3fe18a70d953c66d	0.5481495136902602
12	0xbff92844d119201a	-1.5723312538048106
13	0xbfec932ec0bafdba	-0.8929666294351855
14	0x3f707611ff118f36	0.004018850611007532
15	0x3fe6f2f96d5e4d42	0.7171599517918497
16	0xbfe2c4e44b20e092	-0.5865346400596698
17	0x3f981208dfa30121	0.023506296777442096
18	0xbff8187cc3748b9f	-1.5059783587428013
19	0x3fed31b351a85c8f	0.912316951263067
20	0xbf8afa63a09b83ce	-0.013172891939975086
21	0x3f3707f3c0000000	0.00035142613342031837
22	0xbf76120280000000	-0.005388269200921059
23	0x3f9cbd2a80000000	0.028065361082553864

q_params_6 f8 [2, 4, 3]
0	0xbfc34e20affbbd6d	-0.1508217677396532
1	0xbf60d415dba94c70	-0.002054255191333669
2	0x3fc2dcbcc4535dd2	0.1473613699551906
3	0x3fe1acf69a81f91a	0.5523636834839494
4	0x3fd108f8f5691324	0.26617263761390775
5	0xbfe0003475ab8b56	-0.5000250147098579
6	0xbfd8eab7c4374228	-0.3893260399027292
7	0x3fb81f3ece773f5e	0.09422676602048116
8	0x3fb8cc5431597a7b	0.09686781124899284
9	0xbff5db6a679eb786	-1.3660682723670745
10	0x3fc9a5c802c32932	0.20037174353485337
11	0xbfc5ba5fd3e74fd6	-0.16975019308904277
12	0xbfbfafa001817e80	-0.12377357517970644
13	0x3fb00b9d3dec0f84	0.06267721902628237
14	0x3f855286f1da29fe	0.010411314254516132
15	0x3ff62c5dbe123262	1.385831587281381
16	0xbff3326b26547d6c	-1.199809217192377
17	0x3f6fec6eeb7280f0	0.003896919860906782
18	0x3ff3f731b2600ded	1.2478501289159525
19	0xbf836aa9ca72ec3e	-0.00948078774523797
20	0x3f74458e97d69f8a	0.004949147228593529
21	0xbff2963db2530321	-1.1616799321929607
22	0x3fc42ccc8de1dac4	0.1576171582016369
23	0xbf5a9310a50512d2	-0.0016219770951277257

classical_nn_linear.weight f8 [1, 4]
0	0x3ff930c3629d2981	1.5744050838571584
1	0x3ffdc1699d531098	1.8597198625075517
2	0xbf82e8e4b5783612	-0.009233271396648344
3	0xc00358b1b6449153	-2.4183077087092584

classical_nn_linear.bias f8 [1]
0	0xbfcda5bb2779c472	-0.23162021091005475
