VQ_LSTM_BASE_CLASS_TS_MODEL__DATALOADER_BESSEL_4_QUBIT_2_QuLAYERS_old/VQ_LSTM_BASE_CLASS_TS_MODEL__DATALOADER_BESSEL_4_QUBIT_2_QuLAYERS_NO_2_Epoch_93_torch_model.pth (torch, 3471 bytes, 8 tensors)

q_params_1 f8 [2, 4, 3]
0	0xbff9819ab6916f3f	-1.5941416865889122
1	0xbfef1b44d3491e96	-0.9720787169143985
2	0x3ff999ef60eebf14	1.600081804888707
3	0x3ff90eae6a195b4b	1.5660843033308136
4	0x3fe7b0a8f8ad3195	0.740314946838725
5	0xbff8fd569320609d	-1.561850142205038
6	0xbffa2fb03d7b50c6	-1.6366426850918727
7	0xbffc0515ff655f86	-1.751241681709844
8	0xbff87107b8834374	-1.527595253708765
9	0xbfb90fa89b284c7e	-0.09789518154166107
10	0xbf961e8eff78979c	-0.021600946753231307
11	0x3fb85fc254071a20	0.09521116782625727
12	0x3fc6692d1e2c03f9	0.17508472417105717
13	0xbff4031d129db9e9	-1.2507601477806196
14	0xbf6b7688db41d09b	-0.0033524201372135526
15	0xbf3899087bd576ed	-0.00037533242342201075
16	0xbff8e5a25aa0a27d	-1.5560630359779275
17	0xbf6d67930129695c	-0.0035894271070848038
18	0xbf7ed2212230ff98	-0.007524613788575517
19	0xbff9a052b4b74083	-1.6016413745128666
20	0xbf84d22020423274	-0.010166407570318038
21	0xbf517b3365a79bde	-0.0010669710087485222
22	0xbff91a9a9b62416d	-1.5689951009445295
23	0x3f8b79455f0c27f8	0.013414899790877385

q_params_2 f8 [2, 4, 3]
0	0x3ffa0c2283968b1f	1.6279626026304823
1	0x3fd869e9d7ccbc2f	0.38146444391435613
2	0xbff8ad841a7a3a2e	-1.5423623117709542
3	0xbf78dce544d1978e	-0.006070037442531885
4	0xbf84b98344a27eab	-0.0101194625206625
5	0x3f918e5fc3985e84	0.01714467650717079
6	0xbff559a161aa40e6	-1.334382421020615
7	0xbfc20d111dc55aac	-0.14102376893670987
8	0x3ff29618ccfa455a	1.1616447455347356
9	0x3f7b303e4b55717e	0.006637805306436538
10	0x3f661d00db795606	0.0026993767494711855
11	0xbfa9812327ca9814	-0.04981336460814148
12	0xbfb138fcd354c129	-0.06727581176233301
13	0xbff356c7e26e7b30	-1.2086867184622854
14	0xbf8c1fc680650b20	-0.013732481759352988
15	0xbf715aa38e6d9482	-0.004236830608396082
16	0xbff9172eb94a18cd	-1.5681597936505114
17	0xbf7860e5a07c1194	-0.005951783161212271
18	0xbf8143c50e2a60e3	-0.008430041785047531
19	0xbff9c52061a89a9b	-1.610626584509794
20	0x3f76f57e65d8241a	0.00560521482612677
21	0x3fe498c49762090b	0.6436484295557262
22	0xbfeb0e601c3aa2da	-0.8455048133228857
23	0xbf904ed87f945aab	-0.01592577246364139

q_params_3 f8 [2, 4, 3]
0	0x3fa5511c54510179	0.04163445023778229
1	0x3f8b6c21d71ed466	0.013389839532331926
2	0x3ff9d9c919974db0	1.6156702994966103
3	0x3f89bdcb7cd37956	0.012569036242379521
4	0xbf5b414500f06338	-0.001663510691065363
5	0xbf77a3b9b9b36d31	-0.005771375169582969
6	0x3fd7f03ad4426c2b	0.37403746345961747
7	0x3fb618b934ede35e	0.08631475012033493
8	0x3ff2a39845109d64	1.1649401376579016
9	0xbf6694783b9713f2	-0.002756342725407362
10	0x3ff91d6f7d5840a8	1.5696864029196522
11	0x3fd00c5e086b04b9	0.250754841061347
12	0xbfd1b4e94d175b0f	-0.27666695145073644
13	0x3fedc7e3eb26469f	0.9306506722225157
14	0x3f838d7e2ffba2ce	0.009547220076869502
15	0xbff91c224586e555	-1.569368621434781
16	0xbf8dc88c1afdf392	-0.014542669843416598
17	0x3f867e31357ce3dc	0.010982880062884996
18	0x3ffa05fb32dafa12	1.6264602648294653
19	0xbff8f1318647c62c	-1.5588851208998546
20	0x3f7db64827bae1c3	0.007253915649635126
21	0xbfa67a11800abde7	-0.04390005767833909
22	0xbf71dfc54f372453	-0.004363795032483147
23	0xbf86f86960587e7d	-0.011215995075928515

q_params_4 f8 [2, 4, 3]
0	0x3f788464935ae21a	0.005985634683093122
1	0xbf9191ad71edba0d	-0.01715727813592065
2	0x3fc38f2e55e98a94	0.15280703730521294
3	0xbff9f5e70f2cb163	-1.6225348084218119
4	0xbfd02392be4527cc	-0.2521712167841741
5	0x3ff8e77510318700	1.556508124595382
6	0xbff8276c1c1c9865	-1.5096245859254165
7	0xbfef1cc044c1ca4d	-0.9722596495542547
8	0x3ff5cab92151db01	1.361992960124269
9	0xbfa948513d831c1e	-0.049379862555319884
10	0xbff06a6076567827	-1.0259708998269248
11	0xbfaacbba95be46d6	-0.05233557775421864
12	0x3fa1d177c9ba5cfe	0.03480123841762327
13	0xbfe020d7a52924c0	-0.504009077624822
14	0x3f63f79b54527dbf	0.002437404039099283
15	0xbf63a5488deba138	-0.0023981492116612844
16	0xbfd091b0c3d7da53	-0.25889224171934194
17	0x3f80bc3a814bca25	0.008171517439653784
18	0xbfbc195405d9731d	-0.10976147787864617
19	0xbff9c639932c9c21	-1.6108947514528682
20	0x3f517617d596aa8b	0.0010657532460337817
21	0xbfd5658bfcf887f2	-0.33432292656118456
22	0xbfeb0440ebef9185	-0.8442692382928249
23	0x3f87aad8814ed491	0.011556331106343161

q_params_5 f8 [2, 4, 3]
0	0xbff89ca9236ff7bd	-1.538247240473978
1	0xbfde860bb9f773e9	-0.47693150673677437
2	0x3ff74cd06dccc958	1.4562534607944908
3	0x3ff58dbaa7a2476e	1.347101836032802
4	0x4004cb5a29ec4f37	2.5992930674782673
5	0xbfcdfb2f1c884419	-0.23422802823236635
6	0xbf75e559ff13023a	-0.005345679806112497
7	0x3fbc0f4454247ffa	0.10960795454275277
8	0x3fb2581046f71a15	0.07165624363469932
9	0xbfc64d308f3b342e	-0.17423064225877866
10	0x3ff4ab99ebb16c49	1.2918948370704746
11	0x3fd53fd7c908c2f5	0.33202166206596867
12	0xbff84a1abfcc8ade	-1.518091916289158
13	0xbfe4e9480b07c27e	-0.6534767356334468
14	0x3f707611fcd120fb	0.004018850578241247
15	0x3ff233a7c1def8de	1.137611157711539
16	0xbfea11a52668b343	-0.8146539449859137
17	0x3f981208de44f194	0.023506296697847498
18	0xbffbde93f0096e89	-1.7418403030814338
19	0x3ff860154d6cdf84	1.5234578155923097
20	0xbf8afa63a5fbc244	-0.013172892096435913
21	0x3f3707f3c0000000	0.00035142613342031837
22	0xbf76120280000000	-0.005388269200921059
23	0x3f9cbd2a80000000	0.028065361082553864

q_params_6 f8 [2, 4, 3]
0	0xbfccee9f694484c6	-0.22603218688985843
1	0xbf921acdab992ef8	-0.017680371855290894
2	0x3fc9b53a39ea6a9f	0.20084312274851343
3	0x3fe1ef3beedd6f20	0.5604533830005245
4	0x3fc51aeee511adb1	0.16488443551075485
5	0x3fb2a7da651fa362	0.07287373513066833
6	0xbfdcad9311e71d4c	-0.44809414623565114
7	0x3f9ea036fa8b0a54	0.02990804580873381
8	0x3fcd5629ea9c1bc4	0.22919200854832245
9	0xbff7d20d5e9227b0	-1.488782281320237
10	0x3fdf3ef5f9697b91	0.4882178245224447
11	0xbfb1e35eea586c51	-0.06987565251658735
12	0x3f896765819632c7	0.012404244439289681
13	0xbfa1ef1a48b64e6c	-0.035027333618157325
14	0x3f855286e64ebe2c	0.010411313918523644
15	0x3ff76ca2dc496ad4	1.4640225033714858
16	0xbff6f1bab0ea7d86	-1.4340159331112274
17	0x3f6fec6f232d5037	0.003896920266393901
18	0x3ffff0599217e623	1.9961791712543195
19	0x3f82c6a4952092de	0.00916794376468871
20	0x3f74458e9b5eab41	0.004949147279982581
21	0xbff94239b936fc8b	-1.5786683306648992
22	0xbf510d56d9ea923a	-0.0010407779842945956
23	0xbf5a931163b6a039	-0.0016219777888668698

classical_nn_linear.weight f8 [1, 4]
0	0x4000607c10b0e58e	2.04711163558813
1	0x40022aed1f1a5157	2.270960085859922
2	0x3f7ae39044c7b868	0.0065646777625102196
3	0xc00603184b472e0c	-2.751511180982339

classical_nn_linear.bias f8 [1]
0	0xbf8bf4001d6b30b7	-0.013648987672603459
