VQ_LSTM_BASE_CLASS_TS_MODEL__DATALOADER_BESSEL_4_QUBIT_2_QuLAYERS_old/VQ_LSTM_BASE_CLASS_TS_MODEL__DATALOADER_BESSEL_4_QUBIT_2_QuLAYERS_NO_2_Epoch_25_torch_model.pth (torch, 3471 bytes, 8 tensors)

q_params_1 f8 [2, 4, 3]
000000 8a 58 d3 2b 11 3c f9 bf f4 9a 38 87 4a 91 e7 bf
       -1.5771648132263487 -0.7364857331311598
000010 b7 13 37 60 a3 4f f9 3f cb 80 e1 d2 2f fb f8 3f
       1.5819429167179189 1.5613249051603357
000020 8f e9 25 e0 8a 72 e0 3f 4a 3e 99 2a c2 ee f8 bf
       0.513982236661194 -1.558290640259559
000030 68 a7 03 17 5f 66 fa bf 88 27 36 7c 4c 57 fb bf
       -1.6499930285449071 -1.7088131763470944
000040 fe fe 1d 60 aa 20 f7 bf 55 13 df 3a 63 71 ae bf
       -1.4454749826981579 -0.0594588288654793
000050 44 5a 49 36 2c 2a 77 3f 29 1a 8a 16 ff ae b6 3f
       0.00565545339903523 0.0886077337291701
000060 de b7 70 a0 ae f1 75 3f b2 59 c9 0c 4d 51 f5 bf
       0.005357439170479565 -1.3323488711808804
000070 61 fc 37 e1 88 76 6b bf 30 6f 08 92 ba ad 73 bf
       -0.003352420180589941 -0.0048043525607928544
000080 41 cf b3 bb 94 f7 f8 bf 6c a6 f4 01 93 67 6d bf
       -1.5604445774196878 -0.00358942711286119
000090 02 01 2f dd 75 ae 54 3f 83 ba 61 ee 11 8e f9 bf
       0.0012622977271661844 -1.5971850692546077
0000a0 b6 9c 71 20 20 d2 84 bf 75 e8 04 fd d0 03 35 3f
       -0.010166407575708507 0.00032066204314030257
0000b0 10 ea f1 e0 25 6d f9 bf 0e 6b 9e 5f 45 79 8b 3f
       -1.5891474520600504 0.013414899807505456

q_params_2 f8 [2, 4, 3]
000000 5d 4e e3 9d 8c da f7 3f d4 f4 76 1e 9d 28 e6 3f
       1.490856758832613 0.6924577326787138
000010 aa 7a 71 ca b9 e0 f7 bf 06 02 35 51 23 89 55 3f
       -1.4923646839085145 0.0013144345183065966
000020 21 d6 e6 43 4d 96 a1 3f a9 e7 a5 c8 0d 49 7e bf
       0.034349836863310175 -0.007393888323685185
000030 8b c8 09 88 ff a6 eb bf 43 e0 41 76 53 08 e9 bf
       -0.8641355187412655 -0.7822663602555696
000040 c2 0c 11 01 9d b1 d7 3f ab cf 45 25 95 c5 ca 3f
       0.37021565536651846 0.20915474243122154
000050 95 84 dd 3e 8c 3c e3 bf 72 43 16 57 f6 0c c6 3f
       -0.6011410930479025 0.17227057697575848
000060 a0 de 1c 49 24 40 ed bf 8c c6 fe d6 2b d3 da bf
       -0.9140798023208454 -0.4191388701975505
000070 f9 91 57 80 c6 1f 8c bf af ac e2 0e e1 02 d9 bf
       -0.013732481757821257 -0.3908007283559511
000080 e6 9c 6d 90 50 e8 f0 bf cc 61 b0 a0 e5 60 78 bf
       -1.0567174569821929 -0.005951783164185941
000090 2c b2 ab e4 c4 56 9c bf 8b 4b c7 b8 90 b5 f9 bf
       -0.02767474790282358 -1.6068274705801027
0000a0 ac ba 12 61 7e f5 76 3f a7 72 1e 39 cf 86 e5 3f
       0.005605214756697546 0.6727062335590589
0000b0 76 3e 8b 7d 39 61 f7 bf 7c 3e d2 7f d8 4e 90 bf
       -1.4612364677485892 -0.015925772477713526

q_params_3 f8 [2, 4, 3]
000000 97 9d a7 01 ec 97 c3 3f 5e 7f c2 81 12 f3 9a bf
       0.15307378845976125 -0.02631787220946024
000010 d3 19 1a 6f 96 11 e5 3f de 97 55 4a d2 cf b4 bf
       0.6583969278297509 -0.08129610361865455
000020 16 80 ec 7c 7c 29 b0 3f d6 ab 26 3d a2 8d cf bf
       0.06313303041361026 -0.24650981889621332
000030 c8 b6 b6 54 4e 8d e1 3f 76 e7 d2 32 20 c5 ad 3f
       0.5484992651524516 0.05814457531364685
000040 49 66 a2 df 3c ee e2 3f 14 9d 2d 36 c0 1c 9d bf
       0.5915817611559727 -0.028429988199971737
000050 3d 16 1d 5c 53 b6 f4 3f 5e 9d 07 46 ec ed b8 3f
       1.2945130918682388 0.09738041600905009
000060 94 81 c1 45 71 ed e6 bf f2 ab 1d ce 1e 63 e3 3f
       -0.7164846765918349 0.6058496499730366
000070 a0 82 29 38 7e 8d 83 3f ca 12 20 37 68 43 f1 bf
       0.00954722031491545 -1.078956809361602
000080 1d 40 fa d0 96 d6 c8 bf b4 b4 7b 36 31 7e 86 3f
       -0.19404874042493328 0.010982880091854198
000090 c5 c7 b6 6d 9e d6 e4 3f 6c 10 18 85 e1 b1 f9 bf
       0.6511985915042194 -1.6059279631599805
0000a0 c0 bb 92 39 48 b6 7d 3f 9e 27 71 b7 c8 d5 db bf
       0.007253915909287423 -0.43492334284075607
0000b0 a0 f7 7a 4f fc 64 ad 3f 95 fb 29 5e 69 f8 86 bf
       0.05741108389109617 -0.011215995012433125

q_params_4 f8 [2, 4, 3]
000000 27 fd 8f b8 db ae e0 bf 74 f2 96 fc 9a 6e 99 3f
       -0.5213450054870109 0.024835988680694546
000010 19 cb 32 02 76 2d c6 3f 41 81 7e 8b c5 fd f6 bf
       0.17326235873550713 -1.436955971621572
000020 4f c6 e8 4a 43 5f d6 bf 09 55 7a aa 28 0c f7 3f
       -0.34956438365324954 1.4404684695521743
000030 78 c1 20 c7 54 8a f8 bf 3b 31 a0 35 6e 00 f0 bf
       -1.5337722567020062 -1.0001051039462954
000040 16 d4 78 06 e6 99 d4 3f f4 39 9d cf 7b ca a5 3f
       0.3218932212069502 0.042560452550436084
000050 b3 48 0f ac e1 7b f6 bf 47 06 e6 2c be 23 b9 bf
       -1.405244514568534 -0.09820164295344923
000060 39 b1 c3 de a5 70 d1 bf a2 62 3a 2a 2c de d1 bf
       -0.2725004840310877 -0.27918533443293303
000070 69 af 23 43 9b f7 63 3f 43 a7 4d 0b d5 8e da bf
       0.002437403914077697 -0.41496778587189825
000080 b3 03 19 70 92 59 bb bf 7a 58 90 81 3a bc 80 3f
       -0.1068355106044823 0.008171517447447697
000090 15 ed 63 0a d1 d2 d6 3f 81 45 17 64 c0 5e f9 bf
       0.356617221972287 -1.5856326970864247
0000a0 86 5b 15 e3 17 76 51 3f 9a 1d 9f 40 6b 3e ec 3f
       0.0010657532951278983 0.8826195013179359
0000b0 24 31 85 63 01 b9 f3 bf 08 31 10 81 d8 aa 87 3f
       -1.232667340041254 0.011556331099221953

q_params_5 f8 [2, 4, 3]
000000 a7 8a 6b e7 11 a0 ef bf 26 76 5b 2d cc 26 ed bf
       -0.9882897872851871 -0.9109860311397753
000010 43 76 37 43 95 d5 f7 3f 35 a6 01 c5 d9 22 dc 3f
       1.4896443009996723 0.43962711562071216
000020 42 5e 3a 89 66 8c fe 3f 13 82 80 a2 c6 f0 dc bf
       1.9092774734944133 -0.45219579572042895
000030 14 e2 4a f4 dc e2 b5 bf e2 a1 a8 1d 73 ed 8e 3f
       -0.08549290622875844 0.015101336805927571
000040 57 51 69 68 43 c4 c3 3f 7a 87 be d4 50 46 da bf
       0.15442698095524562 -0.41054173255735515
000050 bc c5 fe 0a ee 8a e1 3f b8 fe 0b bc 2e 1b e4 3f
       0.548209210848817 0.6283181832113405
000060 e1 71 35 78 15 0c f7 bf fa 5a 61 c2 57 ed f1 bf
       -1.4404501624732051 -1.1204450219135524
000070 19 b9 27 ff 11 76 70 3f 03 29 3d e0 22 56 e9 3f
       0.004018850612267388 0.7917646770158914
000080 54 dc cf 07 20 1b db bf e9 f8 9d df 08 12 98 3f
       -0.42353058588873194 0.023506296776297928
000090 eb 1d 42 6d a1 7e f4 bf 1f 45 2c 07 aa 28 f3 3f
       -1.280915667333711 1.1974277763550345
0000a0 54 ec c3 a0 63 fa 8a bf 00 00 00 c0 f3 07 37 3f
       -0.013172891944568978 0.00035142613342031837
0000b0 00 00 00 80 02 12 76 bf 00 00 00 80 2a bd 9c 3f
       -0.005388269200921059 0.028065361082553864

q_params_6 f8 [2, 4, 3]
000000 09 09 72 bc 32 b9 d0 bf 05 d6 8b 46 ae 00 d8 bf
       -0.2613036003387071 -0.37504155053406435
000010 f6 45 2a dc f6 a6 9b 3f 63 be 21 5a b8 95 c9 3f
       0.02700410574704467 0.19988159562079763
000020 66 d0 7e 88 3a a1 e0 3f 09 2d 87 0e 77 5d dd bf
       0.5196812311101098 -0.45882965487244626
000030 ca ff f3 c7 80 c3 d5 bf 2c 9e 7b 2f 5f 58 cc 3f
       -0.3400575592677312 0.2214468938684474
000040 6c 95 57 f5 9a 0e c4 bf 75 31 d6 fb 9c 41 f3 bf
       -0.15669571857067 -1.2035188519831455
000050 35 ad 1f 04 b9 ba cd 3f 46 95 3e a3 0e f7 d3 bf
       0.23226082517008143 -0.3119541734871131
000060 9e 10 9e bf b6 c9 9d 3f 14 64 ee 68 f4 70 ad 3f
       0.02908978981533094 0.05750240116976371
000070 a8 55 f1 e7 86 52 85 3f 6a 1f e8 f7 4e 81 f3 3f
       0.010411313966112015 1.2190694507462134
000080 14 07 66 b1 6f 31 e8 bf ec 37 2b 56 6f ec 6f 3f
       -0.7560347046676008 0.003896920637408199
000090 5b 54 fd cd 82 b7 ce 3f 68 f9 3d 1d b5 8d a4 bf
       0.2399753099258842 -0.04014364225348538
0000a0 19 27 32 8f 8e 45 74 3f 66 63 99 d2 24 ab ed bf
       0.004949147102829143 -0.9271415818467232
0000b0 e7 83 c4 f2 60 3b bc 3f aa 09 7c ad 10 93 5a bf
       0.11028104712433127 -0.0016219771259221396

classical_nn_linear.weight f8 [1, 4]
000000 2f 00 00 87 3a aa f1 3f be 5b 27 e8 16 c1 f8 3f
       1.1040597222745523 1.5471409863000498
000010 37 90 8d a5 ae 2b 77 3f e0 0b 49 18 e9 b6 00 c0
       0.005656892980230358 -2.0893117806713093

classical_nn_linear.bias f8 [1]
000000 16 cd df d5 7f bc d6 bf
       -0.355255087720438
