VQ_LSTM_BASE_CLASS_TS_MODEL__DATALOADER_BESSEL_4_QUBIT_2_QuLAYERS_old/VQ_LSTM_BASE_CLASS_TS_MODEL__DATALOADER_BESSEL_4_QUBIT_2_QuLAYERS_NO_2_Epoch_84_torch_model.pth (torch, 3471 bytes, 8 tensors)

q_params_1 f8 [2, 4, 3]
0	0xbff94d91efed09c3	-1.581438004694619
1	0xbfee4d2940929a7e	-0.9469190846619566
2	0x3ff90eb10f05db93	1.5660868250685993
3	0x3ff90dfc6be24d7e	1.565914555951934
4	0x3fe6b204e48b8b6b	0.7092308486720474
5	0xbff9088cf914f0b0	-1.564587567306301
6	0xbffa16b480d41ec3	-1.630543235050866
7	0xbffbcf358726dd25	-1.7380881575935032
8	0xbff825df2e51fdd6	-1.5092460450540464
9	0xbfb7a9c2febb51df	-0.09243410796199879
10	0x3f8136f4df37e754	0.008405602514347223
11	0x3fb93a859c3a5e51	0.09854922355804631
12	0x3fc43e9147ad2353	0.15815940856762242
13	0xbff3dd79ca6ed652	-1.2415712268388188
14	0xbf6b7688def37fa7	-0.003352420164091502
15	0xbf943c7340263672	-0.019761849203453648
16	0xbff9265d2852ce24	-1.5718661856780125
17	0xbf6d6792ffdebbf5	-0.003589427097686388
18	0xbf4ad31f17dcf9f6	-0.0008186246702520095
19	0xbff93d96f107cbae	-1.5775365271808641
20	0xbf84d22020927b43	-0.010166407579445319
21	0x3f55b32e39466d81	0.0013244582561132425
22	0xbff9b3cd053a6c06	-1.6063966945864663
23	0x3f8b79455f631bf0	0.013414899800762797

q_params_2 f8 [2, 4, 3]
0	0x3ff92c38d924dce7	1.5732964021861393
1	0x3fdb5163c919d4b7	0.4268426383853909
2	0xbff9364ee4c101a1	-1.57575883252148
3	0xbf93a3551d1dcf32	-0.01917775144779838
4	0x3f58914df7cf639e	0.001499487057335914
5	0x3f9246d479a6c452	0.017848319935812214
6	0xbff3ec6dfc47f4f9	-1.2452220778207546
7	0xbfc935deaddaac33	-0.19695647706007122
8	0x3ff2a7cd5d9a9724	1.1659673363114473
9	0x3f9a2c88510feff4	0.025560502956054124
10	0xbf8c59b12bfef6fc	-0.013842949061536818
11	0xbf9e689fe87f4c56	-0.02969598633337641
12	0xbfb4f6fab2e401e8	-0.08189360492179498
13	0xbff359c8bf694c4b	-1.209419963551016
14	0xbf8c1fc6804fd54e	-0.013732481756941663
15	0x3f758d356af4923c	0.005261620200404379
16	0xbff8f8fbdb83ebb2	-1.560787065011692
17	0xbf7860e5a0534767	-0.005951783158893643
18	0xbf32c6948782ecb8	-0.00028649450497271077
19	0xbff9548f35aea31c	-1.5831443879089369
20	0x3f76f57e6573bf53	0.005605214820420051
21	0x3fd85db756371a66	0.380719980425431
22	0xbff26d33ac665c43	-1.1516606077546079
23	0xbf904ed87fbf9acb	-0.015925772473475413

q_params_3 f8 [2, 4, 3]
0	0xbf779467519c5bc4	-0.0057567630663219495
1	0xbf70a3f76a1c9875	-0.004062620604406421
2	0x3ff92173b60f139f	1.570666991393615
3	0x3f803f4813a5c5cb	0.00793319997748911
4	0x3f797d549e50456b	0.0062230401427013455
5	0x3f688a88abc3a108	0.00299574559732119
6	0x3fdf1f0eaf523fdd	0.4862705909845298
7	0x3fb3e97693f4f406	0.07778111564853427
8	0x3ff0d2b6ed4adec6	1.0514439839588916
9	0x3f22d3c1bf42ba60	0.00014363994671869312
10	0x3ff93be9cff01242	1.577127277619312
11	0x3fd21bf2affc3224	0.28295581041382634
12	0xbfd05c4663fe9582	-0.25563201680264325
13	0x3fed861a22251625	0.9226198832408882
14	0x3f838d7e2c049845	0.009547219961472684
15	0xbff97da63d9e86a2	-1.5931761176110872
16	0x3f6f6a6de55ec7c7	0.0038349291234789115
17	0x3f867e313990a659	0.010982880181546738
18	0x3ff9887b15cfd292	1.5958205081962302
19	0xbff85efa100897d5	-1.5231876970587923
20	0x3f7db6482a7a4d1f	0.007253915689619888
21	0xbf9f735e85b12794	-0.03071353617659829
22	0xbf9f29533f7a3382	-0.03043108057913769
23	0xbf86f8695b52f31e	-0.011215994929779035

q_params_4 f8 [2, 4, 3]
0	0xbfa7f5adb944ac2a	-0.046796254029992504
1	0xbf8b5b772c9e4de5	-0.013358050393242624
2	0x3fc14b9e99ba2729	0.13512022501191126
3	0xbff9efb687b8111d	-1.6210236836933014
4	0xbfd223b22bb36d5c	-0.2834287096754531
5	0x3ff94230afbde051	1.5786597123060526
6	0xbff7537e99be40e0	-1.4578844075768345
7	0xbfefd18a17bb2bb2	-0.9943285430430164
8	0x3ff3fe22bc7da1cd	1.2495448458595206
9	0x3f73e7dd326806b5	0.00485979466475477
10	0xbff05b666f911260	-1.0223144872735688
11	0xbf918497c317412f	-0.01710736397018414
12	0x3fa0f25a22ce45bf	0.03309899973750018
13	0xbfe0d4b0feb114d7	-0.5259633039901485
14	0x3f63f79b526d6067	0.002437404025311496
15	0x3f9756432908b811	0.02279000223114031
16	0xbfd29c25d0a21c0d	-0.29078050016727347
17	0x3f80bc3a8193f32f	0.00817151744785746
18	0xbfc0e91dbfd65f76	-0.13211414210376987
19	0xbff920517b6b0f39	-1.5703902073882559
20	0x3f517617de38b50e	0.0010657532774403541
21	0xbfa4388587fbf504	-0.03949372563327283
22	0xbff261e5cecdd699	-1.1489008024485996
23	0x3f87aad88050d242	0.01155633107746568

q_params_5 f8 [2, 4, 3]
0	0xbff71471e7058a53	-1.4424914383204352
1	0xbfe11530e9ce5563	-0.5338368002436876
2	0x3ff71bc95bd78775	1.4442838275503764
3	0x3ff4768dfd4ddc28	1.2789440054600707
4	0x40047859b70736ad	2.5587648676945123
5	0xbfc89f865ad91cf0	-0.19236831127111698
6	0xbfa90321d352c1e8	-0.04885202126149918
7	0x3fc74659c4f5933e	0.18183443181183095
8	0x3f9e5b8fe487518e	0.029646156619337165
9	0xbfc864b9ae84d84a	-0.1905738927977743
10	0x3ff3e776d033f4ed	1.2440097935607881
11	0x3fd721685e2b017d	0.3614140433892528
12	0xbff8de7e385c26f8	-1.5543195916711152
13	0xbfe5c9be0983a575	-0.680876749594218
14	0x3f707611fabfad1c	0.0040188505481453494
15	0x3ff1f7bff5c4ca44	1.1229858017292296
16	0xbfe2c72ac2e2fca2	-0.5868123823528502
17	0x3f981208e0408435	0.023506296813256184
18	0xbffc48304d67d5cf	-1.7676241897255414
19	0x3ff67820081f21df	1.404327422833482
20	0xbf8afa63a3689889	-0.013172892021497755
21	0x3f3707f3c0000000	0.00035142613342031837
22	0xbf76120280000000	-0.005388269200921059
23	0x3f9cbd2a80000000	0.028065361082553864

q_params_6 f8 [2, 4, 3]
0	0xbfc9ca46fda1e6ea	-0.20148551353832228
1	0xbf6d42b89359d5f6	-0.0035718541137679206
2	0x3fca80840e0e5c69	0.2070469921716012
3	0x3fe4c2a7b2664ba4	0.648761604725554
4	0x3fca0cfc2e695602	0.20352127329049102
5	0xbfc27c5d421167d3	-0.14442029691673372
6	0xbfdcb4c39bc48e6f	-0.4485329648179918
7	0x3fb028f70b5521cb	0.06312507654832371
8	0x3fc87848fe300217	0.19117081080914097
9	0xbff7a810df4693fa	-1.4785317155558446
10	0x3fd8394c763bff26	0.37849723383259215
11	0xbfa802eaa32a7258	-0.04689725152750118
12	0x3f9d5ba628518c83	0.028669925890778557
13	0xbfa916dbbcdbe5c5	-0.04900252037436873
14	0x3f855286e87167c8	0.01041131398067198
15	0x3ff6dd0ebe3a87e3	1.4289691382223217
16	0xbff6609d6b0b30d7	-1.398587625636585
17	0x3f6fec6ef3e2a983	0.003896919922302179
18	0x3ffe5ce3d84be5d8	1.8976782273369874
19	0x3f7e55b69d34f3bd	0.007405961357389521
20	0x3f74458e91fb013c	0.004949147143350093
21	0xbff91af1e5d75f3b	-1.5690783479858073
22	0x3f789fc8b92e4ba4	0.006011756969104196
23	0xbf5a931174c8dcec	-0.0016219778509716743

classical_nn_linear.weight f8 [1, 4]
0	0x3fffca9692c8b78d	1.9869600042106612
1	0x4001ca9bc121612d	2.223929890471615
2	0xbf7dd6c36624f97e	-0.007284892346716252
3	0xc0056f064f5e644d	-2.679211254184827

classical_nn_linear.bias f8 [1]
0	0xbf9c837c25c4ac54	-0.027845325284186664
