VQ_LSTM_BASE_CLASS_TS_MODEL__DATALOADER_BESSEL_4_QUBIT_2_QuLAYERS_old/VQ_LSTM_BASE_CLASS_TS_MODEL__DATALOADER_BESSEL_4_QUBIT_2_QuLAYERS_NO_2_Epoch_18_torch_model.pth (torch, 3471 bytes, 8 tensors)

q_params_1 f8 [2, 4, 3]
00000000: 1af9 8956 e060 f9bf 38c7 3838 a5d5 e3bf
00000010: 1c69 d9b7 4471 f93f 114a f341 f467 f83f
00000020: 0ddb b596 7c7e d93f c3e4 9e15 095a f8bf
00000030: 8a92 5f1d fb71 fabf b3e4 9516 9ae6 f9bf
00000040: c380 294e 1bf8 f5bf 29c9 1f52 11bc b3bf
00000050: 5b35 be75 0105 adbf 7aae 11ce 5467 b13f
00000060: de53 92f1 7bd8 c4bf 5668 05b6 226c f5bf
00000070: 30af 4ce1 8876 6bbf 53c3 26f1 62e9 903f
00000080: a337 2892 e5f3 f8bf 4cdc f100 9367 6dbf
00000090: bc2b beef 4315 65bf bfa3 1c7f fedd f9bf
000000a0: f004 7520 20d2 84bf f221 26f1 c468 8a3f
000000b0: c6e2 f3f3 30bc f9bf 119e 0e60 4579 8b3f
-1.5861514454296128 -0.6198297594148476 1.5901534253703806 1.5253794265923981 0.39834513395128185 -1.5219813198621501 -1.6528273723025984 -1.6187992937323485
-1.373072915383134 -0.07708843474373296 -0.056678815482068066 0.0679829600427925 -0.16285657210815335 -1.3389002905082825 -0.003352420181178227 0.016515298813547585
-1.5595451077710798 -0.0035894271055059487 -0.002573616684406114 -1.6166977849299966 -0.010166407576095854 0.012895144089967812 -1.608445122661736 0.013414899820261035

q_params_2 f8 [2, 4, 3]
00000000: 92b8 ee37 9000 f83f 3454 5081 fd92 e63f
00000010: d276 c7b8 d318 f8bf 52ed bb41 8d7a 91bf
00000020: 14f8 8111 06f6 903f 52b9 1ab0 76a7 a3bf
00000030: 7f12 9d4e 0f9a efbf 1837 5e07 db6d eabf
00000040: 80a5 6f75 2ba3 c03f 8310 7322 21c7 d63f
00000050: 2043 215b 2fa8 e5bf a4f4 0efa b78d d13f
00000060: fd94 7e14 2849 f1bf c405 3f5e d5ad dfbf
00000070: ceb1 f180 c61f 8cbf 1b66 a1db fc4b e4bf
00000080: 23b0 f839 68cb edbf fe53 3aa0 e560 78bf
00000090: 44ed c038 9468 87bf f8e2 a3b1 2fc5 f9bf
000000a0: 130b 0d60 7ef5 763f c1b6 ffe1 0f93 e43f
000000b0: 873a 56cb e915 f6bf 2862 b87f d84e 90bf
1.5001375374663763 0.7054431462917194 -1.506061288636762 -0.017069060456362202 0.01656350595339269 -0.038387021062009766 -0.9875561271115457 -0.8259101051241684
0.12997954591928007 0.3559038959904301 -0.6767803935891585 0.2742748205162775 -1.0803604889454725 -0.49498495296219525 -0.013732481775343166 -0.6342758454949861
-0.9310799724821702 -0.005951783157475353 -0.01142993734548859 -1.6106411875791178 0.005605214741822423 0.642951909450595 -1.3803499167294448 -0.015925772471833494

q_params_3 f8 [2, 4, 3]
00000000: 2e35 f845 7f9d be3f 9ac7 9d39 8596 803f
00000010: 7401 e569 8651 d93f e14f dc72 4d38 b9bf
00000020: b077 684f 05e8 9f3f 8bb8 5270 111a d2bf
00000030: 6e2f a103 1980 db3f 339c cbc0 8b3c b83f
00000040: 40e3 7ec6 4448 e03f 91f7 ffc7 ce10 b2bf
00000050: d752 e904 daf1 f33f b71b a041 15a3 c83f
00000060: 92fb 0cbd 6069 e6bf 2adc 5390 fb6d de3f
00000070: fd1d 733c 7e8d 833f 341d 1bfb 0893 eebf
00000080: 192b 3d5e f6ca c6bf 82d0 3639 317e 863f
00000090: 4f95 44c5 4ee5 d63f bfd4 44fc 3a36 f9bf
000000a0: 088f ff3d 48b6 7d3f 0685 b260 6906 e4bf
000000b0: 975a c9d8 8942 a83f aa07 a55d 69f8 86bf
0.119590715963757 0.008099594898997076 0.39560089436783774 -0.0985153584882137 0.031158526393589348 -0.28284107178740986 0.42969346384483387 0.09467385727803972
0.5088218571537269 -0.0705689657479225 1.246545809922443 0.19247689918867447 -0.7003635113140823 0.4754628095101362 0.009547220439698906 -0.9554486183559789
-0.17806892014990508 0.010982880171333646 0.3577458311504715 -1.5757398466351302 0.007253915973681087 -0.6257826698894469 0.047382648194504266 -0.011215994997318141

q_params_4 f8 [2, 4, 3]
00000000: ce38 dd5d 8d8b e4bf a49d 4d90 1b86 a4bf
00000010: 19d3 9d34 249d d83f fd38 c6e3 6573 f5bf
00000020: 58fe 5042 5dbe d6bf 26c0 f681 6f9e f53f
00000030: ceba bfc4 0ff9 f8bf 6d7e 32d3 f33d efbf
00000040: 3424 d705 c115 c73f e708 3e0a 960c 9f3f
00000050: 44b8 0ad4 0286 f4bf 812c 5eef c88a 9fbf
00000060: 5eaa d2cd 39a4 e1bf 178d 75fd 9346 d6bf
00000070: 1594 2441 9bf7 633f 3732 d62a 42fb bcbf
00000080: 9dde 1166 aa6e c2bf 6b98 f981 3abc 803f
00000090: 0ce7 10fb a2b4 d13f 3be7 d21e 1f15 f9bf
000000a0: 2844 8fe5 1776 513f 245b 44f8 6efd e73f
000000b0: 8c86 5499 b253 f2bf ab46 db80 d8aa 873f
-0.6420351823124066 -0.04008566032899388 0.3845911516030341 -1.3406733415063734 -0.3553689143772991 1.3511805607522631 -1.560806053686679 -0.976312553877461
0.1803513792531547 0.03032144963754826 -1.2827175410161695 -0.03080285988793863 -0.5512970943430664 -0.34805774452088784 0.0024374038995511695 -0.11320889993493997
-0.14400224670292952 0.00817151745941321 0.2766501857582717 -1.5676566318565637 0.001065753304136283 0.7496867035832548 -1.145433997102745 0.01155633109320616

q_params_5 f8 [2, 4, 3]
00000000: 7197 b38b 5daf efbf 0f8a 95a3 2aed edbf
00000010: 0786 4a14 9123 f63f 0124 8dcd c38b d63f
00000020: 1e54 a74b 4257 fd3f 6d06 910d 4d6f ddbf
00000030: 758d 31b5 3e3e ccbf 3cc3 194a d80e 963f
00000040: 3123 a725 7e12 88bf 3d68 de89 9145 e0bf
00000050: cda7 6d96 70cb e23f 7170 7d87 e109 db3f
00000060: b3a0 1175 22e1 f2bf eec5 f93e 146d e2bf
00000070: e718 0101 1276 703f 18ca 97af 76a8 e63f
00000080: ac0d 94df b3f3 ddbf 8b5a bfdf 0812 983f
00000090: 7013 81a1 02f4 f6bf 2449 4111 c988 f33f
000000a0: 1096 53a0 63fa 8abf 0000 00c0 f307 373f
000000b0: 0000 0080 0212 76bf 0000 0080 2abd 9c3f
-0.9901569107575893 -0.9352009959223454 1.3836832802411452 0.35228056977626926 1.8338034587116065 -0.45991827320913253 -0.22064956519453074 0.021541003725761274
-0.011754022144388894 -0.5084922497510501 0.5873339593938397 0.42247808677144066 -1.17996450166724 -0.5758153181070023 0.004018850639175598 0.7080644063519825
-0.46799942811795847 0.023506296783887975 -1.4345728214986728 1.2208948778175648 -0.013172891931797742 0.00035142613342031837 -0.005388269200921059 0.028065361082553864

q_params_6 f8 [2, 4, 3]
00000000: d55d 953c 8b0e d2bf 7976 1223 4f54 debf
00000010: 4b02 eb94 0ddf 88bf 4c99 f158 6a66 b73f
00000020: 28c1 54f2 25e1 e53f 8def 2660 444d d6bf
00000030: 4f4d cf80 4532 d2bf 3c78 ca8e 3406 d03f
00000040: efea eda9 96fb cbbf 1834 be46 79c4 f1bf
00000050: b0d2 c648 a7bc c93f 8dbb fac8 52be d5bf
00000060: d2a1 2394 9d50 a8bf 4fe4 fe47 805b a33f
00000070: 7bbe 79f5 8652 853f 8f78 3165 5a4a f33f
00000080: 82bd ba64 e7d1 e3bf 42b5 6550 6fec 6f3f
00000090: 56db 4b41 2660 be3f 2059 250e 65d9 b1bf
000000a0: 8715 979d 8e45 743f b22b 99ff 5b41 e9bf
000000b0: 0872 5e7c 98df b83f aa29 8384 1093 5abf
-0.28213768879274187 -0.47389582085620635 -0.01214418993674928 0.09140648528555068 0.6837339146641499 -0.3484660090432435 -0.2843183286579078 0.25037874168799923
-0.21861537263233496 -1.1104672206304311 0.2010697465281246 -0.3397414171876612 -0.047490047772786106 0.03780747298100861 0.010411314359969772 1.2056526139126935
-0.6193730323192741 0.0038969205954148276 0.11865462392948464 -0.06972343058928177 0.00494914731229324 -0.789228438582873 0.0971617988238408 -0.0016219769768662609

classical_nn_linear.weight f8 [1, 4]
00000000: 9a8a ad97 148f ee3f 7e78 89bb 6768 f73f
00000010: ec54 8e67 183c 913f bd44 52ec 26cc ffbf
0.9549658739527616 1.4629895520843372 0.016830807991557714 -1.9873418074896982

classical_nn_linear.bias f8 [1]
00000000: bc20 7345 a35f d7bf
-0.36521226675223395
