VQ_LSTM_BASE_CLASS_TS_MODEL__DATALOADER_BESSEL_4_QUBIT_2_QuLAYERS_old/VQ_LSTM_BASE_CLASS_TS_MODEL__DATALOADER_BESSEL_4_QUBIT_2_QuLAYERS_NO_2_Epoch_19_torch_model.pth (torch, 3471 bytes, 8 tensors)

q_params_1 f8 [2, 4, 3]
0	0xbff91dc15255c03e	-1.5697644439897114
1	0xbfe528df9500c1e7	-0.6612394247259176
2	0x3ff9177c999ed67d	1.568234062271045
3	0x3ff8c9a50f07dd11	1.549229677880991
4	0x3fdc25196d5b7afc	0.43976436309269196
5	0xbff866b96e95baa2	-1.5250791854593122
6	0xbffabf8679f8ef9e	-1.6717591061160202
7	0xbffa8345514a5913	-1.6570485282332512
8	0xbff57bcdc63fcd11	-1.3427255386457697
9	0xbfb11b23c1706333	-0.0668203685057847
10	0xbf8956e1a5e1c1cb	-0.012372744440853808
11	0x3fb41af61b250a5d	0.07853639757835525
12	0xbfbc76f24c9d1375	-0.11118997927139936
13	0xbff4c59df5ca56fa	-1.2982463456332298
14	0xbf6b7688e16219ea	-0.003352420181786932
15	0x3f94ecc14d63283c	0.020434398983333532
16	0xbff907abd8d22f38	-1.5643728704043962
17	0xbf6d679301880fb7	-0.0035894271097749136
18	0x3f5cf08c903557b4	0.0017663357437718132
19	0xbff96cdde071ef94	-1.5890787856469375
20	0xbf84d2202053a7c2	-0.010166407572302808
21	0x3fa3b15aa2fe2db0	0.03846247901591526
22	0xbffa325b539ef3f2	-1.637294127124957
23	0x3f8b79455fe06422	0.013414899815005713

q_params_2 f8 [2, 4, 3]
0	0x3ff861d74813c6c4	1.5238869491117137
1	0x3fe73b5c75c098c4	0.7259962367868629
2	0xbff827706b6d1ff0	-1.5096286960924736
3	0x3f8cdd66aec70b12	0.014094164093767545
4	0x3f6ed02892f9ea9c	0.0037613670791050834
5	0x3f6c5c0017395a40	0.00346183793753177
6	0xbfeecaa85a370a58	-0.9622384798061132
7	0xbfeaf8c9b5976814	-0.8428696200091985
8	0x3fc94356724421ca	0.19736748294259449
9	0x3fd471010e2e34ce	0.31939722428144257
10	0xbfe572ec186502b8	-0.6702785946327685
11	0x3fd0922bcec23a7d	0.2589215773704508
12	0xbff09b6d5ff52262	-1.0379461048452403
13	0xbfdfb121d429b15c	-0.49518628806142373
14	0xbf8c1fc680dc86a6	-0.013732481772936577
15	0xbfe28f6ccda1c524	-0.5800079361198738
16	0xbfef5ebaf2fc8a3e	-0.9803137536840223
17	0xbf7860e5a0599369	-0.00595178315925158
18	0xbf978a6cf76d80f0	-0.02298898945025568
19	0xbff97cf918e84207	-1.5930109951915499
20	0x3f76f57e5fc09d52	0.005605214737477953
21	0x3fe5dac228a0eb60	0.6829539102103404
22	0xbff61525a897a096	-1.3801628671299446
23	0xbf904ed87fd21ed0	-0.015925772477685396

q_params_3 f8 [2, 4, 3]
0	0x3fbaa69fc66b393f	0.10410498232088104
1	0xbf94f66481e9167e	-0.020471163205249436
2	0x3fdb07bdb6ae3cf3	0.42234747733978323
3	0xbfb47d2932d7de18	-0.08003480426111087
4	0x3f944d17af3ea8f7	0.019825334616748482
5	0xbfd0797967502cb7	-0.2574141987722202
6	0x3fdba9758e7000f0	0.4322179690352774
7	0x3fba2d423748afc0	0.10225309228616108
8	0x3fe03f3fe54afe70	0.5077208975198584
9	0xbfb6597adde7c849	-0.08730285565960218
10	0x3ff3c1570906c53b	1.2347021439166628
11	0x3fc5194d84b8c099	0.16483468037177287
12	0xbfe707df513e01a0	-0.7197109781991919
13	0x3fdf4c3372401dd4	0.4890259376265622
14	0x3f838d7e3d251afa	0.009547220459933826
15	0xbfeee0586eea4516	-0.9648859182654259
16	0xbfc81b20ea875f1e	-0.18832789851762127
17	0x3f867e313985d625	0.010982880180317409
18	0x3fd97ce14da6439f	0.39824707587200153
19	0xbff96d501b287055	-1.5891877232416125
20	0x3f7db6483e6b913e	0.007253915979820667
21	0xbfe418b6a2116c28	-0.6280167737380724
22	0x3f962d1339a70dd8	0.02165632285483618
23	0xbf86f8695dd19af9	-0.01121599500238578

q_params_4 f8 [2, 4, 3]
0	0xbfe448d429c30a53	-0.6338902297650953
1	0xbfaaac9049fa9962	-0.05209780600607662
2	0x3fd6971f2d0f43ee	0.352973741534753
3	0xbff5f6635268af39	-1.3726533145044881
4	0xbfd826614daed2b1	-0.3773425348875135
5	0x3ff62f8e7abed5d7	1.3866104883903654
6	0xbff8b0429fdc9a0a	-1.5430322880362177
7	0xbff00bd2213a111f	-1.0028859422610095
8	0x3fcd21fbf92c3cf8	0.22759961763993153
9	0x3fa0af7ecf20be6b	0.03258892324845138
10	0xbff4bf0faf234c4e	-1.2966458169292028
11	0xbfa5bc8de2a56c07	-0.042454179684419606
12	0xbfdf4521d35b2f2b	-0.48859449043514996
13	0xbfd667782627d50c	-0.3500652668584088
14	0x3f63f79b41d815cf	0.002437403904653058
15	0xbfca7cbc8ac18952	-0.20693165564723387
16	0xbfc84f145bc2bd4c	-0.18991331558707214
17	0x3f80bc3a81c69e6b	0.008171517453617846
18	0x3fd2f37cf7f5a0de	0.2961113378028254
19	0xbff8b26f89999e1e	-1.543563401699323
20	0x3f517617e43919ee	0.0010657532992738267
21	0x3fe9a576b1a81405	0.8014481992582893
22	0xbff31a6304dcb318	-1.193942088120087
23	0x3f87aad880f6187a	0.01155633109625519

q_params_5 f8 [2, 4, 3]
0	0xbfef442a0990182c	-0.9770708262228758
1	0xbfed6810c6c6292f	-0.9189533121400809
2	0x3ff667c851990ab5	1.400337523213847
3	0x3fd9c025a8d1617d	0.40235272871134226
4	0x3ffd2b3fa5dcfc2e	1.823058746245589
5	0xbfdd7d536bb39c54	-0.4607742835782507
6	0xbfc7f7b26f64f6e2	-0.18724661292247108
7	0x3fa3976d520bb16b	0.03826467157873278
8	0x3f9f358db712a365	0.030477728175046254
9	0xbfde77dd6b052245	-0.4760659737699238
10	0x3fe2df8604d96f7e	0.5897855848993314
11	0x3fde52737db3d6fc	0.4737824180186718
12	0xbff3ee9512632e2b	-1.2457476347216339
13	0xbfe47a2dda08ce13	-0.6399144419178263
14	0x3f707612002ed07d	0.004018850627222401
15	0x3fe7759c9f420765	0.7331069098001818
16	0xbfdc8d8be9f72c7a	-0.4461393151111178
17	0x3f981208df952184	0.02350629677428763
18	0xbff6d6a02d3440ab	-1.427398850039064
19	0x3ff30396a80ca60b	1.1883760990552925
20	0xbf8afa63a049aed9	-0.01317289193067188
21	0x3f3707f3c0000000	0.00035142613342031837
22	0xbf76120280000000	-0.005388269200921059
23	0x3f9cbd2a80000000	0.028065361082553864

q_params_6 f8 [2, 4, 3]
0	0xbfd32fd14c4b7b2b	-0.29979355288189663
1	0xbfdde2cc7d3f1df4	-0.46696769934757687
2	0xbf9888c30ea3a9da	-0.02395920540667782
3	0x3fbe7b23fae96cac	0.1190664756372139
4	0x3fe5286b2916b9c0	0.6611839106097293
5	0xbfd698f0761f7ed2	-0.35308467421962775
6	0xbfd0aeb9d9dc9106	-0.2606644275240487
7	0x3fd16a313378f772	0.27210645701040115
8	0xbfcbbe9aaeb705d1	-0.2167542794323212
9	0xbff268e08a35d19f	-1.1506047629201033
10	0x3fc8a8c5bcf72cf1	0.19265052534897323
11	0xbfd4b5d47c3173b7	-0.32359802368392415
12	0xbfabcb8e025a149b	-0.05428737429341731
13	0x3fb046c53a815663	0.06357987097120481
14	0x3f855286f4f2ed7c	0.010411314344642923
15	0x3ff3123c52992710	1.1919520594114523
16	0xbfe52e5030ef880f	-0.6619034724974443
17	0x3f6fec6f4f872dfc	0.0038969205890901897
18	0x3fbf723b46b7d087	0.12283678509249017
19	0xbfb00258f575c428	-0.0625358199374807
20	0x3f74458e9d147b60	0.004949147304869367
21	0xbfe94a2f57dd0838	-0.7903057781297838
22	0x3fbea187683122f5	0.11965223592518355
23	0xbf5a931080dec8a9	-0.0016219769636163595

classical_nn_linear.weight f8 [1, 4]
0	0x3ff0002056269691	1.0000308385146222
1	0x3ff80ea981724f61	1.5035796219353517
2	0x3f84d8c8fc50ea97	0.010179109764171286
3	0xc000191c3ed161e1	-2.012260905041544

classical_nn_linear.bias f8 [1]
0	0xbfd5f68b9959bdaf	-0.3431729314388247
