VQ_LSTM_BASE_CLASS_TS_MODEL__DATALOADER_BESSEL_4_QUBIT_2_QuLAYERS_old/VQ_LSTM_BASE_CLASS_TS_MODEL__DATALOADER_BESSEL_4_QUBIT_2_QuLAYERS_NO_2_Epoch_97_torch_model.pth (torch, 3471 bytes, 8 tensors)

q_params_1 f8 [2, 4, 3]
0	0xbff9318c9ea40a1c	-1.5745969960122528
1	0xbfee9ec3377b2a59	-0.9568801959624792
2	0x3ff92c19d73527cd	1.5732668310688382
3	0x3ff9039125e9efc5	1.5633708458908455
4	0x3fe748a6843550d7	0.7276184637253448
5	0xbff911a1bcb5793f	-1.5668046351853062
6	0xbff9e539afb713a0	-1.6184632171509534
7	0xbffbb7d06ed2eedc	-1.7323765114842251
8	0xbff848a6b2bf067c	-1.517737100817981
9	0xbfb836066f65b61f	-0.09457435817395109
10	0x3f37f3c367660500	0.0003654815731338329
11	0x3fb96620213154b7	0.09921456156128526
12	0x3fc1f732c6eef7cf	0.1403563948969677
13	0xbff3ad43a472c3f1	-1.2298008369218645
14	0xbf6b7688da7f5856	-0.0033524201316863884
15	0x3f4b72318b5e8bc8	0.0008375875392981841
16	0xbff9234085d15d9f	-1.5711064555415317
17	0xbf6d679301edc914	-0.0035894271126660857
18	0xbf386d4eccdc5760	-0.0003727261908904513
19	0xbff9006c63e06b81	-1.5626033688956513
20	0xbf84d2201fec4339	-0.010166407560548417
21	0xbf8d27c5dff658e2	-0.014236017129217907
22	0xbff8e6b3125c8366	-1.5563231198541074
23	0x3f8b79455f0d9e50	0.013414899791043627

q_params_2 f8 [2, 4, 3]
0	0x3ff916b032ae0812	1.5680391292266944
1	0x3fda96bd2a0a8892	0.4154503737028189
2	0xbff936d3cf3b36d3	-1.575885591027533
3	0xbf8527b0a79052ad	-0.010329609025612052
4	0x3f62655c8c896bd2	0.0022455985638720555
5	0x3f8e4ee1d113fdd8	0.014798893158967028
6	0xbff4d7628c347f3d	-1.3025842167625818
7	0xbfc5d153685181e4	-0.17045061677619266
8	0x3ff3a5e434359384	1.228000835363873
9	0x3fb21a35fd6153ba	0.07071244655646938
10	0xbf9514805cb07460	-0.020586019189171245
11	0x3f8c6442aae40465	0.013863106575174375
12	0xbfb98e528f71bc4b	-0.09982791902597048
13	0xbff3e51478e11754	-1.243427726921671
14	0xbf8c1fc680a1f6a2	-0.013732481766278785
15	0x3f77acdb65b9feed	0.005780083676313314
16	0xbff8ab09145dd33c	-1.541756705814989
17	0xbf7860e5a01133a3	-0.005951783155137588
18	0xbf6191925cd068e6	-0.002144609321942703
19	0xbff8ff02cbec25bc	-1.5622585263939603
20	0x3f76f57e6690324b	0.00560521483658911
21	0x3fea49b02941a028	0.821495132998284
22	0xbfe53373f2c2a77c	-0.6625308743871154
23	0xbf904ed87f94bcbb	-0.015925772463728487

q_params_3 f8 [2, 4, 3]
0	0xbfa42f38e7514b99	-0.03942277740193063
1	0xbf8e408ec89e7dd4	-0.014771571633729254
2	0x3ff85df3e747908e	1.5229376825673486
3	0xbf9eaf598a4d0222	-0.0299657812749975
4	0xbf58c88b1b29e7af	-0.001512657018479118
5	0xbf9e51fd38fc00e3	-0.029609638789225633
6	0x3fd37c9da52b7018	0.3044809449181698
7	0xbf8819e3c2d4f06c	-0.011768130667967301
8	0x3ff357b513f0e949	1.2089129237125056
9	0x3f847463724b318e	0.009987618375270537
10	0x3ff9943b46998978	1.598689342289246
11	0x3fd15c9ae06b998c	0.2712771598438841
12	0xbfd285ae097d92d4	-0.28940916945275075
13	0x3fed9c286519d408	0.9253122305514134
14	0x3f838d7e30b26c27	0.009547220097649923
15	0xbff95aa5c4bc04ef	-1.584630745405146
16	0xbf8aa370cdd2280b	-0.013007050782352555
17	0x3f867e31380a848e	0.010982880137193864
18	0x3ff9d4a04c41f715	1.6144106844726072
19	0xbff917cf8dd5d1fb	-1.5683131733359221
20	0x3f7db64822e28948	0.00725391557912964
21	0xbfa18a97d2fb90f6	-0.03426050615760971
22	0xbf88c9cf4c9369ed	-0.012103671574028996
23	0xbf86f8696205acba	-0.011215995124720702

q_params_4 f8 [2, 4, 3]
0	0xbfa364b72caa37b2	-0.03787777347780209
1	0x3f71661f2bea5912	0.004247781528326182
2	0x3fb444fe39bf3853	0.07917775068128323
3	0xbff94473f06b4690	-1.5792121306771243
4	0xbfd2568ae58993f1	-0.2865321389747911
5	0x3ff94df188545435	1.581529171501882
6	0xbff852a6b9e36c0f	-1.5201785336746558
7	0xbff026ab5aa130ba	-1.0094407596798605
8	0x3ff61cb9f4300d3b	1.382013276918612
9	0x3f7f8bcd1582d18e	0.007701684102518048
10	0xbff057385118d5e4	-1.0212939422466372
11	0x3f6026fbeb2978c4	0.001971714046972913
12	0x3f83c19e4e62e714	0.009646641509209831
13	0xbfe1d9dd08a03ab1	-0.5578446548914454
14	0x3f63f79b52a1a017	0.002437404026796496
15	0x3f9789ed5774b246	0.02298708769119375
16	0xbfcb3b5a28d17fa6	-0.21274878495296184
17	0x3f80bc3a81434c13	0.008171517438688302
18	0xbfbe355d760f0492	-0.11800178653995122
19	0xbff8f9eedcf5a824	-1.5610188132509473
20	0x3f517617dd3e8c76	0.001065753273885387
21	0xbfe0ed37e3763e21	-0.5289573137869789
22	0xbfe519074912db1e	-0.6593052317828982
23	0x3f87aad88197c52e	0.011556331114635467

q_params_5 f8 [2, 4, 3]
0	0xbff888edcc48a915	-1.5334299068295583
1	0xbfe062c1dc69dd13	-0.5120553307487249
2	0x3ff8b043370ad94b	1.5430328512280365
3	0x3ff4fa5182ca3fc6	1.3111128911004797
4	0x4004ac0eaad6fe6c	2.584012350736705
5	0xbfc6ca983acb6728	-0.1780576979716042
6	0xbfa81f69d0733a3d	-0.047114664741105795
7	0x3fbd58c6ad62e3df	0.11463586552680692
8	0x3f97437b0dcf8200	0.022718355863505124
9	0xbfc57e0145c9ccf0	-0.1679078665507414
10	0x3ff4f92699d6809c	1.3108278283398596
11	0x3fd170d729ddd208	0.27251223648571044
12	0xbff8cbffbfbd8963	-1.549804448114252
13	0xbfe40a6b4d9b5116	-0.6262718692546823
14	0x3f707611fd32f165	0.004018850583801335
15	0x3ff2f83b9974119c	1.1856037134431068
16	0xbfec1b4daffbeb25	-0.8783329426945313
17	0x3f981208dcb479b9	0.023506296606791575
18	0xbffc57cec5afe2a4	-1.7714374277258367
19	0x3ff8f985425cb5fa	1.560918101527362
20	0xbf8afa63a2cc30e6	-0.013172892003716585
21	0x3f3707f3c0000000	0.00035142613342031837
22	0xbf76120280000000	-0.005388269200921059
23	0x3f9cbd2a80000000	0.028065361082553864

q_params_6 f8 [2, 4, 3]
0	0xbfc6cd14ee254fa4	-0.17813359859667088
1	0x3fa8d7917a569e96	0.048519655403024206
2	0x3fd04ecd9226d24c	0.2548097541105434
3	0x3fdf971941799a83	0.49359733003658607
4	0x3fc3e9701261be74	0.15556145570325308
5	0x3fad3104d5bd89c9	0.057014609423976355
6	0xbfdb88857ac6d4a8	-0.43020760526571644
7	0x3f5d5600657dbfc0	0.001790523898275595
8	0x3fd06291bab6df48	0.25601618989775377
9	0xbff7d1e6bb0bb5c4	-1.4887454325174625
10	0x3fe19a9c7137cf7b	0.5501234256066562
11	0xbfb67d1dd600a069	-0.08784662699383862
12	0x3f6a822277d34807	0.0032358811573454135
13	0xbfa9041c514b5bff	-0.04885948650706239
14	0x3f855286e2871af8	0.010411313808515996
15	0x3ff763d417490422	1.4618721875742797
16	0xbff795d21b9701cd	-1.474077327511725
17	0x3f6fec6f136ff6f8	0.0038969201518729256
18	0x3ffef50e6c37afb3	1.9348282077071246
19	0x3f795d7b61222d81	0.006192666960611049
20	0x3f74458ea5768c00	0.004949147426859035
21	0xbff963bba3e7820a	-1.586848869563371
22	0x3f71a19473dbf64c	0.0043044852188792275
23	0xbf5a9311b15e8001	-0.001621978071376873

classical_nn_linear.weight f8 [1, 4]
0	0x4000a569d45b219a	2.0807682600318005
1	0x400266a4e8212a49	2.3001192221757134
2	0x3f75ea630d4fd3f8	0.005350481912491205
3	0xc0065422fed03c6f	-2.7910823733614545

classical_nn_linear.bias f8 [1]
0	0xbfa530c88f59a73c	-0.04138781309013814
