VQ_LSTM_BASE_CLASS_TS_MODEL__DATALOADER_BESSEL_4_QUBIT_2_QuLAYERS_old/VQ_LSTM_BASE_CLASS_TS_MODEL__DATALOADER_BESSEL_4_QUBIT_2_QuLAYERS_NO_2_Epoch_94_torch_model.pth (torch, 3471 bytes, 8 tensors)

q_params_1 f8 [2, 4, 3]
00000000: 7e8c 9b21 5251 f9bf 1496 3178 2218 efbf
00000010: 3d18 4c80 6d3b f93f f42a 982e 5314 f93f
00000020: a516 7d25 56b3 e73f 6192 c698 7c06 f9bf
00000030: 622f 8488 106a fabf 9db8 dec0 dfff fbbf
00000040: e01b 1def 6935 f8bf 8718 5a07 7a22 b9bf
00000050: 2a54 476d 2807 7d3f 59f2 2f07 4359 b83f
00000060: d980 16a3 6464 c73f f7a5 20d5 7ac5 f3bf
00000070: b8b2 e9db 8876 6bbf 8b2a 1b0e 93cb 4ebf
00000080: 9cad 8433 5721 f9bf 976e 8800 9367 6dbf
00000090: c479 b51b 0f41 6c3f e26c a4e5 5ee5 f8bf
000000a0: 4fee 0820 20d2 84bf 3527 0454 cfb3 64bf
000000b0: b226 b330 6c3c f9bf 797b fb5e 4579 8b3f
-1.582353717117058 -0.9716961238415842 1.5770087253199698 1.5674621410459482 0.7406416637611143 -1.5640836684989596 -1.6508946736020893 -1.7499692472443151
-1.513040479696194 -0.09818232230654377 0.007086904447040113 0.0951120274111842 0.1827512546851782 -1.2357128453535304 -0.0033524201419850817 -0.0009397953073969218
-1.570639802211054 -0.0035894271025094892 0.0034489913065691453 -1.555998703994924 -0.010166407563807626 -0.0025271462801627295 -1.5772516157470986 0.013414899788981792

q_params_2 f8 [2, 4, 3]
00000000: f8f9 6966 c33f f93f 9c28 1abc bfb4 d83f
00000010: 220a 5b28 3937 f9bf 45f2 d860 9531 80bf
00000020: 7129 7c0f cd76 58bf 305f d31b b869 833f
00000030: 20d7 fad5 7356 f4bf 3855 75db 86d1 c2bf
00000040: feec 93ba 93ea f33f 813f 6863 f167 9b3f
00000050: 4d7c 5954 90a7 91bf 6229 1364 0778 9ebf
00000060: b620 de54 0c2c b0bf 5837 ce18 76a2 f3bf
00000070: 7a54 4580 c61f 8cbf 7524 9302 c92f 6e3f
00000080: 15fc 7bdd dafa f8bf 7aaa 6da0 e560 78bf
00000090: c462 e6ef aaa0 853f fae4 0aa1 94d9 f8bf
000000a0: c0dd 0c66 7ef5 763f b6cf 0003 ba8f e53f
000000b0: a0ea 2a1f 6413 eabf 5d6a 8d7f d84e 90bf
1.5780672073884698 0.38603204125741697 -1.5759822441474474 -0.007907073038148424 -0.001493168119795909 0.009478987073108763 -1.2711065634334275 -0.147019250066174
1.2447697914311102 0.026763698284468788 -0.017240767620361464 -0.029754748805126303 -0.06317212173428541 -1.2271634072271436 -0.013732481755747584 0.0036848951318444964
-1.5612438823443473 -0.00595178316039357 0.01056035561195879 -1.5531202593541011 0.00560521482912385 0.6737947519927647 -0.8148670777075786 -0.015925772462063715

q_params_3 f8 [2, 4, 3]
00000000: 0408 a16f be5e 663f ae41 4203 80e1 7fbf
00000010: 24d8 782e a853 f93f 00e2 c897 0132 523f
00000020: 39eb f6c1 33fc 7bbf 00ca d70c f218 3abf
00000030: 6640 bad1 75b2 d63f c44d 21af d12e a73f
00000040: b9ad 02f4 c6a0 f23f f261 b43f 7599 60bf
00000050: 85a7 d66d 051e f93f 9b98 0fa7 d67c d03f
00000060: 68ff 5409 6802 d3bf 5054 dd9f c0fd ed3f
00000070: cd2f 8d30 7e8d 833f 4416 c639 8d60 f9bf
00000080: b4af f4a6 d7fa 92bf 589c ac37 317e 863f
00000090: ad82 8d01 bdad f93f 1c4b d761 07fe f8bf
000000a0: b69d a426 48b6 7d3f 24e9 d1b4 1286 82bf
000000b0: 45a5 b025 c7de 9cbf ef5a b461 69f8 86bf
0.002730724282657528 -0.0077834129807716045 1.582924062282026 0.001110555224967169 -0.006832315615094947 -0.0003982153837959468 0.3546423481102522 0.04527907622164265
1.16425223652446 -0.0020262994781996497 1.5698293963018568 0.25761953653853603 -0.2970218745358495 0.9372256395678367 0.009547220093416709 -1.5860721833027052
-0.01853501278416987 0.010982880126517866 1.6049165783553392 -1.562018758956305 0.007253915633817545 -0.009044786589801186 -0.028193580317894335 -0.011215995115475745

q_params_4 f8 [2, 4, 3]
00000000: d75c a332 fad7 94bf 825a 0b81 e45c 873f
00000010: d271 ea8f 6044 bd3f cd57 c2a0 5288 f9bf
00000020: c157 1797 6373 d0bf fc20 158c e629 f93f
00000030: 2738 de6b ba2a f8bf 4cb1 beb6 4d5b efbf
00000040: f20f 3070 b6d7 f53f 81bf 8156 4300 7b3f
00000050: 89f8 ebb6 7e8a f0bf 8a97 11ff e0bb 75bf
00000060: 14d7 4eb3 4e4c 993f 9aac e6b5 c42a e1bf
00000070: 8242 1053 9bf7 633f 37a4 b877 aa21 8f3f
00000080: 8c05 0bc3 d160 d0bf 5a1c f680 3abc 803f
00000090: 78f8 64e1 2807 c2bf 9c89 2ab0 f4ee f8bf
000000a0: a90b a1d6 1776 513f dd41 7789 57a9 d7bf
000000b0: 2314 fd62 7df6 e9bf 2eed 8c81 d8aa 873f
-0.02035513814993525 0.011407647312279726 0.11432460321015661 -1.5957819251684555 -0.2570427871227104 1.5727296325658804 -1.5104316915126306 -0.9798954552875698
1.3651642210324977 0.00659204772829003 -1.0338122506505292 -0.005306128398933194 0.024705152219858098 -0.5364707520251557 0.002437404029940916 0.015200931337931418
-0.25590938613103087 0.008171517429913223 -0.1408434963759111 -1.5583388215532983 0.0010657532498192601 -0.36971081184768 -0.8113390859003896 0.011556331113402676

q_params_5 f8 [2, 4, 3]
00000000: f650 4837 3d17 f8bf e8a9 2f3e 4673 dfbf
00000010: 4a27 a966 a03b f83f 52a8 a0cc 1ef1 f43f
00000020: 75c6 8a48 61d9 0440 43b5 4692 d72b c9bf
00000030: 527c 9fb2 d535 a1bf e3ee 0b1d 775d c33f
00000040: f4b2 f14a fb30 a53f 7f12 357d f92d c4bf
00000050: cd63 deda 6f05 f53f 493b d93c f5e9 d33f
00000060: c144 8d46 38e1 f8bf 3416 f26a 69f0 e4bf
00000070: aa6e a2fb 1176 703f d4ad 2c13 cb72 f33f
00000080: 8203 7b85 51c7 e8bf 2784 0ade 0812 983f
00000090: ca91 f749 26fa fbbf c182 263a aa66 f83f
000000a0: 5229 faa3 63fa 8abf 0000 00c0 f307 373f
000000b0: 0000 0080 0212 76bf 0000 0080 2abd 9c3f
-1.5056736144516072 -0.49141079018468625 1.5145572672067424 1.3088672631515874 2.6061425845480763 -0.19665045397179357 -0.03361385159927778 0.15128983419696515
0.04138932504506512 -0.15765303243292192 1.3138273763236044 0.31115466062776825 -1.554985309212768 -0.6543471421034099 0.00401885056103494 1.2155256985669114
-0.7743308646241618 0.023506296684562635 -1.7485716714228254 1.5250646850110317 -0.013172892038046644 0.00035142613342031837 -0.005388269200921059 0.028065361082553864

q_params_6 f8 [2, 4, 3]
00000000: 900e 8b22 6283 c6bf 5968 b3fb a035 a63f
00000010: 2181 0843 f12e d03f d172 1fb5 b22f e13f
00000020: 2f32 1cbc 3c25 c63f 43e0 5ff6 d843 b13f
00000030: 1064 5f01 8c3b ddbf 3504 e68b 84fb 76bf
00000040: e454 5ec1 dd92 cc3f d190 f90f e69c f7bf
00000050: b5c2 0891 b66d e03f d161 4c30 c5c1 acbf
00000060: 1e6e bf2b 5ef7 703f 883e dcc8 3cfe a1bf
00000070: 8e8d 78df 8652 853f 8cf9 4484 3684 f73f
00000080: 5d21 f086 8bf7 f6bf 12e3 0c26 6fec 6f3f
00000090: e3f7 4029 59f8 ff3f 3c4b 3471 65e5 8c3f
000000a0: b79b 279b 8e45 743f 58fb ddb1 6c55 f9bf
000000b0: a1c5 2345 eb1d 653f 88a5 5590 1193 5abf
-0.17588450133017774 0.043377905583569194 0.25286513849461484 0.5370725190692501 0.17301139054360834 0.06744152083399606 -0.45675945409817675 -0.005610959777528503
0.22323200170345736 -1.4758053421037867 0.5133927185725812 -0.05616584982471163 0.004142158370054298 -0.03514280273350062 0.010411313719550088 1.4697785536551207
-1.4354357977882366 0.003896920287300162 1.9981319056964757 0.01410941364023232 0.004949147276852742 -1.5833556125578152 0.0025777430647557363 -0.0016219779511977579

classical_nn_linear.weight f8 [1, 4]
00000000: ded7 b300 ae5c 0040 4acb 843b 0a27 0240
00000010: daf4 1a80 7a28 8ebf b19d 9612 b002 06c0
2.0452537588962363 2.2690624856854003 -0.014725644144500217 -2.7513123943533278

classical_nn_linear.bias f8 [1]
00000000: 6cdb 54af 2727 97bf
-0.02261030204428087
