VQ_LSTM_BASE_CLASS_TS_MODEL__DATALOADER_BESSEL_4_QUBIT_2_QuLAYERS_old/VQ_LSTM_BASE_CLASS_TS_MODEL__DATALOADER_BESSEL_4_QUBIT_2_QuLAYERS_NO_2_Epoch_45_torch_model.pth (torch, 3471 bytes, 8 tensors)

q_params_1 f8 [2, 4, 3]
-1.5611293429748803 -0.9021556551910886 1.5836478677261272 1.610442356153104 0.6553416799948758 -1.5867642282976953 -1.6935902754634535 -1.7910429107673187
-1.4261104302716046 -0.08425952768817303 0.05012228360045081 0.0756306172433565 0.13403931925223111 -1.2798329315226349 -0.0033524201591899707 -0.004836570147991
-1.1075993726568876 -0.0035894271003083325 0.00015885410023632734 -1.6007609446657287 -0.010166407566421058 -0.0039029615179833983 -1.5542420955436427 0.013414899823376722
00000000: 0273 0ec3 62fa f8bf 494f 5e89 75de ecbf
00000010: bb38 8425 9f56 f93f 0f55 3c34 5fc4 f93f
00000020: fb13 691d 8ff8 e43f 3d05 30e3 6263 f9bf
00000030: d106 df1d f218 fbbf 09a7 779c 1ca8 fcbf
00000040: 3804 a82b 59d1 f6bf 610f cc4b 0892 b5bf
00000050: 93c3 bac1 a0a9 a93f 4ff2 a233 875c b33f
00000060: f880 484e 3328 c13f 84bc 9318 327a f4bf
00000070: 950a 47de 8876 6bbf 8853 c4e9 82cf 73bf
00000080: 6a1a aa1e bab8 f1bf 55fc 3a00 9367 6dbf
00000090: 2dd3 a854 42d2 243f 9bda 2082 b79c f9bf
000000a0: 3ceb 1f20 20d2 84bf d61e 7982 1af9 6fbf
000000b0: c0d2 a6f5 2cde f8bf f805 2a60 4579 8b3f

q_params_2 f8 [2, 4, 3]
1.5633674177663426 0.5394008413801707 -1.5678000706509645 -0.024619213628255702 0.011742295970288035 0.018533227119885736 -0.7785002545448576 -0.516221521635066
0.8239069999710328 0.026782934102326614 -0.05176785607953839 -0.021226625802643125 -0.3223117050336924 -0.7840537507921824 -0.013732481746846078 0.020686934834653385
-1.5063606753981282 -0.0059517831691200075 -0.00535129961575911 -1.5999993392218002 0.005605214803917159 0.5128370844442427 -1.5589194917284808 -0.015925772473520932
00000000: bb03 af8d 8d03 f93f fa34 a58d c542 e13f
00000010: 51cc e186 b515 f9bf c1df 8b75 c735 99bf
00000020: a3f3 6049 580c 883f 8b1c 7ad1 5ffa 923f
00000030: b254 a65d 79e9 e8bf 333f 1dff e284 e0bf
00000040: 1d46 7a36 725d ea3f acdd 3d48 fc6c 9b3f
00000050: 52f9 b001 5181 aabf 22d3 81be 6ebc 95bf
00000060: 9936 0f46 c1a0 d4bf 81ac 3ee4 f716 e9bf
00000070: 1108 f77f c61f 8cbf aefb 46b2 f42e 953f
00000080: 030c cda6 0d1a f8bf db2e 07a1 e560 78bf
00000090: 9bd8 738d 3eeb 75bf 9344 39e8 9899 f9bf
000000a0: e86c 5164 7ef5 763f fea5 3b51 2969 e03f
000000b0: dd21 a190 55f1 f8bf 0bce bf7f d84e 90bf

q_params_3 f8 [2, 4, 3]
0.32216693544196157 0.030748226548580213 1.2083925169495249 0.03570216403543687 0.0055311162150525825 0.0021881334608295847 0.881038942354561 0.04359229026417151
0.6912791408501959 0.03714961600499772 1.5645222887465258 0.3146406393730726 -0.24797640458601372 0.8439439959377452 0.00954722045356136 -1.276059264127716
0.07316541052236972 0.010982880216222537 1.5687873535050074 -1.5543005874674705 0.007253915975245044 0.034029797930631385 0.022251665616739677 -0.011215995094847893
00000000: 63d9 e410 629e d43f 5c9e be8d 767c 9f3f
00000010: 2878 5064 9355 f33f 3a75 dbd5 8d47 a23f
00000020: b87d 10b4 cba7 763f 10da e934 d9ec 613f
00000030: e249 7d94 7831 ec3f aaaf 158a ba51 a63f
00000040: 6679 cb6e f51e e63f 18d1 9943 4605 a33f
00000050: 6978 0086 4808 f93f 6164 067e 1223 d43f
00000060: 3634 f0d9 b0bd cfbf 59a9 c6d6 9601 eb3f
00000070: 760d ed3c 7e8d 833f 5bfb 721e bd6a f4bf
00000080: 9a59 64e5 f7ba b23f 4ea9 c13a 317e 863f
00000090: 1aeb 9ac4 c019 f93f d338 f54a 6ade f8bf
000000a0: 7812 1b3e 48b6 7d3f 9931 678a 5a6c a13f
000000b0: 6cf4 6b00 24c9 963f 24e9 fe60 69f8 86bf

q_params_4 f8 [2, 4, 3]
-0.02856178349150937 -0.005047802581734005 0.05474854760931899 -1.5820556600809896 -0.24180818794747932 1.5354013321044373 -1.20714427352398 -0.9658018672688417
0.6754814058428558 0.08197425344680953 -1.1665321239888278 -0.19486705890844402 0.3282695076495586 -0.3357337196754609 0.002437403916354631 0.01007076446408375
-0.3104407408399161 0.00817151747939425 -0.04366098408622213 -1.5972993557292277 0.0010657532285912998 0.9414906170084679 -1.4236831739439744 0.011556331086540719
00000000: 99bd 0bd8 4c3f 9dbf 1859 1530 01ad 74bf
00000010: 9c96 f86a 0008 ac3f 21fe 8798 1950 f9bf
00000020: 56d9 9119 92f3 cebf 6bf9 b9fc 0091 f83f
00000030: 406d 8583 7650 f3bf a9bb 4a51 d9e7 eebf
00000040: 60d6 642e 8b9d e53f 2006 abc1 43fc b43f
00000050: 363f a496 1daa f2bf 282c 8a5e 67f1 c8bf
00000060: 813f e81b 5e02 d53f 11ea 8a48 a97c d5bf
00000070: 35cc 7343 9bf7 633f ced3 2620 fb9f 843f
00000080: 8b38 50d7 42de d3bf b859 a982 3abc 803f
00000090: 64e3 8585 bb5a a6bf 6376 ecc4 898e f9bf
000000a0: b942 cbd0 1776 513f f559 31ee b020 ee3f
000000b0: 1047 ff01 68c7 f6bf 6ea5 a080 d8aa 873f

q_params_5 f8 [2, 4, 3]
-1.2375378140832343 -0.8044065854211603 1.3582435705820304 1.1787970429530839 2.325617448406055 -0.26983182825279634 -0.10762926834152746 0.26850627628263013
0.1241541404842323 -0.1355494276242143 1.0546539952804974 0.5715438137429849 -1.5577474920370036 -0.9390530593367532 0.00401885063431718 0.7252406824833011
-0.5675563811161088 0.023506296767489703 -1.5252656237607656 0.9301556727738598 -0.0131728919202134 0.00035142613342031837 -0.005388269200921059 0.028065361082553864
00000000: 28d0 7073 f4cc f3bf ed44 22e1 b2bd e9bf
00000010: f46e 3a9c 5dbb f53f 17ae c149 5adc f23f
00000020: ad49 1f52 dd9a 0240 6500 71b7 ec44 d1bf
00000030: 6388 9e7b 978d bbbf 92e5 d9f2 342f d13f
00000040: cdf2 0ad5 90c8 bf3f 3c9a 5103 af59 c1bf
00000050: 2535 25de dcdf f03f 463b 8840 164a e23f
00000060: 6699 5ba2 88ec f8bf 5cec 6100 b90c eebf
00000070: 89a0 ab00 1276 703f eed2 9ff2 2b35 e73f
00000080: 1ef4 f0ff 6b29 e2bf bb3b 77df 0812 983f
00000090: 9b3f 3ced 7c67 f8bf 5815 58d4 d5c3 ed3f
000000a0: 71b0 ed9f 63fa 8abf 0000 00c0 f307 373f
000000b0: 0000 0080 0212 76bf 0000 0080 2abd 9c3f

q_params_6 f8 [2, 4, 3]
-0.16766552663816672 -0.048707613115624146 0.12821528473917218 0.47700001786920243 0.23465284157254643 -0.47084825985716017 -0.3615341893685312 0.13049043152581383
0.10279478770701019 -1.3599520761439061 0.2435314799575044 -0.2054864689790399 -0.07848862232636611 0.04776283933548208 0.010411314051678102 1.3470492045058338
-1.1550363882072212 0.003896919814520614 1.1056461443279129 0.011929110332129428 0.004949147354948611 -1.1340583706946608 0.15813516620064985 -0.0016219771489075676
00000000: edec c960 1076 c5bf e6af cb4a 34f0 a8bf
00000010: 4faa 66c3 5b69 c03f 1023 3c15 2b87 de3f
00000020: e1d8 3bb4 1a09 ce3f c4c2 5dbd 6022 debf
00000030: 4e51 ee4b 6023 d7bf f311 ec13 e9b3 c03f
00000040: 859f 665b c250 ba3f 64a5 b21b 5dc2 f5bf
00000050: 1263 fb1e 0a2c cf3f 198b 0470 614d cabf
00000060: 60f5 ff91 d417 b4bf 3feb d1f1 5e74 a83f
00000070: 5bfb e1ea 8652 853f 3449 7777 838d f53f
00000080: bda3 906f 077b f2bf 7b6f 12e5 6eec 6f3f
00000090: de63 ed02 bab0 f13f d097 f915 4a6e 883f
000000a0: 3e7c 85a0 8e45 743f c237 de63 1a25 f2bf
000000b0: d1f3 96eb c53d c43f 537e cdb3 1093 5abf

classical_nn_linear.weight f8 [1, 4]
1.5278011509001943 1.8268524071312224 0.0036102819707263525 -2.4048518061429274
00000000: 1a85 9e9e df71 f83f abf5 f396 c93a fd3f
00000010: 3ea3 cb5f 4f93 6d3f 1ce2 98f1 223d 03c0

classical_nn_linear.bias f8 [1]
-0.24705566681314672
00000000: 0881 a024 859f cfbf
