VQ_LSTM_BASE_CLASS_TS_MODEL__DATALOADER_BESSEL_4_QUBIT_2_QuLAYERS_old/VQ_LSTM_BASE_CLASS_TS_MODEL__DATALOADER_BESSEL_4_QUBIT_2_QuLAYERS_NO_2_Epoch_20_torch_model.pth (torch, 3471 bytes, 8 tensors)

q_params_1 f8 [2, 4, 3]
00000000: 2b44 8b8f 1815 f9bf 3d90 970b 0568 e5bf
00000010: d64a 09c3 d4dd f93f ff61 7d70 5b14 f93f
00000020: 386a 63b7 51a6 dc3f 8b4a 3828 ac9f f8bf
00000030: 446c ba0c 2ab8 fabf 1dc4 66b4 7892 fabf
00000040: fee3 4406 9669 f6bf 2fc3 f8bf 8672 b5bf
00000050: af4c 5bd0 afd2 a8bf 5c96 e41f 63b0 af3f
00000060: 607b 9190 0949 b7bf 2ac8 1225 3a8c f5bf
00000070: e040 78e1 8876 6bbf 391f fb11 f2f4 90bf
00000080: 0716 0f71 a81c f9bf 9d14 eb01 9367 6dbf
00000090: 91d0 a5a6 e426 563f dcd2 9cfd 997f f9bf
000000a0: 189f 5720 20d2 84bf 8000 2390 974d 91bf
000000b0: 81e4 eba6 9854 f9bf e0c6 d15f 4579 8b3f
-1.5676503760516975 -0.6689477182776568 1.6166579836469075 1.5674700159198662 0.44765131863610774 -1.5389825411881783 -1.669961976737583 -1.6607596442156656
-1.4007778401266928 -0.08377878367242596 -0.04848241251388551 0.061892602580240846 -0.09095821170329321 -1.346735138719405 -0.003352420182416535 -0.01655939326045017
-1.5694965759624908 -0.0035894271125892067 0.0013520462913137225 -1.5936527163259404 -0.010166407572753708 -0.01689755265465509 -1.5831533928269723 0.013414899813344261

q_params_2 f8 [2, 4, 3]
00000000: 72cf f3ae fc0d f83f c038 696c a96e e63f
00000010: 65b5 85ee 2bb8 f7bf 3ee5 06ab 1df6 973f
00000020: 82e0 646e 8dc8 7c3f bee0 ec09 8207 77bf
00000030: 20f8 1c97 5b29 eebf ded9 323b c509 eabf
00000040: d6f5 4b2c 25d8 c93f 239c 7ea0 0fff d53f
00000050: 08aa a232 88b5 e5bf 4d7c 011b ab1b d23f
00000060: aea4 dfa8 ff64 f0bf 8b54 82b5 1cc2 ddbf
00000070: c970 c480 c61f 8cbf 75d9 99ec af6e e2bf
00000080: b280 358c fe53 efbf 0a71 2aa0 e560 78bf
00000090: f58b e451 74c9 a3bf 076c b575 88a0 f9bf
000000a0: 5119 c85f 7ef5 763f a806 30b7 7984 e53f
000000b0: a578 bc49 3c50 f6bf 9141 cd7f d84e 90bf
1.5034148058011536 0.7010085217860009 -1.4824637715604123 0.023399795116096238 0.007027199235658201 -0.0056223945273858305 -0.942548556464093 -0.8136926799987199
0.201908728245981 0.34369269059465263 -0.6784096707318108 0.2829387439468903 -1.0246578785538918 -0.4649726650762395 -0.013732481770198384 -0.5760116215813428
-0.979003213735288 -0.005951783156572308 -0.0386463499037503 -1.6016926382060335 0.005605214737903389 0.67242131975964 -1.394588745147794 -0.015925772476579395

q_params_3 f8 [2, 4, 3]
00000000: a052 26db 3663 c23f 7ce5 77b2 9b48 793f
00000010: a560 b047 f54d df3f 6eee 7218 beaf b4bf
00000020: 703c e9b1 bb44 9e3f 286b 3d9e cfa6 d1bf
00000030: 4bde e9b3 3ff9 dd3f 75b3 b9f3 4d24 b43f
00000040: dc54 288f b358 e13f 11e4 97f5 5b1a aebf
00000050: 907d 6a60 a637 f43f 7bed d5c5 481b c63f
00000060: bb5e 5e2c a635 e8bf 6f35 ddee 2730 e03f
00000070: f9e9 1e3c 7e8d 833f dabe 413e 2027 f0bf
00000080: 43a4 a1f4 8489 c9bf c1e2 2738 317e 863f
00000090: 3eab a72c dd95 dc3f e497 4ec3 2463 f9bf
000000a0: ad57 283e 48b6 7d3f e969 331a 5179 e2bf
000000b0: 95bb 456e 0af8 963f 705c 275e 69f8 86bf
0.14365277958554135 0.006172760192833745 0.48913318634869035 -0.08080661866090974 0.029559071286993477 -0.2758063359557803 0.4683379418342823 0.07867896271063819
0.5420778080030249 -0.058794854859975605 1.2635864034890325 0.1727076498026284 -0.7565489641737807 0.5058784165682207 0.009547220430126112 -1.0095522338778466
-0.19950925774472425 0.010982880140532615 0.4466469703754007 -1.5867049817256822 0.007253915975999376 -0.5773091804251723 0.02243057535218503 -0.011215995012135077

q_params_4 f8 [2, 4, 3]
00000000: 98cc 64c2 1a67 e3bf 7acc 2bcd e51c 92bf
00000010: 3ae1 d28d e051 d53f f81b 51a3 36d1 f5bf
00000020: ec25 68c0 3060 d6bf 2d5b 397e bee3 f53f
00000030: 8fec a1fd 38c5 f8bf 6d4b 6c9f 584e efbf
00000040: 59ef fcd9 349c cc3f beae dd7a bab7 973f
00000050: bd48 4780 aa37 f5bf a827 086c 26fe a1bf
00000060: 5e37 9a41 8880 debf 6f38 8bef d640 d4bf
00000070: a28c 1b41 9bf7 633f be25 f508 681d d0bf
00000080: 5374 4281 7ac5 c4bf a6f8 a181 3abc 803f
00000090: c70c 2ec0 7e47 d33f c7ce ec23 38e8 f8bf
000000a0: 6b2f 68e0 1776 513f 1a45 d346 4d4f e93f
000000b0: a01a ce3c d4b4 f2bf 97ec 3081 d8aa 873f
-0.6063360020401829 -0.017688360831880058 0.333122385501628 -1.3635774974406996 -0.3496209982846199 1.3681015902163367 -1.5481500537414694 -0.9783137429934478
0.22351704257914198 0.023161805867330847 -1.326090336883268 -0.03514213627575141 -0.4765949860237607 -0.3164574946685041 0.002437403899294547 -0.2517948234058983
-0.1622765666151361 0.008171517449451503 0.3012387158161797 -1.5566941645928851 0.0010657532853910144 0.7909304030710331 -1.169147717971704 0.011556331102943225

q_params_5 f8 [2, 4, 3]
00000000: 9e47 5778 3000 f0bf b19d 891e effe ecbf
00000010: b6aa 8e8b 56d1 f63f 5e23 268d 739c d83f
00000020: be84 edab 9d24 fe3f 35d5 04ee 1342 debf
00000030: a10b 6c6c 4fd2 c6bf 8e57 f9b5 26d1 8e3f
00000040: b12f 4b95 e65f a73f eb3b 6d69 a1e8 debf
00000050: 779d a9da ea6f e23f 720e b9ae ae1a de3f
00000060: 0933 ba7e 7009 f4bf 560e e3fc bae1 e7bf
00000070: 02e8 eeff 1176 703f 138d 1109 722a e73f
00000080: 1225 40f8 5b72 ddbf 5e99 93df 0812 983f
00000090: 99e1 1e7a 2043 f6bf 454c d3d4 4d6f f33f
000000a0: 3085 4da0 63fa 8abf 0000 00c0 f307 373f
000000b0: 0000 0080 0212 76bf 0000 0080 2abd 9c3f
-1.000046224672111 -0.9061198803364531 1.4261079265076382 0.3845490339668255 1.8839394298486662 -0.47278307193785746 -0.17829315942807702 0.015047361782460713
0.04565353939469164 -0.48294863982749686 0.5761617918732743 0.470378561618623 -1.2523045492445724 -0.7463049830625532 0.004018850623589644 0.7239313294525423
-0.4601049351045542 0.023506296773939332 -1.3913883943879226 1.214673835133696 -0.013172891931108127 0.00035142613342031837 -0.005388269200921059 0.028065361082553864

q_params_6 f8 [2, 4, 3]
00000000: e852 22c0 aeab d1bf 0bc8 622f f773 dcbf
00000010: e0b3 6a07 e222 493f 0a5b 0b8c 243e c13f
00000020: ff62 fda0 9451 e43f e3b4 8fd8 20c5 d8bf
00000030: e03b 4423 7b2f d2bf ee05 14f5 47e3 ce3f
00000040: 54ad 8c71 ea03 c9bf 02ed 4d99 5b50 f2bf
00000050: 8883 8be7 2272 cb3f 8625 cf5a 44ae d5bf
00000060: c015 c9f6 e58d 93bf 8d92 1cef 1b05 ab3f
00000070: bbea 9cef 8652 853f b7c5 e65c fb5f f33f
00000080: ad29 311f 0b9a e5bf f4ee c35c 6fec 6f3f
00000090: 5bd4 ae22 f920 c03f 0d7d 657d ab19 afbf
000000a0: 0a8b a69c 8e45 743f f454 6824 39c5 eabf
000000b0: 89db bf82 9d32 b83f 006b 528b 1093 5abf
-0.27610367549031745 -0.4445779764893138 0.0007670978219117518 0.1347089465914098 0.6349585670787689 -0.3870317568642589 -0.28414801067350304 0.24131106821737042
-0.19543200058374544 -1.1446186054661784 0.2144206648436262 -0.3387614142235055 -0.019095986545172527 0.05277335447161589 0.01041131418934548 1.2109330777133047
-0.6750541314334463 0.003896920685404365 0.12600626176359495 -0.06074272065847639 0.004949147298620069 -0.836575099094857 0.09452232782483184 -0.0016219770016394075

classical_nn_linear.weight f8 [1, 4]
00000000: 0826 4556 35fb ef3f 44d9 a0a1 a2c8 f73f
00000010: e013 cc28 ee87 843f 8a50 b5a0 3724 00c0
0.9994150814974896 1.4864832223516524 0.010024891490965915 -2.0176842265446497

classical_nn_linear.bias f8 [1]
00000000: ff91 30ab 1487 d7bf
-0.36761967389819
