VQ_LSTM_BASE_CLASS_TS_MODEL__DATALOADER_BESSEL_4_QUBIT_2_QuLAYERS_old/VQ_LSTM_BASE_CLASS_TS_MODEL__DATALOADER_BESSEL_4_QUBIT_2_QuLAYERS_NO_2_Epoch_8_torch_model.pth (torch, 3471 bytes, 8 tensors)

q_params_1 f8 [2, 4, 3]
000000 bc 6a ed e6 15 99 f3 bf 54 ac e7 f5 3b 39 da bf
       -1.2248744030572842 -0.4097432996192698
000010 9b dd 98 0a c8 7f f5 3f 13 4e c3 70 13 42 f0 3f
       1.3436966337156722 1.0161318211365866
000020 a6 b2 85 c7 09 6f d0 3f 45 05 8b 24 af 59 f2 bf
       0.2567772339305442 -1.1468955447638376
000030 5c f4 a6 68 b9 d4 fa bf c0 96 3e bc e4 9c f6 bf
       -1.6769346321082343 -1.4133040765095046
000040 5d 57 e8 13 15 c6 e5 bf 61 dd f2 43 50 2b c1 bf
       -0.6804299725360853 -0.13413432424361374
000050 79 7d 04 6b 45 4b d2 bf f3 d1 1b 60 6c 6e 9f 3f
       -0.2858441872685585 0.030694669118888695
000060 9e f9 2c ff 57 6b e7 bf 06 cd 46 f9 99 af f2 bf
       -0.7318534835720134 -1.1678714501729828
000070 c9 1b c6 e0 88 76 6b bf c3 c6 70 02 e1 9c d6 3f
       -0.003352420177353353 0.3533251308282212
000080 ad 40 48 42 26 5d f7 bf 04 66 79 00 93 67 6d bf
       -1.4602415646695974 -0.0035894271020822117
000090 c4 b5 6d be 12 7e 92 bf 34 ef 21 77 fc c4 f8 bf
       -0.018059056160770984 -1.5480923322310902
0000a0 3c 58 d6 1f 20 d2 84 bf 65 9f 32 41 0a bb d1 bf
       -0.010166407558056638 -0.27704101912467244
0000b0 15 60 b6 8b e3 ea f4 bf 54 af 1c 60 45 79 8b 3f
       -1.307345910789086 0.013414899821860317

q_params_2 f8 [2, 4, 3]
000000 6e 72 6b 33 a1 b7 f8 3f 7e 0b c5 f2 84 c0 e7 3f
       1.5448314674933061 0.7422508946986992
000010 82 5e d7 ac 6f a0 f8 bf 8d c1 c4 86 00 c8 97 bf
       -1.5391690017330864 -0.02322388479768871
000020 e5 3b 8e 82 ff 6c 97 bf 1d 88 10 7e 24 45 89 bf
       -0.02287673220012811 -0.012338910195527625
000030 14 a9 69 57 b6 73 f0 bf 06 df 48 57 bc 19 ec bf
       -1.028250066238404 -0.8781415657785778
000040 48 76 1b 3e 6a 55 bc 3f 2a 63 e2 51 e0 97 c1 3f
       0.11067832962313517 0.13744739530809486
000050 30 09 57 b5 a4 12 e2 bf 39 99 2d b0 b8 82 bc 3f
       -0.5647758046909868 0.11136965085242857
000060 dd 96 8a 32 88 a0 f1 bf 8a 00 d7 25 61 e8 e3 bf
       -1.101692387988286 -0.6221166361865624
000070 25 40 76 80 c6 1f 8c bf 6e 16 8e 24 f7 20 dc bf
       -0.01373248176130921 -0.4395120484335625
000080 34 39 71 b5 cf 4c f0 bf 6e e3 c5 9f e5 60 78 bf
       -1.0187527740086582 -0.005951783150856522
000090 60 eb 04 d7 fb 7d 95 3f 16 bb 79 a1 7a 96 f8 bf
       0.020988402365428427 -1.536738043559756
0000a0 58 ce 98 5f 7e f5 76 3f e6 81 1c d8 c8 11 db 3f
       0.005605214735215101 0.4229604826414558
0000b0 c1 29 b8 d8 e6 8d f0 bf fe c7 d5 7f d8 4e 90 bf
       -1.0346439805604037 -0.01592577247851778

q_params_3 f8 [2, 4, 3]
000000 a8 cf 00 32 41 6e 80 3f 65 8f d8 b9 27 79 ac 3f
       0.008022794092631916 0.055611840664169056
000010 94 63 84 ba 28 42 aa 3f 80 e7 fe 44 45 5b 9e bf
       0.051286003845411404 -0.02964504464737372
000020 0c 26 4d 97 15 fa 6e 3f 5e 16 89 78 a6 93 9c 3f
       0.0037813588809612105 0.027906991106894423
000030 21 97 a8 eb 8b 7c cf 3f b2 3c 7e 49 63 d6 c1 3f
       0.24598835951581413 0.13935509766131343
000040 33 b9 5e 60 41 88 d0 3f 8e c1 5f 78 90 bc b2 bf
       0.2583163682092106 -0.07318976343936454
000050 d4 8c 24 b5 7a ed f2 3f bf 18 03 c8 77 ba c6 3f
       1.1829783512010197 0.1775655485745968
000060 0b fb 56 14 0c 52 c8 bf a1 a0 29 1f 9b fd d4 3f
       -0.1900038813891672 0.32797887843345036
000070 b2 a9 59 3f 7e 8d 83 3f 7e c8 b4 53 76 22 e1 bf
       0.009547220524116582 -0.5354568133245861
000080 bb 2c dc 55 55 e2 bc bf c2 99 a1 3e 31 7e 86 3f
       -0.11282857271378337 0.010982880328992976
000090 a8 47 2a 09 21 d7 96 bf 05 ec 00 73 b5 46 f3 bf
       -0.022305027183911058 -1.20476288722307
0000a0 73 d5 ed 36 48 b6 7d 3f 46 8e 9a f6 39 ca ef bf
       0.007253915870810135 -0.9934358421782654
0000b0 00 19 c3 07 0a 7b a5 3f dd 5e 63 5d 69 f8 86 bf
       0.04195433945419502 -0.011215994989853534

q_params_4 f8 [2, 4, 3]
000000 2e b1 35 05 3b d2 e8 bf 3f 2f f6 bd f6 57 ca bf
       -0.7756629087212212 -0.2058094432398949
000010 d2 00 bd ab 9b 48 e6 3f 54 7b e4 ea dd 64 f3 bf
       0.6963632921470213 -1.2121256995667027
000020 c9 ef bd b0 37 bf db bf 97 6a 2a 97 b1 36 f3 3f
       -0.43354599246935926 1.2008529572400783
000030 6d 86 93 df e5 c2 f6 bf e0 f7 70 09 c2 8d ee bf
       -1.4225825055549663 -0.95480443805695
000040 e1 4e 24 78 ee e1 cb 3f 02 a0 49 cf aa d6 ba bf
       0.21783238283443665 -0.10483806191189163
000050 3d 09 82 5d cf 8a f0 bf 79 9b d8 05 51 c4 b3 bf
       -1.033889165177768 -0.07721430199363323
000060 b6 fd 24 a7 73 cf e6 bf 9e b4 d1 63 cc aa dd bf
       -0.7128237022915787 -0.4635497069164759
000070 12 3d 17 42 9b f7 63 3f ef d9 81 3f 1e cc c2 3f
       0.0024374039064479847 0.14685419178904577
000080 fe 75 44 00 9c c5 d7 bf 35 93 b6 81 3a bc 80 3f
       -0.3714361193286492 0.008171517451793878
000090 13 b0 c2 2b 34 4c b9 3f 35 1c 2d 5f 09 2b f9 bf
       0.09881902759906351 -1.5730069845028656
0000a0 3e 93 79 e1 17 76 51 3f 31 26 53 36 ea 4d e2 3f
       0.0010657532892761191 0.5720110951453475
0000b0 88 8f 7d b3 19 de f1 bf e2 b3 a3 80 d8 aa 87 3f
       -1.1167237292620218 0.011556331086888198

q_params_5 f8 [2, 4, 3]
000000 71 ac 52 29 3d 9c ef bf 97 6c 38 63 80 71 ef bf
       -0.9878221327866311 -0.9826051652811597
000010 21 b7 ab e1 23 83 f2 3f 27 01 2a 21 5e 00 de 3f
       1.1570166411651785 0.468772442232892
000020 c7 46 e7 23 e4 c8 f6 3f 09 b1 f5 a1 17 83 ea bf
       1.4240456964948167 -0.828502479865649
000030 30 ed c2 c5 0e 32 b9 bf 1e ec d4 ac ee 68 b6 bf
       -0.09842006996307329 -0.08753864020847898
000040 78 17 e8 56 3d 37 ae bf b5 8a 71 d7 cd c0 db bf
       -0.05901519475814515 -0.4336428264561321
000050 14 a4 cf 07 cd 7a e3 3f 86 9a 67 d0 49 a6 d2 3f
       0.6087403442917343 0.29139943458577766
000060 44 76 5d 47 da eb ed bf c8 55 e9 70 bf 86 a8 3f
       -0.9350406068658192 0.047903044255388105
000070 7e 45 ac ff 11 76 70 3f be d2 46 b9 7b 97 db 3f
       0.004018850619801893 0.43112080663130914
000080 1c a2 cc 41 bb 9b e3 bf a7 0c e0 df 08 12 98 3f
       -0.6127601895469215 0.023506296791322125
000090 85 19 ae 12 70 37 f0 bf 40 99 e0 95 42 f9 f1 3f
       -1.0135346154871467 1.1233545164664775
0000a0 c3 33 f6 9f 63 fa 8a bf 00 00 00 c0 f3 07 37 3f
       -0.013172891921181212 0.00035142613342031837
0000b0 00 00 00 80 02 12 76 bf 00 00 00 80 2a bd 9c 3f
       -0.005388269200921059 0.028065361082553864

q_params_6 f8 [2, 4, 3]
000000 81 6c bc e1 4c 9b d1 bf 37 68 87 b4 87 ad e2 bf
       -0.27510377926382296 -0.5836828733402005
000010 90 cc ab 7e 59 b9 ac bf 78 4c 0c 10 88 dc 66 3f
       -0.05610160514142948 0.002790704486309855
000020 74 ba 96 59 9c 8e ec 3f c7 ec 64 1b 4d 59 b0 3f
       0.8924085378437909 0.06386262816242826
000030 32 d5 a4 72 ca 79 b7 bf 6e 38 7e 37 b0 da d1 3f
       -0.09170213030741506 0.2789726774143507
000040 ad 77 fe 09 33 c0 d3 bf 2d c3 bb 97 88 54 ee bf
       -0.30860591865518466 -0.9478190387290845
000050 d8 fa 83 fd 41 e1 b5 3f 1a 89 20 fd ce 63 d7 bf
       0.08546841086716073 -0.36546683043901995
000060 a1 b7 8d e2 a5 5f ba bf 9b 75 26 55 1e c5 a9 bf
       -0.10302197247594204 -0.050332019705119545
000070 18 7d 38 0e 87 52 85 3f df ec 33 62 f4 ec f1 3f
       0.010411315080146852 1.1203502498672646
000080 fd 1c ef 70 8c 24 da bf a7 b8 2b 95 6f ec 6f 3f
       -0.40848074940409146 0.0038969210958078207
000090 a9 91 da 7d c7 9b a2 bf 5e 54 c0 ca 31 63 ac bf
       -0.0363447514658078 -0.055444293975747114
0000a0 18 eb 1b 9a 8e 45 74 3f af 36 00 36 88 e2 e0 bf
       0.004949147261636332 -0.5276528410629079
0000b0 6c 74 7a ad 6d c1 ba 3f 9e 5b d8 99 10 93 5a bf
       0.10451398358641634 -0.0016219770544745114

classical_nn_linear.weight f8 [1, 4]
000000 9b 09 9a 66 97 c7 e5 3f 74 4c 9c 49 f7 52 f4 3f
       0.6806141857089644 1.2702553630267888
000010 02 3c c8 f2 59 58 d6 3f a1 db 26 ca ab 7c fb bf
       0.3491425391120516 -1.717937268882203

classical_nn_linear.bias f8 [1]
000000 bc f4 82 aa ab 26 d7 bf
       -0.3617352643157792
