VQ_LSTM_BASE_CLASS_TS_MODEL__DATALOADER_BESSEL_4_QUBIT_2_QuLAYERS_old/VQ_LSTM_BASE_CLASS_TS_MODEL__DATALOADER_BESSEL_4_QUBIT_2_QuLAYERS_NO_2_Epoch_15_torch_model.pth (torch, 3471 bytes, 8 tensors)

q_params_1 f8 [2, 4, 3]
0	0xbff9c6924e9aeabb	-1.6109793730271764
1	0xbfe249ad7816aa27	-0.5714938493231941
2	0x3ff9dd7a650b6c1d	1.6165718028121383
3	0x3ff767723aece10f	1.4627554227609527
4	0x3fd6669e5b134e6b	0.3500133408935883
5	0xbff7765b1f24c103	-1.4663954941316326
6	0xbffb290e31f13d15	-1.697523303115138
7	0xbff94a02e95605c2	-1.5805691828430644
8	0xbff4de1a7dffa475	-1.3042244836636006
9	0xbfb5b8eb2f9e7d83	-0.08485288536620854
10	0xbfb4251a6bdcd756	-0.07869115002980939
11	0x3fae608eb0026680	0.059330424294967266
12	0xbfd0b3354a6fa18a	-0.26093799847742416
13	0xbff536bf85ac1bdd	-1.3258662435125566
14	0xbf6b7688e1644876	-0.003352420181848943
15	0x3f91868d43fa7f4a	0.017114836954191838
16	0xbff8e2e1d2b72eda	-1.5553911429478178
17	0xbf6d679300df1ee0	-0.003589427104973328
18	0xbf667e9e326e41b4	-0.0027459230217987355
19	0xbff9b67b6edc4549	-1.6070513086782106
20	0xbf84d22020292d39	-0.010166407567473544
21	0xbf9c1c3ebe547231	-0.027451496474087903
22	0xbff93de744113619	-1.5776131304622878
23	0x3f8b79455ff12626	0.013414899816910863

q_params_2 f8 [2, 4, 3]
0	0x3ff890200c02978d	1.535186812319327
1	0x3fe75289de3b1fab	0.7288255062530785
2	0xbff7d668103e365a	-1.4898453363888593
3	0x3f7c657a06cc03f2	0.0069327131902818685
4	0x3f7024c6872f9c0b	0.0039413218500845655
5	0xbf872f7307793a08	-0.011320971170019525
6	0xbff098691dbdd601	-1.037209621599118
7	0xbfeb751dbf306b55	-0.8580464109576079
8	0x3fb2e96b1111b9d3	0.073874179522796
9	0x3fd5e8f45301ab4e	0.34234340768914684
10	0xbfe4d91d5e0374b9	-0.6515032612038772
11	0x3fce8cd755e47d3e	0.23867313093158232
12	0xbff20bbd9bb7f1d7	-1.1278663714175445
13	0xbfe1b3ab4ac84b37	-0.553182264384623
14	0xbf8c1fc680b9babc	-0.013732481768980669
15	0xbfe5bea32150b4be	-0.6795211458862906
16	0xbfede3c89374aa08	-0.9340556030268212
17	0xbf7860e59f80c1e4	-0.005951783146926879
18	0xbf91fcc6bfe3ee3a	-0.01756582781034253
19	0xbff992fbb2da9658	-1.5983845697859547
20	0x3f76f57e60743f65	0.005605214747688912
21	0x3fe1f08fd66cd9dd	0.5606154621116805
22	0xbff563ce7921c167	-1.3368668300355127
23	0xbf904ed87faf1785	-0.01592577246972084

q_params_3 f8 [2, 4, 3]
0	0x3fbdf76a251bcee0	0.11705649763080883
1	0x3f965b7e71459481	0.021833396590768665
2	0x3fd2e09f9f5bf7da	0.29495993196894477
3	0xbfc1c9d8ce1052a1	-0.1389723783655841
4	0x3fb2962d2a908388	0.07260401047871146
5	0xbfc7d6f7c8429223	-0.18624779966661817
6	0x3fd7061d7a54ae53	0.35974823900571556
7	0x3fbb7d6248a78b44	0.10738195680418722
8	0x3fdbf9092aeeb8c8	0.4370749396574749
9	0xbfb523209938c413	-0.08256725064053709
10	0x3ff3997e84cdde3a	1.2249741733229613
11	0x3fd13e682c555b2b	0.2694340165084436
12	0xbfe3f8f42f4358f8	-0.6241398738009414
13	0x3fdc56e00f48e362	0.44280244343422315
14	0x3f838d7e3cb8ef36	0.009547220447636211
15	0xbfeab4842e860c63	-0.83453568541189
16	0xbfc48c2d763230f2	-0.16052788039485894
17	0x3f867e313c1c7a91	0.010982880255651114
18	0x3fcbaf3602fd8ba7	0.21628451486602993
19	0xbff77341ada726d5	-1.4656388076131652
20	0x3f7db6483b4b339f	0.007253915934325144
21	0xbfe82a13ea987496	-0.7551364499992299
22	0x3fae1a6646ceb6ca	0.058795162337771226
23	0xbf86f8695e2f82cd	-0.011215995013061609

q_params_4 f8 [2, 4, 3]
0	0xbfe6a99d3f2313e1	-0.7082048638482058
1	0xbfb6cadd9ceb0c99	-0.08903298455247678
2	0x3fde20d380a1ee2e	0.4707535511185793
3	0xbff51d5bf1540789	-1.319667761505544
4	0xbfd851798ba35743	-0.37997282635238977
5	0x3ff4a3f5f75f4d93	1.2900294936160648
6	0xbff8faa52d4b2156	-1.561192681243559
7	0xbfef587f7922adce	-0.9795529714514772
8	0x3fc298052566e2f8	0.145264285338065
9	0x3f79f2f95b673284	0.006335233736945004
10	0xbff3568010620406	-1.2086182250934612
11	0xbfb313c187be81bf	-0.07452020229403099
12	0xbfe493461aad3f12	-0.6429777642278813
13	0xbfda12ba536a7e09	-0.4073930563554034
14	0x3f63f79b419a2f4f	0.002437403902893743
15	0x3f9cb277f24a6dd9	0.028024553454640475
16	0xbfc274b24c9e02d1	-0.1441862939937182
17	0x3f80bc3a823ef899	0.008171517467300314
18	0x3fc56f79274f1d0d	0.16746439380060743
19	0xbff95ed830455297	-1.585655392225055
20	0x3f517617e0b18da4	0.0010657532864336372
21	0x3fe5d0e7bf6e2211	0.681751130950092
22	0xbff1eb273cfec869	-1.1199104673983362
23	0x3f87aad880c70ff8	0.011556331090908131

q_params_5 f8 [2, 4, 3]
0	0xbfef3509f8552b48	-0.9752244806526074
1	0xbfef585394e1c86d	-0.9795320422983999
2	0x3ff53706c086b174	1.3259341736366794
3	0x3fd6850604adb514	0.3518691106499585
4	0x3ffc93b170e3644d	1.7860578927705035
5	0xbfde328e0cc5cc67	-0.4718356251461899
6	0xbfc69c2bc6d7a94a	-0.17664096078017116
7	0x3f9319283a6bddcf	0.0186506543786587
8	0xbf7f0124cd7968d6	-0.007569450149811105
9	0xbfe0c0222c4010e5	-0.5234537948859069
10	0x3fe2ff666c20769a	0.5936767684795143
11	0x3fd95c8cde9ef2dd	0.39627382030793773
12	0xbff0f6462193ce8a	-1.0601254760376002
13	0xbfd733b4b1b8f442	-0.3625308738299432
14	0x3f707612002a78cc	0.004018850626975556
15	0x3fe52ba697205ac1	0.6615784599005893
16	0xbfdfe0069b280802	-0.4980484500121066
17	0x3f981208dfd56383	0.02350629678889816
18	0xbff7d6b3d619a8bb	-1.4899175990381497
19	0x3ff4738989949327	1.2782073377831666
20	0xbf8afa63a0447969	-0.013172891930079715
21	0x3f3707f3c0000000	0.00035142613342031837
22	0xbf76120280000000	-0.005388269200921059
23	0x3f9cbd2a80000000	0.028065361082553864

q_params_6 f8 [2, 4, 3]
0	0xbfd1ef715a2e60d1	-0.28023942763094306
1	0xbfe06d22ceb1522e	-0.5133222615209598
2	0xbf99548ac343e3c8	-0.024736564796487476
3	0x3fa8468aad600a00	0.04741319052120119
4	0x3fe899b75c8680cb	0.7687641913544437
5	0xbfd28da56c5e665e	-0.28989539702306455
6	0xbfcfb888fe795b3e	-0.24781906533709191
7	0x3fd0867438b8ef08	0.2582064203195249
8	0xbfd098a6d29df9b8	-0.2593171173865829
9	0xbff0dba8ff7227fe	-1.053627965770374
10	0x3fc5e0a193aa15ec	0.17091769895721087
11	0xbfd6a8e29a5df35f	-0.354057932614344
12	0xbfbbdd69a010651a	-0.108847238138328
13	0x3fa03620e15d0a7d	0.03166296721476145
14	0x3f855286fb11e9fb	0.010411314522788642
15	0x3ff33fd861110b15	1.2030872146285152
16	0xbfe11f3598581eca	-0.5350597358201068
17	0x3f6fec6f6ba72bc2	0.0038969207937262504
18	0x3fbc827ee68252dc	0.11136620643294343
19	0xbfb2655ce608730f	-0.0718591748813646
20	0x3f74458e9d7290d0	0.004949147310217408
21	0xbfe6aa48a42ed85e	-0.7082865912150387
22	0x3fb9275b75d7c0bb	0.09825679423352345
23	0xbf5a931080a6e13d	-0.001621976962821916

classical_nn_linear.weight f8 [1, 4]
0	0x3feb61fa0d255d02	0.8557100540882916
1	0x3ff661866eb5c212	1.3988098454102595
2	0x3fa14863b182a328	0.033755412501085325
3	0xbffe969666063daf	-1.9117645249678892

classical_nn_linear.bias f8 [1]
0	0xbfd73272dd95357a	-0.36245414389562536
