VQ_LSTM_BASE_CLASS_TS_MODEL__DATALOADER_BESSEL_4_QUBIT_2_QuLAYERS_old/VQ_LSTM_BASE_CLASS_TS_MODEL__DATALOADER_BESSEL_4_QUBIT_2_QuLAYERS_NO_2_Epoch_13_torch_model.pth (torch, 3471 bytes, 8 tensors)

q_params_1 f8 [2, 4, 3]
-1.596831380047706 -0.5516448633017661 1.6036493497367852 1.3800575796073822 0.33608886987539305 -1.377155902568429 -1.7136231357979785 -1.5646408538064953
-1.1502786419839375 -0.06793786387290035 -0.08977198722440059 0.07594372630475181 -0.34566350509759397 -1.2553050104059873 -0.0033524201832515897 0.040760575777996855
-1.5473927067080664 -0.0035894271039215242 -0.01315833687739084 -1.5928489146479727 -0.010166407570774302 -0.01479300492726381 -1.6226587645433475 0.01341489982368275
00000000: cc80 a80f 9f8c f9bf 3466 dc20 13a7 e1bf
00000010: 44f0 7538 8ca8 f93f 832b b041 b714 f63f
00000020: bd85 2ae4 7a82 d53f 7065 b0a0 d408 f6bf
00000030: 95bd de17 006b fbbf c359 11d9 c408 f9bf
00000040: 9dbb c993 8a67 f2bf 5884 7e37 6064 b1bf
00000050: 77c9 3905 4cfb b6bf 73b6 d04c 0c71 b33f
00000060: 3f27 74d2 591f d6bf b12d e3b4 ba15 f4bf
00000070: 61a2 95e1 8876 6bbf 3081 ddf7 91de a43f
00000080: bf14 d6da 1ec2 f8bf 121d ba00 9367 6dbf
00000090: 6c14 7714 c2f2 8abf 3d1d be24 4f7c f9bf
000000a0: de35 4620 20d2 84bf 9a31 fa82 cb4b 8ebf
000000b0: c980 6409 69f6 f9bf 15b7 2c60 4579 8b3f

q_params_2 f8 [2, 4, 3]
1.5507688677739666 0.7510298544085696 -1.551406081204351 0.06491425282094274 0.06007907425195724 -0.08199115188542794 -1.0372719201982403 -0.8854521859696015
0.094185656209564 0.2923125984606277 -0.6460234524449079 0.2072320748940853 -1.1169187201707227 -0.5846716352407659 -0.01373248176443249 -0.6052881708332721
-0.946336448667785 -0.005951783146927029 -0.007267705511794342 -1.5868239705667577 0.005605214746373307 0.563054005167139 -1.2600448976871588 -0.015925772470454718
00000000: fae7 2b04 f3cf f83f 7024 e0c2 6f08 e83f
00000010: 4d69 d92e 8fd2 f8bf 7e04 e970 389e b03f
00000020: e016 2c36 afc2 ae3f b0c6 e843 5ffd b4bf
00000030: 12f8 e470 aa98 f0bf 2128 9dd2 9f55 ecbf
00000040: e120 2c19 8d1c b83f 2138 a6e6 3fb5 d23f
00000050: 8165 1660 39ac e4bf ca18 2da4 9486 ca3f
00000060: 5ec6 f629 e6de f1bf f840 084a a1b5 e2bf
00000070: 26b9 9180 c61f 8cbf 5b4e 4c4c 855e e3bf
00000080: 364f 4160 6348 eebf 91c2 809f e560 78bf
00000090: 8083 d7d7 bdc4 7dbf 4d7d 2188 a163 f9bf
000000a0: 6f1a 5d60 7ef5 763f c163 42d5 8904 e23f
000000b0: 9fed b0d6 2429 f4bf cb51 b27f d84e 90bf

q_params_3 f8 [2, 4, 3]
0.0356191237710173 0.003735620251861787 0.1564520702470188 -0.04417847419894644 0.031189250205382248 -0.07378063694004502 0.3077277746007453 0.13151912058991255
0.3734844583237039 -0.10752533705238285 1.1976207329849593 0.22887909253059435 -0.4764320392938916 0.408475269180451 0.00954722047310403 -0.7350536719202648
-0.1274720677261529 0.0109828803226364 0.12925446536071158 -1.408520127367104 0.007253915914572241 -0.8539325666783153 0.03951626231487089 -0.01121599501451109
00000000: 23da 6a77 ab3c a23f d814 fcd9 299a 6e3f
00000010: c41c 8d16 9f06 c43f 8849 be9b 8f9e a6bf
00000020: 2abb 7926 13f0 9f3f 8a4c bcae 49e3 b2bf
00000030: b2c9 fed5 cfb1 d33f ccbd dd58 9ed5 c03f
00000040: 2222 845b 2be7 d73f e6a0 21ce c786 bbbf
00000050: 43e9 925b 7429 f33f 901a 94fc e84b cd3f
00000060: 9f2a e2ce dc7d debf 99b5 9674 7524 da3f
00000070: a4f3 983d 7e8d 833f d778 3647 8f85 e7bf
00000080: 07c7 0435 0151 c0bf 06b0 693e 317e 863f
00000090: 4b09 cb0a 698b c03f 9dca ac66 4c89 f6bf
000000a0: 75b4 ef39 48b6 7d3f 30ed db63 6a53 ebbf
000000b0: eae4 9abc 793b a43f be42 3c5e 69f8 86bf

q_params_4 f8 [2, 4, 3]
-0.7429199871383502 -0.13729146549308993 0.5831052604095409 -1.3134330467337334 -0.4130468380939807 1.3159050516986524 -1.522804209114584 -0.99790537740976
0.1751323397344431 0.016450564141542723 -1.1691011723818785 -0.07909663471106272 -0.6550434505706921 -0.44493685042130154 0.0024374039003264543 0.08009895782813391
-0.18382357960506251 0.008171517471673627 0.15309727209972077 -1.537002905221868 0.001065753274883148 0.6904329659035661 -1.1659541714522739 0.011556331083686358
00000000: ffb9 0923 00c6 e7bf a907 2849 c492 c1bf
00000010: 91b4 f25c cca8 e23f f94f d35e d203 f5bf
00000020: 541c 5501 5c6f dabf 8cfd 9a74 f20d f53f
00000030: 87bb 45f2 675d f8bf 5347 0f42 d7ee efbf
00000040: 88d1 d08b bc6a c63f 9067 f4ab 6ad8 903f
00000050: de86 516e a3b4 f2bf a5c3 4e53 ad3f b4bf
00000060: aa1f b5ae 1df6 e4bf 1f10 5669 d879 dcbf
00000070: 3adb 3f41 9bf7 633f cfc5 5084 5d81 b43f
00000080: 3296 51f3 8787 c7bf 6c70 6582 3abc 803f
00000090: ef36 6300 b198 c33f ff8e bc5b 9097 f8bf
000000a0: 86c2 84dd 1776 513f ed5a 14e0 0618 e63f
000000b0: 505b b08f bfa7 f2bf fb89 8780 d8aa 873f

q_params_5 f8 [2, 4, 3]
-0.9491335475841222 -1.016094212008038 1.2667867675178335 0.3393415101631913 1.6811847933115494 -0.4966440329128448 -0.10717436462490278 0.024026200108491158
0.0348200639828102 -0.5531273954732269 0.6085751548467866 0.3568846732579667 -0.991879737881905 -0.15883469888908608 0.004018850623327376 0.6340885410745877
-0.5082718124815376 0.023506296791579565 -1.432998832007431 1.1921701646494016 -0.013172891925538789 0.00035142613342031837 -0.005388269200921059 0.028065361082553864
00000000: e320 4d51 4d5f eebf aeab 2301 ec41 f0bf
00000010: 16ea 9733 c244 f43f c7df 1474 c5b7 d53f
00000020: d6e3 9c06 22e6 fa3f 514f c70d 04c9 dfbf
00000030: dd95 0877 c76f bbbf 703c dafe 529a 983f
00000040: 1b02 1a78 efd3 a13f 8b88 4239 38b3 e1bf
00000050: e433 679a 7279 e33f 108b 05d0 32d7 d63f
00000060: 1992 7893 7abd efbf c86c 9906 b254 c4bf
00000070: db4a eaff 1176 703f ede0 550d 744a e43f
00000080: 77c7 823f c343 e0bf 812e e1df 0812 983f
00000090: 8ed9 ea2e 90ed f6bf 54fa c605 2113 f33f
000000a0: 2788 1ca0 63fa 8abf 0000 00c0 f307 373f
000000b0: 0000 0080 0212 76bf 0000 0080 2abd 9c3f

q_params_6 f8 [2, 4, 3]
-0.30093123713138775 -0.5344921401599801 -0.049725319012172 0.031310116646171164 0.7961335467010513 -0.23759449997714233 -0.18635993358118175 0.2915030841231945
-0.2882420607517408 -1.0463788944024741 0.1364661404168531 -0.3534388792687738 -0.18090454575541892 0.0503064921171934 0.010411314679728717 1.1784175482513857
-0.5146422975214534 0.003896920906389414 0.08752241521175029 -0.08154727668826377 0.004949147366815865 -0.6416401108514524 0.12235575576514215 -0.0016219770007314996
00000000: 91be 7417 7542 d3bf e398 be42 8f1a e1bf
00000010: 1c82 e1d5 9875 a9bf e7f9 0e2e e107 a03f
00000020: 4c8b 4a0f ed79 e93f 0c3f 8e1f 7f69 cebf
00000030: 4409 026e a4da c7bf 2481 3f8d fca7 d23f
00000040: efa9 10d4 8e72 d2bf a6ee aacb f7bd f0bf
00000050: 6b05 0df5 b877 c13f 9e08 e61a be9e d6bf
00000060: 2ccf db51 e127 c7bf a0f3 d6c4 c5c1 a93f
00000070: 9d5f 7600 8752 853f f25a ec5b ccda f23f
00000080: 33c6 9f1f f377 e0bf 5227 237b 6fec 6f3f
00000090: c75b 0077 de67 b63f 7736 7446 48e0 b4bf
000000a0: 9a41 56a1 8e45 743f ea14 7dd7 5088 e4bf
000000b0: 1a18 7df1 b452 bf3f 9687 128b 1093 5abf

classical_nn_linear.weight f8 [1, 4]
0.8377646660423954 1.3970931033767833 0.08761342065536463 -1.875499837597123
00000000: b8af 4cd8 f7ce ea3f e386 474c 7e5a f63f
00000010: abcd 6748 d56d b63f 9520 221e 0c02 febf

classical_nn_linear.bias f8 [1]
-0.339989668625428
00000000: 8057 ee06 64c2 d5bf
