VQ_LSTM_BASE_CLASS_TS_MODEL__DATALOADER_BESSEL_4_QUBIT_2_QuLAYERS_old/VQ_LSTM_BASE_CLASS_TS_MODEL__DATALOADER_BESSEL_4_QUBIT_2_QuLAYERS_NO_2_Epoch_38_torch_model.pth (torch, 3471 bytes, 8 tensors)

q_params_1 f8 [2, 4, 3]
0	0xbff8f1b3f107b01a	-1.5590094962344723
1	0xbfe9db4897f8138e	-0.8080180137773014
2	0x3ff8aaabcfc8911c	1.5416677586118288
3	0x3ff93f4cd177967d	1.5779541189489514
4	0x3fe2299ff156c692	0.5675811494495113
5	0xbff92a881435bb13	-1.5728836812447227
6	0xbffb09be9eb97d93	-1.6898790550402267
7	0xbffbc524b6cfa046	-1.7356307164245819
8	0xbff649685c9dc0f0	-1.3929217927762316
9	0xbfb3d6d96beee48b	-0.07749709019744182
10	0x3fb0f3d73bc7165a	0.06622071465889104
11	0x3fb387aa1349b7ea	0.07628882380387805
12	0x3fb3bb7f84ea8dc8	0.0770797442915444
13	0xbff479f07d44228d	-1.279770364113719
14	0xbf6b7688decf7a22	-0.003352420163067708
15	0xbf631638749e3e99	-0.0023299315116174888
16	0xbff402fd0561b4d9	-1.250729580900318
17	0xbf6d67930066dd5d	-0.0035894271015554494
18	0x3efacf72a842f7b0	2.5568335801244297e-05
19	0xbff9544ada5fef41	-1.583079197908731
20	0xbf84d2202093e250	-0.01016640757960477
21	0x3f8fff192639b793	0.015623280028389341
22	0xbff9829caba513e7	-1.5943876938701977
23	0x3f8b79456008827c	0.013414899819566665

q_params_2 f8 [2, 4, 3]
0	0x3ff8ac3301635b36	1.5420408300612514
1	0x3fe3f58a438ab530	0.6237231558967888
2	0xbff8c54ef2d7a151	-1.5481709943797635
3	0x3f863039977b0cc8	0.01083416932613658
4	0x3f9328ccfb50a648	0.018710329855969016
5	0x3fa26a0cbcdeaf70	0.03596534543552721
6	0xbfe72b7395ba2644	-0.7240541385992363
7	0xbfe516566501cfa9	-0.6589767430109436
8	0x3fe97b26e96ef086	0.7962832030530229
9	0x3f92dd6917f6cd10	0.018422739112520736
10	0xbfc0ab92fb0f150a	-0.13023602732406686
11	0xbf9bede6c4948dee	-0.027274709461506612
12	0xbfe229e9ed588a40	-0.5676164279614753
13	0xbfe2da838e6ea9c5	-0.5891740590935163
14	0xbf8c1fc67fd7a1e1	-0.013732481743276405
15	0x3fa2180f7fc8840d	0.03533981737951573
16	0xbff60c9de3a16d65	-1.3780802623576502
17	0xbf7860e59fb4c685	-0.005951783149883765
18	0xbf74ff1ebf0e1c81	-0.005126113989610493
19	0xbff954e68d1b0cd1	-1.5832276832523358
20	0x3f76f57e61eec8c9	0.0056052147692062316
21	0x3fe46abd319c45e9	0.6380296677545491
22	0xbff981b7a4deae79	-1.594169277212954
23	0xbf904ed87fca77b6	-0.015925772475945364

q_params_3 f8 [2, 4, 3]
0	0x3fd2b03bf5a09a4c	0.2920064829544671
1	0xbf9b44c3b21331fd	-0.02662950300582344
2	0x3ff109dcc414ea7d	1.0649078044358753
3	0x3f90466b87ea1c78	0.01589363114410644
4	0x3fa6e8ba570472ff	0.044744322893370374
5	0x3fb340e31ab60b63	0.07520884897352924
6	0x3fe998ac75424194	0.7998869219027704
7	0x3fa3da19471a53dc	0.03877333634333244
8	0x3fe6f8c872e3159b	0.7178690189254441
9	0x3fb92cac1aaafae4	0.09833789492675354
10	0x3ff771431a7a71f3	1.465151885443558
11	0x3fd3e6495e6d4c58	0.31093057843572103
12	0xbfd50fb697ee3b77	-0.32908406102153925
13	0x3fe958d24e2ad509	0.7920924689011893
14	0x3f838d7e38c0a1b6	0.009547220332095967
15	0xbff3141137d6adab	-1.192399232978327
16	0x3fb3da91ded032de	0.07755386056687594
17	0x3f867e313ce7009f	0.010982880278675387
18	0x3ff6bb593947c6c1	1.420739387275191
19	0xbff97dc9c65229ee	-1.5932100054657172
20	0x3f7db64841b3c2b5	0.007253916027580122
21	0xbfb6b2a627aefc51	-0.0886634680637013
22	0x3fa13cdfc392c401	0.0336675573574965
23	0xbf86f8695c4248b2	-0.011215994956988194

q_params_4 f8 [2, 4, 3]
0	0xbfc52efe32746a36	-0.1654966112481177
1	0xbf74b2606d69f385	-0.005052925748370356
2	0xbf9ad395e96aab85	-0.0261977599827037
3	0xbff82e2e33ef071d	-1.511274531236672
4	0xbfd30a6236e4f213	-0.29750876770757023
5	0x3ff8fbb6d19e1bb0	1.5614536464870348
6	0xbff5dba5004ad2b4	-1.3661241542260258
7	0xbff02bf927e170db	-1.0107356603467028
8	0x3fdd9b4899c88dca	0.46260275857840993
9	0x3fbb9a9d72f42db0	0.10782798820962713
10	0xbff4d7ece2150725	-1.3027161437352757
11	0xbfd00ee25ca00fff	-0.25090846105035775
12	0x3fd2c85d3f491a28	0.2934792631171228
13	0xbfd3dedbc399fa26	-0.3104772005243909
14	0x3f63f79b4315c1a4	0.002437403913681817
15	0xbf9af4698e96f92a	-0.026322984054553057
16	0xbfc151125e337b59	-0.13528661346114282
17	0x3f80bc3a824907ce	0.008171517468443936
18	0x3fca195113b92b6f	0.20389760458996473
19	0xbff966e524643a86	-1.587620870737426
20	0x3f517617ce57252d	0.0010657532196652428
21	0x3ff1465f2e6b2d83	1.0796806157330543
22	0xbff6d688935819a0	-1.4273763423567303
23	0x3f87aad8813d23a4	0.011556331104331914

q_params_5 f8 [2, 4, 3]
0	0xbff2d7b3c5b2d5d5	-1.1776616785622214
1	0xbfebf33c8c5a4aa3	-0.8734419575942706
2	0x3ff510b199b187d8	1.3165756229068304
3	0x3ff0daae0fa3985d	1.0533886538410322
4	0x4001a41a3a722268	2.205128151519876
5	0xbfd6631b2cc10b7e	-0.34979895945087225
6	0xbfc0d0de11fd324b	-0.13137412908908383
7	0x3fc3f2fe4a086ad3	0.1558530675400421
8	0x3fc2813b15fddba0	0.14456881116686038
9	0xbfcc0151b3f24d0a	-0.21879025732469187
10	0x3feca1550be942fb	0.8946938736572457
11	0x3fe3bb1d1ba5cc2c	0.6165910282128428
12	0xbff8f91ad207e84f	-1.5608165935832579
13	0xbfee01148b5d87ad	-0.93763186664386
14	0x3f70761200f68b0a	0.004018850638575664
15	0x3feab5a59eb4d14f	0.8346737003071584
16	0xbfdcc4f1cd9ad1d2	-0.44952054098692174
17	0x3f981208df26d80d	0.023506296749211276
18	0xbff7396a85a84620	-1.4515176030148567
19	0x3fefc3c3a8586f83	0.9926470077511883
20	0xbf8afa63a1301121	-0.013172891956863499
21	0x3f3707f3c0000000	0.00035142613342031837
22	0xbf76120280000000	-0.005388269200921059
23	0x3f9cbd2a80000000	0.028065361082553864

q_params_6 f8 [2, 4, 3]
0	0xbfc82197dfff5f7f	-0.18852518498783508
1	0xbfc58a8bcbdfada5	-0.16829059080860734
2	0x3fbab88bd272acb7	0.10437845123185495
3	0x3fd7285bdbbb69b2	0.36183830698214614
4	0x3fd225dd63eac4ac	0.28356108434224825
5	0xbfdd2c1153209b51	-0.4558146774092409
6	0xbfd7b57afe96cd33	-0.3704516874524472
7	0x3fc72438587e468f	0.18079284974060214
8	0x3f5ce842ab058cf0	0.001764359574814741
9	0xbff5369d4bd055cc	-1.3258336030461235
10	0x3fd11d5f072b3517	0.2674176759727102
11	0xbfce82ce75efdaae	-0.23836689718856036
12	0xbf92f6a6ba3497ca	-0.018519024958685106
13	0x3fafe72956bb2e2d	0.0623104971287741
14	0x3f855286e13ee074	0.010411313771200727
15	0x3ff4999b443751c6	1.2875015892687869
16	0xbfefde6fba644faf	-0.9959028854814188
17	0x3f6fec6f24cffc7f	0.003896920278293303
18	0x3fe70e8ff672acd0	0.7205276311337006
19	0xbfa042cafa4c1463	-0.031759589246612284
20	0x3f74458e9d4590dd	0.004949147307659466
21	0xbff0ed42bc8012bf	-1.0579249728481697
22	0x3fc4a6072929febb	0.16131677160227817
23	0xbf5a9310cda772b7	-0.0016219772429543597

classical_nn_linear.weight f8 [1, 4]
0	0x3ff602250befaa11	1.3755236116654752
1	0x3ffb8eae5105700c	1.7223342099086976
2	0xbf81a3137883e3a2	-0.008611824145633499
3	0xc0026cc93061b6f5	-2.3031181125469353

classical_nn_linear.bias f8 [1]
0	0xbfd1a4f73d8677de	-0.2756937123139077
