VQ_LSTM_BASE_CLASS_TS_MODEL__DATALOADER_BESSEL_4_QUBIT_2_QuLAYERS_old/VQ_LSTM_BASE_CLASS_TS_MODEL__DATALOADER_BESSEL_4_QUBIT_2_QuLAYERS_NO_2_Epoch_83_torch_model.pth (torch, 3471 bytes, 8 tensors)

q_params_1 f8 [2, 4, 3]
000000 cf 4e 7b 00 f9 31 f9 bf 83 a7 50 09 a7 5a ee bf
       -1.5747003573241505 -0.9485659772810638
000010 81 2a 21 6d 70 5c f9 3f 22 f7 05 31 e5 5d f9 3f
       1.5850681555627093 1.585423652169489
000020 81 4f 83 75 03 b8 e6 3f 44 e4 b6 04 83 a9 f8 bf
       0.7099625868963672 -1.5413847145230344
000030 06 df cb d0 75 16 fa bf f4 f3 88 4e 7d da fb bf
       -1.6304834514721178 -1.7408421581051217
000040 a9 e9 ee f2 c0 58 f8 bf d1 be 97 18 c9 04 b0 bf
       -1.52166838546564 -0.06257302141579692
000050 a4 23 9a ee c9 97 80 3f e4 bf 47 ea 8b 62 c0 3f
       0.008102014154489919 0.1280074018427505
000060 3f a6 81 9d c5 77 c5 3f 9e b1 6c de 61 01 f4 bf
       0.1677176493715695 -1.2503374756298409
000070 09 7b 40 df 88 76 6b bf 1c 70 eb 01 56 3f 78 3f
       -0.003352420166279461 0.005919776884834273
000080 eb 09 6c 44 0b 26 f9 bf 1b 26 9e 00 93 67 6d bf
       -1.5717880890593914 -0.0035894271031267195
000090 fe 63 88 b8 7b ba 4c bf 0e dc 47 06 59 64 f9 bf
       -0.0008767227273579479 -1.5869989629115966
0000a0 ae e1 a6 20 20 d2 84 bf 11 59 05 8e 8a d2 77 bf
       -0.010166407581764538 -0.0058160221381824565
0000b0 ae f4 2e fc 7e d3 f8 bf 36 6a 8c 5f 45 79 8b 3f
       -1.551634774295319 0.013414899805458718

q_params_2 f8 [2, 4, 3]
000000 1c a4 c6 43 09 3b f9 3f ce b9 b8 4a 5b df da 3f
       1.5769131324289054 0.4198826055243473
000010 0e d3 e8 17 79 28 f9 bf a4 49 4a fe 35 fa 91 bf
       -1.5723811086620034 -0.017556041379586454
000020 81 80 34 a2 ac 2b 5d bf 5a e4 a0 19 39 36 91 3f
       -0.0017804323077328656 0.016808407010305927
000030 89 c5 73 17 f5 30 f4 bf 07 eb af dd dc 41 c8 bf
       -1.2619524875738952 -0.18950997185296378
000040 65 29 cf e8 db 2c f2 3f 01 dc 77 98 2c f1 a3 3f
       1.1359519094572417 0.038949388133850966
000050 c7 dc fc fd be e3 80 3f 3f de 11 c2 d4 90 90 bf
       0.008246891141978087 -0.01617748674877206
000060 a7 c5 3d d5 66 87 b4 bf 08 c8 c7 42 bf 37 f3 bf
       -0.08019106584631307 -1.2011101349457949
000070 0d 24 37 80 c6 1f 8c bf c4 4e b5 2c ef ba aa 3f
       -0.013732481754134463 0.052207445342586506
000080 f4 c6 56 9f 7f 90 f8 bf 27 7d 28 a0 e5 60 78 bf
       -1.535277960222115 -0.0059517831564613105
000090 b0 c4 24 11 c0 b3 65 bf c3 a9 7b 1a d3 81 f9 bf
       -0.0026491881664233094 -1.5941954645628449
0000a0 78 47 b6 65 7e f5 76 3f b2 2f f1 a7 c8 b0 d8 3f
       0.005605214824201947 0.38579002762412096
0000b0 2c fc 77 d1 a6 73 f2 bf be 6f b7 7f d8 4e 90 bf
       -1.153235262143208 -0.015925772471618187

q_params_3 f8 [2, 4, 3]
000000 c0 86 5f 29 ed 99 8e 3f b2 b5 29 16 fe 65 93 3f
       0.014942028832538923 0.0189437581088236
000010 a6 b4 4e da 43 7d f9 3f 44 c9 2f e0 83 9a 96 3f
       1.5930822875628023 0.02207380348040401
000020 7e 90 79 02 a3 be 8b bf 0c c2 cc e7 64 a5 8b 3f
       -0.01354720450689961 0.01349905807873688
000030 a9 ff 94 ef 41 1a e0 3f 66 62 c7 82 68 11 b3 3f
       0.5032052687965819 0.07448437874644184
000040 fd ce 0c 7a 33 63 f0 3f 20 9e 52 5e 77 71 95 3f
       1.024219013936942 0.020940652019502903
000050 29 7a 3a 68 52 97 f9 3f 4e a6 a9 2c 6b 63 d2 3f
       1.5994438239500914 0.2873180328520889
000060 22 91 ba 39 0a 85 d0 bf 63 91 5c 18 40 06 ed 3f
       -0.2581201137311543 0.9070129848301288
000070 02 ec d2 2d 7e 8d 83 3f 4e 97 47 6e cc 71 f9 bf
       0.00954722001403319 -1.5902828510092664
000080 52 2d 6a a3 e1 a5 93 3f 95 ae 4a 3b 31 7e 86 3f
       0.019187474822087332 0.010982880231799977
000090 41 28 b9 58 58 c0 f9 3f ec 22 22 10 28 e6 f8 bf
       1.6094592538597825 -1.5561905508240512
0000a0 1a d2 2b 30 48 b6 7d 3f 46 f1 df aa 84 eb 9c bf
       0.007253915772470277 -0.02824218075692044
0000b0 14 f3 64 72 9f bf 87 bf 0a b0 d4 5a 69 f8 86 bf
       -0.011595960310495403 -0.011215994915424705

q_params_4 f8 [2, 4, 3]
000000 5f 80 7b fb 6b b0 a8 bf 41 90 45 22 7f b9 8c bf
       -0.04822099156240322 -0.01402568171824481
000010 9a bf 2e 2c bd cf c0 3f 2e d0 60 bf 1c 0a fa bf
       0.13133968980173166 -1.6274688220701239
000020 89 74 28 2d 6a f5 d1 bf 7f 3c f4 76 58 3b f9 3f
       -0.28060392770732584 1.576988663353205
000030 c1 a3 81 e7 fe 28 f7 bf 63 47 11 64 e1 a7 ef bf
       -1.4475087207049315 -0.9892432169383308
000040 45 02 4b 91 af f6 f3 3f 60 fd b4 ae 29 c6 3e 3f
       1.247726028013987 0.000469575096492
000050 2f 4b 48 43 69 1d f0 bf b5 c2 b9 a9 cd de 97 bf
       -1.0071804645746842 -0.023310864910345248
000060 bd b2 43 a5 b7 df a6 3f 02 c3 65 72 36 f0 e0 bf
       0.044675578044779375 -0.5293228372885042
000070 32 6f 4c 51 9b f7 63 3f 40 96 d1 ef cb b1 a6 3f
       0.0024374040170992645 0.04432523062204696
000080 72 77 76 85 d7 ae d1 bf 53 17 74 81 3a bc 80 3f
       -0.2762965014788882 0.008171517444235532
000090 45 15 a7 ff 2e 11 c0 bf b4 ec 4c 7e 9f 5e f9 bf
       -0.12552440150299496 -1.5856013234722868
0000a0 58 7a a3 db 17 76 51 3f db 98 e6 5f 35 bd a3 bf
       0.00106575326804372 -0.03855292125381179
0000b0 b5 ee e1 1b be 21 f2 bf ea 6c 4a 80 d8 aa 87 3f
       -1.133237942615705 0.011556331076738553

q_params_5 f8 [2, 4, 3]
000000 8c 1d ae c3 29 56 f7 bf be c2 b9 c9 5e 90 e1 bf
       -1.4585359233622937 -0.5488733234361332
000010 84 97 98 f9 75 c1 f6 3f 80 d8 f4 5e bf ac f4 3f
       1.4222316503378076 1.2921746930346956
000020 d2 35 5c 1e 26 5c 04 40 82 60 b4 1e ac a3 cc bf
       2.544994580449136 -0.22374488353012018
000030 7a ff 6a 58 c5 21 a2 bf e5 44 32 87 26 2e c9 3f
       -0.035413901370246983 0.1967209015024657
000040 81 f8 50 5c af 42 a5 3f 1f 16 bb c4 d2 86 c7 bf
       0.041524391192511174 -0.18380198102947617
000050 f6 06 de cf 10 d9 f3 3f 43 d1 2e 9d 48 4a d7 3f
       1.2404945487800751 0.36390891408816034
000060 6d e8 3c 6e 4d 71 f8 bf 23 2d e0 a6 02 40 e5 bf
       -1.527661734215623 -0.6640637645045085
000070 fc 18 8f fe 11 76 70 3f a7 48 27 a1 c9 76 f1 3f
       0.004018850603591636 1.0915008826309902
000080 34 3c ba dd d1 fa e2 bf 9c 3c da df 08 12 98 3f
       -0.5931176500906816 0.023506296790000478
000090 0d 19 d2 59 28 e4 fb bf 85 f2 81 1a 8d 7a f6 3f
       -1.743202544080819 1.4049197230771437
0000a0 e9 41 e6 a3 63 fa 8a bf 00 00 00 c0 f3 07 37 3f
       -0.013172892035783828 0.00035142613342031837
0000b0 00 00 00 80 02 12 76 bf 00 00 00 80 2a bd 9c 3f
       -0.005388269200921059 0.028065361082553864

q_params_6 f8 [2, 4, 3]
000000 2f a3 5d cd ce 23 cc bf a3 77 e9 72 d2 c1 7d 3f
       -0.21984276797891186 0.007264921251218501
000010 94 d7 d4 ae 80 f0 c7 3f 0a c6 2e 5c fe 42 e5 3f
       0.18702705895128402 0.66442792896686
000020 e9 10 b5 90 41 03 c7 3f 91 92 cd 21 b0 cf bf bf
       0.1797868687227784 -0.12426281762379633
000030 20 30 b0 1d 29 6a dc bf b8 7b c8 a4 09 a2 b0 3f
       -0.443979529373566 0.06497249863649202
000040 1d 27 e5 ff eb e6 c8 3f f2 37 83 ee f8 da f7 bf
       0.1945471763122492 -1.4909600560090408
000050 f7 29 7e 42 04 50 d8 3f e4 d3 e9 cb c2 89 b2 bf
       0.379883828100588 -0.07241456487993464
000060 4d 11 2a e9 30 53 b0 3f a9 ab 41 c3 95 fc 91 bf
       0.06376939480293693 -0.017565097849381015
000070 f4 35 69 ea 86 52 85 3f 9d 88 e8 36 64 f2 f6 3f
       0.010411314037948018 1.4341776032311266
000080 6e 07 20 5a 58 9c f6 bf db 01 e5 e6 6e ec 6f 3f
       -1.4131701965820542 0.0038969198277813816
000090 3d fd fc ac 86 6f fe 3f 7f 34 6a fb 09 90 93 bf
       1.9022280461648073 -0.01910415265097187
0000a0 1a 62 65 90 8e 45 74 3f 06 c0 df 20 8c 26 f9 bf
       0.004949147120293174 -1.5719109806195788
0000b0 af a6 9a fd 36 a3 82 3f ac 84 85 7a 11 93 5a bf
       0.009100370039351572 -0.001621977871842521

classical_nn_linear.weight f8 [1, 4]
000000 60 57 72 b9 37 e1 ff 3f 7b af 4c 00 0c db 01 40
       1.9924847835549926 2.2319564841654347
000010 24 25 81 c8 28 e5 7b 3f a8 81 a9 75 df 77 05 c0
       0.006810340222793063 -2.6835316841463346

classical_nn_linear.bias f8 [1]
000000 e4 e7 a6 48 85 52 a4 bf
       -0.039692082518243216
