VQ_LSTM_BASE_CLASS_TS_MODEL__DATALOADER_BESSEL_4_QUBIT_2_QuLAYERS_old/VQ_LSTM_BASE_CLASS_TS_MODEL__DATALOADER_BESSEL_4_QUBIT_2_QuLAYERS_NO_2_Epoch_27_torch_model.pth (torch, 3471 bytes, 8 tensors)

q_params_1 f8 [2, 4, 3]
000000 48 7d f7 31 35 3b f9 bf 11 fe 16 38 6e f7 e8 bf
       -1.5769550277544386 -0.7802039237503228
000010 cf 2c a2 a6 18 10 f9 3f ba d4 d0 47 3d fd f8 3f
       1.5664297589417406 1.5618260197928024
000020 78 9e 26 31 55 cf e1 3f 66 8b 95 ae f2 0b f9 bf
       0.5565591773965499 -1.5654169864362415
000030 0c 54 82 0c 40 d6 fa bf 99 72 88 2c 4a ea fb bf
       -1.67730717550626 -1.7446996440477618
000040 b7 ac 45 f6 ea 01 f7 bf 6c 6c 90 01 25 43 b4 bf
       -1.4379682178503523 -0.07914954460322726
000050 46 27 1e 99 0e 2f 80 3f 92 6b a9 4c 4c df b1 3f
       0.00790225415018465 0.06981350776315612
000060 1c c3 e9 19 45 a2 ac 3f 0b 33 87 5a e3 fb f4 bf
       0.05592552129099301 -1.311496118188361
000070 ec 06 96 df 88 76 6b bf 88 c5 d3 69 98 b9 72 bf
       -0.003352420168710837 -0.004571528782649444
000080 43 79 75 41 25 1f f9 bf 68 b8 cb 01 93 67 6d bf
       -1.5701038891780434 -0.0035894271116978967
000090 f8 22 53 23 b9 3f 71 3f 00 35 28 7b 2a 8f f9 bf
       0.004211161799681611 -1.597452622492085
0000a0 51 fd 97 20 20 d2 84 bf 89 d8 67 97 da 60 75 bf
       -0.010166407580071509 -0.005219320175902217
0000b0 bb f3 96 e0 0f 54 f9 bf 32 85 a0 5f 45 79 8b 3f
       -1.5830229542764147 0.013414899807744438

q_params_2 f8 [2, 4, 3]
000000 4a 3b f3 a1 4e 28 f8 3f 6f f4 9f f0 45 a4 e6 3f
       1.5098406149079033 0.7075528812125763
000010 58 7e 86 fd 0b a0 f7 bf 1a 54 48 60 ea a5 a0 3f
       -1.4765739348730644 0.03251583504985707
000020 00 c6 fc 5f 74 64 18 3f 40 39 b9 ce 37 c3 36 bf
       9.304962440805781e-05 -0.00034732925880555723
000030 a9 d6 c1 f3 21 b1 eb bf 92 a0 c6 22 15 2a e9 bf
       -0.8653726349718528 -0.7863870314804606
000040 d3 08 eb 81 b9 ca da 3f df 54 b8 e3 1d 40 c5 3f
       0.41862332999529633 0.1660191881098063
000050 b1 75 8c bd 58 6f e1 bf 7c 3f e9 fd 89 00 c0 3f
       -0.5448421194193341 0.12501644990924976
000060 12 2b a2 e2 de 33 ed bf ac ae 9a 8b e9 1d db bf
       -0.9125818659243541 -0.4237007010767495
000070 64 5f 0f 80 c6 1f 8c bf 8a e3 48 10 49 6d d5 bf
       -0.013732481749613341 -0.3347952517538536
000080 75 60 23 c6 22 b4 f1 bf 84 f9 c5 a0 e5 60 78 bf
       -1.1064784755490369 -0.005951783165413341
000090 e8 5a d5 50 12 e6 ac bf 46 8c 9b ac 66 9e f9 bf
       -0.05644280659423889 -1.6011721365437253
0000a0 b9 47 12 61 7e f5 76 3f 6e e3 d2 e1 14 bd e6 3f
       0.005605214756672022 0.7105812464352377
0000b0 13 c2 34 38 a0 72 f8 bf 1a 90 dc 7f d8 4e 90 bf
       -1.5279848285246131 -0.015925772480059754

q_params_3 f8 [2, 4, 3]
000000 44 58 d8 69 0e bc c8 3f ca 6e 0e 8f 5e e5 ac bf
       0.19323902290551775 -0.05643744941991498
000010 92 82 35 cb e6 ea e7 3f 1c 18 73 c8 c9 af b9 bf
       0.7474245041776888 -0.10033856529034363
000020 1d c6 21 d4 2c 3e b4 3f 50 59 6c a1 96 59 cd bf
       0.07907371691705874 -0.22929652101511033
000030 62 10 d8 41 87 20 e2 3f e3 e9 7a 38 be d5 b0 3f
       0.5664707456603646 0.06576146010312515
000040 5d 44 0a 5d 19 c4 e2 3f 46 41 b7 36 27 6f 98 bf
       0.5864378754796565 -0.02386151572665198
000050 d4 5a c7 69 1d b8 f4 3f 01 47 29 c9 bb 7b c2 3f
       1.2949499256116512 0.14440104791952282
000060 37 6b 13 2d 5b 77 e6 bf cc 2b 3a b0 2d d1 e5 3f
       -0.7020698433292186 0.6817844812334157
000070 5f e5 d2 39 7e 8d 83 3f a5 ca 88 a9 13 f1 f0 bf
       0.009547220363276208 -1.0588566420016516
000080 7f 6d 93 97 7a 22 ca bf 2b a8 69 36 31 7e 86 3f
       -0.20417721177259904 0.010982880089802268
000090 f0 dc 06 72 b1 ac e6 3f 16 5a 37 15 a2 37 fa bf
       0.7085807063184841 -1.6385823086508302
0000a0 e1 86 2e 3e 48 b6 7d 3f e0 0f 24 b2 b8 de d9 bf
       0.007253915976350917 -0.4042188396126658
0000b0 0e ae a5 2c 92 1a b8 3f 0f 52 e7 5d 69 f8 86 bf
       0.09415544118899552 -0.01121599500485451

q_params_4 f8 [2, 4, 3]
000000 e2 d9 08 76 f0 2c dc bf 22 32 70 b0 bb 92 99 3f
       -0.4402428772622483 0.0249738050879832
000010 51 d2 21 e0 3a 2e bb 3f b4 51 c8 f1 13 54 f7 bf
       0.10617416355109667 -1.458026833022001
000020 83 1f 84 d9 4a 40 d7 bf 28 0f 03 dd 6b 36 f7 3f
       -0.3632990955525132 1.4507864602355287
000030 41 6d 0c 43 90 04 f9 bf 31 99 3c 57 18 54 f0 bf
       -1.5636141413768458 -1.0205310256656726
000040 c3 03 06 3f fd 16 d5 3f 9e ab 9c f9 e0 ef a2 3f
       0.3295281520332162 0.03698638007184417
000050 4c e6 e9 b1 61 f4 f6 bf d9 a6 c7 bc b4 f8 c2 bf
       -1.4346634816887613 -0.14821490495460557
000060 bc 63 49 3c e5 07 ca bf 03 92 76 5e ad 37 d2 bf
       -0.20336595004735425 -0.28464826798361303
000070 4b a8 d7 43 9b f7 63 3f ce eb e9 69 68 33 dd bf
       0.0024374039191928146 -0.45626268714084695
000080 6c d5 32 09 06 ce b6 bf 11 d8 e6 81 3a bc 80 3f
       -0.08908117031645241 0.008171517457281426
000090 d4 cd 9a 79 3a 48 d8 3f 08 9b 6a 6b 8a 49 f9 bf
       0.37940847278079315 -1.5804542728380415
0000a0 28 e2 c8 dd 17 76 51 3f 02 fa 4d 5a d9 5e ec 3f
       0.001065753275851242 0.8865782512437479
0000b0 94 42 fe 62 43 b7 f3 bf 40 ec 51 81 d8 aa 87 3f
       -1.2322419993326195 0.01155633110669474

q_params_5 f8 [2, 4, 3]
000000 23 c1 75 53 29 0e f0 bf 74 72 46 64 63 b6 ee bf
       -1.00345738030962 -0.959764190530747
000010 12 48 1a 85 eb 6b f6 3f 7a 9a 3b 4f d2 e2 df 3f
       1.4013476561854117 0.4982190870054307
000020 86 c6 6a bb 18 11 ff 3f 38 68 72 b1 f6 73 de bf
       1.9416739769916673 -0.4758278591995153
000030 82 e1 93 67 76 bd bb bf 0e 69 d0 63 06 46 a3 3f
       -0.10835971859694918 0.03764362305101275
000040 d5 15 81 05 4d bb c1 3f b3 24 3a d6 fc fc d7 bf
       0.1385284687877816 -0.37481614037148886
000050 f5 4f 69 25 98 82 e2 3f e4 a6 7f 20 36 bb e5 3f
       0.5784416895571655 0.6791029581774777
000060 f6 14 e8 88 5a 83 f8 bf e3 b3 55 04 97 d9 f1 bf
       -1.532068762580193 -1.1156225365950767
000070 72 4e 30 ff 11 76 70 3f 16 e1 b4 f4 1c c8 ea 3f
       0.004018850612755297 0.8369278697419158
000080 d1 ad 53 03 c3 96 d9 bf 0f ba d2 df 08 12 98 3f
       -0.39982676815881485 0.02350629678829291
000090 2a 95 f7 03 e4 45 f3 bf d1 16 eb 8b b4 0f f3 3f
       -1.2045631556478136 1.1913342919883017
0000a0 ce a1 a1 a0 63 fa 8a bf 00 00 00 c0 f3 07 37 3f
       -0.01317289194067053 0.00035142613342031837
0000b0 00 00 00 80 02 12 76 bf 00 00 00 80 2a bd 9c 3f
       -0.005388269200921059 0.028065361082553864

q_params_6 f8 [2, 4, 3]
000000 1e 67 3c c6 8b cb d1 bf 18 88 f9 6a e0 8e d8 bf
       -0.278048461522859 -0.3837204975772024
000010 03 58 ca c1 d8 50 8b 3f 89 69 a3 7b 9d 55 d0 3f
       0.01333779660607704 0.2552255351453359
000020 2f da 5b c8 3a 9e dd 3f 9c 39 db 34 af c0 de bf
       0.46278256956375946 -0.4805105224776527
000030 84 03 4e aa f1 8e d9 bf 71 d1 c5 5c 2d 8d cc 3f
       -0.39934960967371347 0.2230583861343223
000040 d1 ef 17 c0 e4 52 c6 bf 39 2e 20 1f d0 1b f3 bf
       -0.1744047105747755 -1.1942902770851005
000050 96 8b 1a dd 44 8f cc 3f 70 78 0c 4f 44 7d d2 bf
       0.2231222228629945 -0.28889568061447957
000060 47 26 a8 15 73 71 8c 3f da b7 55 7f 97 05 af 3f
       0.013888262842573286 0.060589536947062775
000070 f2 87 e4 e4 86 52 85 3f 01 0f 7a eb 1b 20 f3 3f
       0.010411313877344928 1.1953391264259496
000080 4e ab 7f 50 fd ad e7 bf c9 20 7e 44 6f ec 6f 3f
       -0.7399889538040527 0.003896920508797395
000090 27 5c 3d 66 1a 88 d3 3f 55 e4 b0 b8 2c 9d a8 bf
       0.3051820753511855 -0.04807414774445166
0000a0 9a e5 e1 8d 8e 45 74 3f 04 42 2e f2 ab f0 ed bf
       0.004949147083715211 -0.9356288652507492
0000b0 51 e5 46 52 3b a3 c1 3f 53 19 72 bd 10 93 5a bf
       0.1377939368956427 -0.0016219771839885613

classical_nn_linear.weight f8 [1, 4]
000000 98 b9 00 a4 4f 79 f1 3f 63 2b 64 48 a8 8a f8 3f
       1.0921169668541548 1.5338518932137155
000010 5c 29 9b be c8 9e 7c bf cb 16 12 c8 1a 8e 00 c0
       -0.006987365873735687 -2.0693870192070327

classical_nn_linear.bias f8 [1]
000000 7d e0 76 48 a3 da d4 bf
       -0.3258445937785906
