VQ_LSTM_BASE_CLASS_TS_MODEL__DATALOADER_BESSEL_4_QUBIT_2_QuLAYERS_old/VQ_LSTM_BASE_CLASS_TS_MODEL__DATALOADER_BESSEL_4_QUBIT_2_QuLAYERS_NO_2_Epoch_29_torch_model.pth (torch, 3471 bytes, 8 tensors)

q_params_1 f8 [2, 4, 3]
-1.5105423681231547 -0.7279460226444451 1.6403782225000838 1.630721929221912 0.5038793542549954 -1.491843516042471 -1.6088982366075057 -1.6845357686994549
-1.4889394237871345 -0.08102217912648581 -0.020859417607875082 0.0688022624037965 1.8375331561959474e-05 -1.3569967200553592 -0.003352420163667789 0.02293132213161873
-1.548066430955207 -0.003589427102176481 -0.0054164441548173745 -1.6098012228680603 -0.01016640757682008 0.00029197894215732235 -1.5821652853146517 0.01341489980994362
00000000: 42fb 6479 2e2b f8bf 7b5b 1075 554b e7bf
00000010: e655 2b3c fd3e fa3f db0c aee0 6f17 fa3f
00000020: 27f4 7498 c71f e03f db6e 824e 97de f7bf
00000030: 1324 cd13 0cbe f9bf 211a 38c7 dbf3 fabf
00000040: d440 2e25 b2d2 f7bf 3152 9999 debd b4bf
00000050: f2f9 c1d1 2b5c 95bf 1045 ea6a 069d b13f
00000060: 0040 772b 9744 f33e 2dac 5631 42b6 f5bf
00000070: 2f97 e4de 8876 6bbf bbf7 6ffa 4e7b 973f
00000080: 14cf 4f4e e1c4 f8bf 1eb7 7c00 9367 6dbf
00000090: a1bc 16a8 8d2f 76bf 4d77 54ed bec1 f9bf
000000a0: c063 7b20 20d2 84bf fabb f701 9822 333f
000000b0: e0af d48b 8c50 f9bf 50dd b35f 4579 8b3f

q_params_2 f8 [2, 4, 3]
1.5065011018538255 0.6442981467680089 -1.5303155192578908 0.0005913526793597315 0.01994488815174255 -0.04231960606088622 -0.7885002005639273 -0.7153562956217855
0.4902484536118088 0.11282860185464443 -0.5174748164401386 0.07175924559144754 -0.8147750845984912 -0.3723439549452701 -0.013732481752926615 -0.1956340611174
-1.1025395520392125 -0.005951783151697683 0.002660332533456787 -1.6132056845749108 0.005605214765582616 0.6621686196928607 -1.5125909103347503 -0.015925772477356312
00000000: 329a 3de6 a01a f83f 84be a725 179e e43f
00000010: e461 3c20 2c7c f8bf 4048 8935 a060 433f
00000020: 7e21 56c9 6e6c 943f 2cb0 0558 eaaa a5bf
00000030: e1f7 c9c5 643b e9bf 67dd d5e2 32e4 e6bf
00000040: c058 cb0c 3b60 df3f ebe3 04d3 55e2 bc3f
00000050: e0a5 a358 278f e0bf f13a 005d d05e b23f
00000060: e346 be32 a312 eabf 5d9b 56bd 7bd4 d7bf
00000070: 3884 2c80 c61f 8cbf 9ccf 3d73 890a c9bf
00000080: e7e0 6883 00a4 f1bf aeaf d49f e560 78bf
00000090: 302b 4927 1fcb 653f 4e87 8fc3 b0cf f9bf
000000a0: 7909 af61 7ef5 763f e695 c03e 7c30 e53f
000000b0: 7dd5 c186 9233 f8bf 4cac d07f d84e 90bf

q_params_3 f8 [2, 4, 3]
0.1474038623911934 0.001149097427206272 0.758999200098908 -0.08595316607935674 0.08832005767733839 -0.21632587394475866 0.6412100977077713 0.0561599256322751
0.6435994803759387 -0.012596705772945152 1.3219845569447157 0.09174194766195003 -0.5795023310474479 0.6662334261297344 0.009547220401498023 -1.0890836964407586
-0.13512345870806358 0.010982880136111747 0.8342272514146819 -1.5972938090762503 0.007253915987840865 -0.340056211356333 0.06304705266122285 -0.011215995012205987
00000000: f41a 2338 21de c23f 404a aaf7 a9d3 523f
00000010: d5ad c3b0 b849 e83f 166a 4cd5 0601 b6bf
00000020: 9e14 4eaf 249c b63f a088 eff4 90b0 cbbf
00000030: 8ca2 f009 cb84 e43f 9d71 df67 fec0 ac3f
00000040: f5fd fdef 5d98 e43f c835 a83a 4dcc 89bf
00000050: 4c50 5e47 d926 f53f 9b21 e178 667c b73f
00000060: e8be f978 488b e2bf f155 17c3 c851 e53f
00000070: 3f19 233b 7e8d 833f 1b1e ad06 e36c f1bf
00000080: be69 09ba b94b c1bf d8ff 0038 317e 863f
00000090: c541 4859 fdb1 ea3f 495f 01f4 838e f9bf
000000a0: 01a9 f83e 48b6 7d3f 70ef a420 7bc3 d5bf
000000b0: 3405 4a05 da23 b03f 1dfc 275e 69f8 86bf

q_params_4 f8 [2, 4, 3]
-0.4032735107931292 0.06210278536076347 0.0676772063940311 -1.5005365055289788 -0.3084268860860705 1.4898921663615592 -1.5036262980975807 -0.9776558762158066
0.38384116193429346 0.069804575711176 -1.4506837202869778 -0.11873366606376574 -0.08212449929534955 -0.23758520923688004 0.002437403927406858 -0.44804696509930503
-0.03977490054876945 0.008171517443283143 0.3563306326044113 -1.605283024557447 0.0010657532677308414 0.9256045043471477 -1.239388659766174 0.01155633110703861
00000000: 21c6 0cb3 3bcf d9bf 88df 3ab0 efcb af3f
00000010: 2aa2 251c 4b53 b13f a737 1b91 3202 f8bf
00000020: 3698 3c1f 44bd d3bf 8b6e 112b 99d6 f73f
00000030: 27c1 fb72 da0e f8bf 05da e2f9 f448 efbf
00000040: 9973 5785 da90 d83f 7d68 ca71 b6de b13f
00000050: 0e8e f721 0036 f7bf 4595 ad5c 5465 bebf
00000060: cd84 ac76 1c06 b5bf 92c5 d72f 3169 cebf
00000070: d1a9 f844 9bf7 633f bf1b 8b2d cdac dcbf
00000080: 1403 1e32 605d a4bf bcb6 6b81 3abc 803f
00000090: ff54 66ff 1ece d63f 6dc5 b440 3daf f9bf
000000a0: 0676 8ddb 1776 513f f670 6656 8d9e ed3f
000000b0: f0a9 0b34 89d4 f3bf 94f2 5481 d8aa 873f

q_params_5 f8 [2, 4, 3]
-1.014837691966789 -0.9536609966007576 1.3364437085330385 0.5357955340332583 1.9122607996616587 -0.5393607223596844 -0.06850336516071293 0.027315306838848658
0.1880038236416852 -0.38936059237869103 0.5833072795868718 0.6820085657342614 -1.5733555786129139 -1.166009262341976 0.0040188506302488115 0.8514797970357126
-0.40413449835294724 0.023506296797487527 -1.2564066956694928 1.130439329622782 -0.013172891938526742 0.00035142613342031837 -0.005388269200921059 0.028065361082553864
00000000: 7ded 9b72 c63c f0bf 68df fb10 6484 eebf
00000010: 7c82 51cc 1262 f53f 9c80 00ad 3c25 e13f
00000020: 9d83 bfc7 9e98 fe3f 5804 e96a 7142 e1bf
00000030: 3cfd 07c1 6f89 b1bf 6555 3636 8bf8 9b3f
00000040: cf30 0861 8210 c83f d287 a7b0 48eb d8bf
00000050: db04 2b07 74aa e23f e474 ada0 03d3 e53f
00000060: 2af2 31e6 762c f9bf 4e78 0954 f9a7 f2bf
00000070: 3b0e 6400 1276 703f aa23 2f8f 523f eb3f
00000080: 1e1f 67f1 56dd d9bf 472a fbdf 0812 983f
00000090: ac03 46e8 3d1a f4bf e278 ed8c 4716 f23f
000000a0: 6cc6 8ea0 63fa 8abf 0000 00c0 f307 373f
000000b0: 0000 0080 0212 76bf 0000 0080 2abd 9c3f

q_params_6 f8 [2, 4, 3]
-0.24718840390584518 -0.31312270573549245 0.04546348268922125 0.24222488410612308 0.42261871185905503 -0.4545489989980035 -0.3659511472245301 0.20345520385935684
-0.1042620757391771 -1.241247954497233 0.23806282601029297 -0.30934798918851425 0.050604750670946455 0.06259664574632862 0.010411313868222472 1.2135073124183422
-0.8328710737401536 0.0038969206282666296 0.4025223068813257 -0.03739749630959438 0.00494914712038428 -0.9903520934349976 0.11784522266471655 -0.0016219771634768787
00000000: 00ef 5c9f dea3 cfbf d536 31d1 330a d4bf
00000010: bafb 9f56 fd46 a73f 2cb0 c199 3901 cf3f
00000020: bd2f 875a 2f0c db3f c20f 48af 5417 ddbf
00000030: 9dd5 505c be6b d7bf 1e73 63f3 d10a ca3f
00000040: 8749 835d ebb0 babf 21ae acd0 26dc f3bf
00000050: 15c4 0dba d778 ce3f 5479 2982 5bcc d3bf
00000060: 6ad2 4eaa dde8 a93f 08dd 5172 5506 b03f
00000070: 004a 94e4 8652 853f bab2 c4a4 866a f33f
00000080: 99f2 ef3c e1a6 eabf fc93 e954 6fec 6f3f
00000090: 2bcf fdeb ecc2 d93f d837 34bf c325 a3bf
000000a0: 68fc 6690 8e45 743f ac82 9adf f6b0 efbf
000000b0: 29b5 55c1 1a2b be3f b3b7 ceb7 1093 5abf

classical_nn_linear.weight f8 [1, 4]
1.1902994039111707 1.5898562487450694 -0.006347746304047035 -2.1530541399802443
00000000: c8f2 4363 770b f33f 9538 1b1b 0d70 f93f
00000010: ac8c 772c 1800 7abf 46dc ed72 7439 01c0

classical_nn_linear.bias f8 [1]
-0.3451956077958924
00000000: 6432 8d51 af17 d6bf
