VQ_LSTM_BASE_CLASS_TS_MODEL__DATALOADER_BESSEL_4_QUBIT_2_QuLAYERS_old/VQ_LSTM_BASE_CLASS_TS_MODEL__DATALOADER_BESSEL_4_QUBIT_2_QuLAYERS_NO_2_Epoch_43_torch_model.pth (torch, 3471 bytes, 8 tensors)

q_params_1 f8 [2, 4, 3]
0	0xbff90ed5a4c5ef6a	-1.56612171520734
1	0xbfead7df210d7138	-0.8388515134388745
2	0x3ff8a7976076d69e	1.5409158485539716
3	0x3ff993d51ec920ba	1.5985919191898987
4	0x3fe2f730fbafd40c	0.5926747241743455
5	0xbff96a3e8c33a585	-1.5884385563498153
6	0xbffb04bff665baa0	-1.6886596321961989
7	0xbffbdbf7e0edad74	-1.7412031923548428
8	0xbff634704cdc9df3	-1.3878024103559
9	0xbfb182ed476307a6	-0.06840403549997962
10	0x3fb740d126358bed	0.09083277876702285
11	0x3fb70c359143d6ea	0.0900300483370661
12	0x3fbae40cbdc747dc	0.1050422633482237
13	0xbff4190765fcad56	-1.2561105712764706
14	0xbf6b7688ddda1ad5	-0.0033524201560938085
15	0xbf31662d509f3bb0	-0.0002654896385338402
16	0xbff245f2752ac645	-1.142076928790986
17	0xbf6d679300e1c060	-0.0035894271050481014
18	0xbf5c6a1c5192756c	-0.0017342831181744412
19	0xbff99bdb92bd72fe	-1.600551198199525
20	0xbf84d2202039d75d	-0.010166407569368091
21	0x3f9f6c167ec36134	0.03068576000882324
22	0xbff9a9b3261859a5	-1.6039306152430097
23	0x3f8b79456019210f	0.013414899821456076

q_params_2 f8 [2, 4, 3]
0	0x3ff8bf4338f4eb1f	1.5466949677344883
1	0x3fe24b79e4a78238	0.5717133966355226
2	0xbff8cb28b78ccac1	-1.5495993776245742
3	0xbf904696cc85292a	-0.015894275887412913
4	0x3f8f5b2783fbf88f	0.015310581889476786
5	0x3f74f8872e4f7cee	0.005119827318565513
6	0xbfe8888a3e4f235b	-0.7666674820876368
7	0xbfe20b814f3f6dc1	-0.5639044330413797
8	0x3fea7259cbd97c1d	0.8264588338314557
9	0x3f915356f24a0afc	0.016919477975998895
10	0xbfb894a6700a0475	-0.09601822123842559
11	0xbf9d60bd5ed3322c	-0.02868934527650617
12	0xbfd8e6e3bde1b880	-0.3890923837960898
13	0xbfe7eba76f967707	-0.7475163630913081
14	0xbf8c1fc680110157	-0.013732481749798948
15	0x3f6c604934692e81	0.0034638814716226323
16	0xbff71c0aba113e94	-1.4443461673980993
17	0xbf7860e5a073c631	-0.005951783160740785
18	0xbf73e2d3a0bdb622	-0.004854990645851072
19	0xbff99b039db5cf6c	-1.6003452454142133
20	0x3f76f57e63820d41	0.0056052147921293325
21	0x3fe11684dccfbcba	0.5339989006733028
22	0xbff8c9ed1563e16d	-1.5492983661225381
23	0xbf904ed87fa92eb8	-0.015925772468377203

q_params_3 f8 [2, 4, 3]
0	0x3fd3bcef728c73f1	0.30840669809714344
1	0x3f67a0336ed82360	0.002884006934213465
2	0x3ff28e5fb0001d1e	1.1597592234628062
3	0x3f96e695d68737cd	0.022363988131296076
4	0x3f889eb5a2f39f27	0.012021464381589532
5	0x3fa1f4ade8f7524f	0.03506988018822154
6	0x3feb5fb023fd1795	0.8554306700614115
7	0x3f974e9935501426	0.022760766867595227
8	0x3fe60f62fdc5931f	0.6893782574157717
9	0x3fadbb5ddc227eaf	0.05807011902038305
10	0x3ff888782a7de026	1.533317724211892
11	0x3fd7b65be0e4f170	0.37050530397734516
12	0xbfd044cc9ce0ad05	-0.25419917411882437
13	0x3fea065140eaf0ac	0.8132711666035184
14	0x3f838d7e3b097ee5	0.009547220398587306
15	0xbff3ca7fd9ddb3a8	-1.236938334502364
16	0x3fb3ea0cf2a20735	0.07779007838874182
17	0x3f867e313b3a4e7c	0.010982880229938312
18	0x3ff8766713ad2522	1.5289068955046976
19	0xbff93514f75d375e	-1.5754594481145072
20	0x3f7db64842899a84	0.00725391603973569
21	0x3f8191f7620ddff6	0.008579189948918025
22	0x3f5cb817dfe322ec	0.0017528756284709802
23	0xbf86f8695fd47e9d	-0.011215995060921908

q_params_4 f8 [2, 4, 3]
0	0xbfb3fccb11e5732b	-0.07807606875344379
1	0xbf85f99672d78e98	-0.010729956989002518
2	0x3f8260c5fe418bca	0.008973643132952253
3	0xbff8fe7142b62d70	-1.562119732467945
4	0xbfd1476536d85c72	-0.26998262744877544
5	0x3ff8ca7a1b4963b8	1.5494328561673978
6	0xbff3ba1b039ad6c3	-1.2329359188856166
7	0xbfefc97fc24eb2ce	-0.9933470530573574
8	0x3fe3a0a09ffb099d	0.6133578419324298
9	0x3fbbd3b023b6b287	0.10869885322490279
10	0xbff2eaf9626e4915	-1.1823667378380993
11	0xbfcb945d0a5e0177	-0.2154651928540365
12	0x3fd584e187f6734b	0.3362354114304266
13	0xbfd6800f069a6219	-0.35156608242826476
14	0x3f63f79b43399e76	0.002437403914701093
15	0x3fac68e5c32b808c	0.05548780448384702
16	0xbfcf34b3acae2c92	-0.24379583293589185
17	0x3f80bc3a8263dd8f	0.00817151747149472
18	0x3fa706e79ac33f2d	0.044974553720406575
19	0xbff96e19482807ac	-1.5893795794113244
20	0x3f517617ce3632bc	0.0010657532191970373
21	0x3fef274825484a7e	0.9735451439067473
22	0xbff6b153b5505e07	-1.4182927210403038
23	0x3f87aad8811e411b	0.011556331100820707

q_params_5 f8 [2, 4, 3]
0	0xbff31f20f1697610	-1.195099776282749
1	0xbfeb7f8c8df651fe	-0.8593199513148304
2	0x3ff541364ed41b95	1.328420932697303
3	0x3ff2232aa68c79b7	1.1335855966386654
4	0x4002153db65d73ee	2.260371613242106
5	0xbfd364c43b3e765f	-0.30302530084177265
6	0xbfbed551e9b211cc	-0.12044250445803256
7	0x3fcde081d1c4d5e9	0.23341391317960294
8	0x3fc0e3d9239b8546	0.1319533752312429
9	0xbfc6baf888b3036c	-0.17758089709061708
10	0x3feff3e8bfdf3abb	0.9985240695476344
11	0x3fe1a7dfb256afe9	0.5517424090553479
12	0xbff8fcc81d3f33b4	-1.5617142813164095
13	0xbfed388810d958e0	-0.9131508187372468
14	0x3f70761201625d7c	0.004018850644704638
15	0x3fe74f57f766b980	0.7284355003410354
16	0xbfe1f6fe4bf76a8c	-0.5614005550117596
17	0x3f981208df13329e	0.02350629674474424
18	0xbff87f2bcd4117aa	-1.5310476320023363
19	0x3fedaa17224bc6f5	0.9270129842609253
20	0xbf8afa63a16f66c5	-0.013172891964063802
21	0x3f3707f3c0000000	0.00035142613342031837
22	0xbf76120280000000	-0.005388269200921059
23	0x3f9cbd2a80000000	0.028065361082553864

q_params_6 f8 [2, 4, 3]
0	0xbfc5af5786f813b5	-0.16941351022992782
1	0xbfb4bc404096b22c	-0.08099748207923402
2	0x3fc038e9c8ac58ff	0.12673685358522133
3	0x3fdad25349be60f0	0.4190872402337069
4	0x3fd11cb03e4535d0	0.26737600403870676
5	0xbfddb11b0fdf86c8	-0.463934674740909
6	0xbfd694b063594bb0	-0.35282525732071246
7	0x3fc56ef32d5c7da5	0.16744842257410855
8	0x3fb37aa34b958375	0.0760900554210034
9	0xbff5a5720d7cffbf	-1.3528919722448192
10	0x3fd1065dec2867c1	0.26601360380447764
11	0xbfcb15601460886f	-0.21158982272124002
12	0xbfaf9a26366ddbee	-0.061722940582448746
13	0x3fb244f440fa311b	0.07136465631828452
14	0x3f855286e430acd2	0.010411313856897673
15	0x3ff5b080b4bca072	1.355591493609634
16	0xbff1c6d5cd6c1da5	-1.1110437416371977
17	0x3f6fec6eeeefedff	0.0038969198862994765
18	0x3fecb4a36006c9cb	0.8970505595701125
19	0xbf846950bed82724	-0.009966498207194592
20	0x3f74458ea2883c63	0.004949147384208793
21	0xbff1b5605d3353e4	-1.106781353058289
22	0x3fc534e731e7d856	0.16567697464751302
23	0xbf5a931097cc5533	-0.0016219770470276673

classical_nn_linear.weight f8 [1, 4]
0	0x3ff812df0e40e8cf	1.504607253721179
1	0x3ffd3473d9da325a	1.8253057966095612
2	0x3f8046a254ffc1a2	0.007947223872151469
3	0xc0034442ecc02e01	-2.408330773939952

classical_nn_linear.bias f8 [1]
0	0xbfcfe02dc6c9f4f4	-0.24902889448632204
