VQ_LSTM_BASE_CLASS_TS_MODEL__DATALOADER_BESSEL_4_QUBIT_2_QuLAYERS_old/VQ_LSTM_BASE_CLASS_TS_MODEL__DATALOADER_BESSEL_4_QUBIT_2_QuLAYERS_NO_2_Epoch_37_torch_model.pth (torch, 3471 bytes, 8 tensors)

q_params_1 f8 [2, 4, 3]
00000000: 390d 49b2 37e0 f8bf 2cd4 c397 92c0 e9bf
00000010: f0ac fdad 5db8 f83f 413a b6a7 d14e f93f
00000020: 17a1 14d0 791c e23f 7b85 8ed7 430d f9bf
00000030: 3e8b 5d82 82fa fabf d5e9 e6c4 babf fbbf
00000040: 1906 4240 5287 f6bf e609 8a0d cbb1 b4bf
00000050: e282 562e 3e0b a63f fa57 5ebc 0fa0 b23f
00000060: 15ba 16f1 ac24 b23f f317 cffc 3eac f4bf
00000070: 3f75 15df 8876 6bbf 8c65 29bd c219 8cbf
00000080: 5687 126b 0205 f4bf 363d 5700 9367 6dbf
00000090: 07bf 6a82 fcdf 4abf 9221 d571 0d42 f9bf
000000a0: 399e 8820 20d2 84bf 4f02 6806 6a10 793f
000000b0: c24b 11b6 8154 f9bf 5d78 0160 4579 8b3f
-1.554740616252117 -0.8047574009093572 1.5450112148781123 1.5817429114573687 0.5659760536264312 -1.5657385273155728 -1.6861596195601147 -1.7343089763149824
-1.4080374250482974 -0.08083790855929571 0.04305452647827736 0.0727548441776377 0.07087212453800647 -1.2920522570943802 -0.003352420165056685 -0.013721009633786328
-1.2512230093493222 -0.0035894271011113433 -0.0008201582866913256 -1.5786261030753832 -0.010166407578323976 0.0061191693880578565 -1.5831315147413396 0.013414899818766363

q_params_2 f8 [2, 4, 3]
00000000: 3905 afcb cf8e f93f 81a4 02f9 6d7f e43f
00000010: e9f0 3e00 3bc0 f7bf bf2e b4b7 e6f2 b63f
00000020: 0c96 e05a b734 7b3f 66b5 477f edcf bc3f
00000030: abe8 fc59 3530 e8bf 7de6 b0c6 9eb1 e5bf
00000040: b04e f9c3 e11b e73f dc81 3577 4e79 83bf
00000050: 67fa 8284 e2be c5bf 2f24 a8d7 012c acbf
00000060: 1bed 77d3 6e2b e4bf 834b b665 0349 e1bf
00000070: 7410 b17f c61f 8cbf 11ff ceec 4da2 ad3f
00000080: eaad 3bfa f339 f6bf e9ed f19f e560 78bf
00000090: 94b1 776b 2712 9abf d410 4665 2d59 f9bf
000000a0: 08b9 9a61 7ef5 763f 1809 b6f5 21a5 e53f
000000b0: 0b53 b5e9 6bdc f9bf 68d1 c37f d84e 90bf
1.5973661381143087 0.6405553687556137 -1.4844312677005809 0.08964387879330625 0.006642070990016357 0.11254772527145959 -0.7558848149849572 -0.677932155674355
0.7221535518278497 -0.009508717549295768 -0.16988784284872624 -0.05502324826745341 -0.6303018694156067 -0.5401627527775051 -0.013732481738891723 0.05787890926103335
-1.3891486906749102 -0.00595178315335996 -0.025459876951502716 -1.584271808243149 0.005605214764427886 0.676407794861265 -1.6163138512831121 -0.015925772474433414

q_params_3 f8 [2, 4, 3]
00000000: 219a 11a7 86f0 d23f 7865 b51a 8f80 a3bf
00000010: f251 5559 ebed f03f 6c47 17a7 19d1 71bf
00000020: 064f fa27 f2ae b13f 2cbf 95e3 68b4 ac3f
00000030: 969c 5efc dcbb e83f 903e 0601 8968 b63f
00000040: e36f 955b 8bc6 e73f 8884 3941 2ead ba3f
00000050: fd09 53d9 cf4f f73f 7cff 5b54 2acc d13f
00000060: efe6 0d99 de5b d5bf 7f12 5efc 5503 ea3f
00000070: 5bb1 e439 7e8d 833f 4b0c 5200 2d46 f2bf
00000080: 36fa b286 321e b63f a8e1 2b3c 317e 863f
00000090: e4df c5f8 cb74 f63f 3267 3674 58fa f8bf
000000a0: d2f3 8543 48b6 7d3f b76c 3d14 016f c2bf
000000b0: c527 9eb1 cdcb b53f 409a 685c 69f8 86bf
0.2959305411845055 -0.03809020234138932 1.0580857743817629 -0.004349804120879468 0.06907571292896017 0.05606391695152832 0.7729325226872727 0.08753258013734411
0.7429863728279965 0.10420502750777605 1.4569853295548676 0.27808626402110526 -0.33373227068623995 0.8129072121669906 0.009547220365299472 -1.142132760288194
0.086398275266199 0.010982880257402197 1.4035148351376785 -1.5611195125151878 0.007253916054080061 -0.14401257980612112 0.08514104448673183 -0.011215994961344511

q_params_4 f8 [2, 4, 3]
00000000: 0b13 bea3 0742 c3bf 793f 5db1 6c40 5dbf
00000010: acbf e402 94f5 6cbf defd d798 7290 f7bf
00000020: 7d40 c6b0 e989 d3bf 8d77 0abb 3586 f93f
00000030: aad2 a8e4 72b1 f6bf 0b91 59b7 4939 f0bf
00000040: 8839 89ba 41e4 d93f 67c6 0552 eb17 b23f
00000050: e9a1 6bfc febb f5bf 8cbf b0c8 2479 cfbf
00000060: c627 ea30 ff13 cd3f a990 7713 b4d4 d2bf
00000070: dcc2 d544 9bf7 633f 588b c83b bec0 b2bf
00000080: bc58 f74b 8c8d c3bf f2fe 5c82 3abc 803f
00000090: ec9a d511 8652 cf3f 4f2b 9363 1299 f9bf
000000a0: 55a2 0ccd 1776 513f a016 b410 8ec8 f13f
000000b0: d450 424a 9202 f7bf 5378 3781 d8aa 873f
-0.15045257086980998 -0.0017853795483979403 -0.0035350695462951966 -1.4727655382592881 -0.30529253256919003 1.5952660852703702 -1.418322461319955 -1.0139863168815875
0.40455668655786114 0.07067747833732484 -1.3583974704907809 -0.24588451194130945 0.22717275513087837 -0.2942323865993424 0.0024374039264148783 -0.07325352630190929
-0.15275720319067954 0.008171517470713738 0.24470592375583722 -1.5998710527080282 0.0010657532149683975 1.1114636089782053 -1.4381277943366984 0.0115563311036874

q_params_5 f8 [2, 4, 3]
00000000: a00c 185d 85db f2bf 78d0 aa61 7e07 ecbf
00000010: 82ad 0c4f 14aa f43f 45d7 9e89 f614 f03f
00000020: e300 fd81 b19c 0140 fc7b 8987 bfa2 d6bf
00000030: 5881 6d16 d790 c3bf df80 2a1b 17cf c53f
00000040: 1a6e 4c59 bb47 bf3f 9f60 b104 e715 c9bf
00000050: 7de5 4726 3ad1 ec3f 4ed0 5df0 fa38 e53f
00000060: 2f65 920c d2ba f8bf 24fe 99ec 8afe eebf
00000070: 6ebd fe00 1276 703f b0e0 6cbf b8f5 eb3f
00000080: d2a4 19a0 d339 dabf 64c3 c2de 0812 983f
00000090: 9287 616d 3389 f6bf 373d a084 b30d ef3f
000000a0: 5a30 6ba0 63fa 8abf 0000 00c0 f307 373f
000000b0: 0000 0080 0212 76bf 0000 0080 2abd 9c3f
-1.1785939823610434 -0.8759147555888509 1.2915232742187475 1.005117929058046 2.2015104441962747 -0.353683359489821 -0.15285767169099063 0.17038239313570266
0.12218829088345054 -0.19598090867180404 0.9005404231713069 0.663205594506971 -1.5456104746902601 -0.9685721036075319 0.0040188506390416 0.8737453211570223
-0.4097794593313441 0.02350629672645556 -1.4084963104910213 0.9704225149488711 -0.013172891934481058 0.00035142613342031837 -0.005388269200921059 0.028065361082553864

q_params_6 f8 [2, 4, 3]
00000000: 952a 60d1 a74a cdbf fd55 5aa3 c3a2 cbbf
00000010: ff9e a182 2202 b03f 4357 969f 3946 d53f
00000020: 887e dd22 d1b7 d03f 790b c4ad 28d5 debf
00000030: 0006 173c 61df d8bf 53e0 5b8f e4ca ca3f
00000040: 2bc9 31fa 475d a2bf e265 2d82 1472 f5bf
00000050: 92fd 0f90 96da d13f 1cac 0f8c eb20 d1bf
00000060: 2bf6 fb82 2313 a8bf 269f 168b 3a11 b83f
00000070: cc40 52da 8652 853f 1598 e43c e588 f43f
00000080: f302 40af c236 eebf d0b1 d029 6fec 6f3f
00000090: 576e 563a 78c9 e53f 9ecb ecbd 36f8 a1bf
000000a0: 7b32 1697 8e45 743f 5b4d d085 8747 f0bf
000000b0: 219f 2e6e 823c c83f 79c9 38c6 1093 5abf
-0.22884080623073957 -0.21590466953482226 0.06253257455102455 0.33241119942373504 0.2612192955475412 -0.48176018685642635 -0.3886340224090361 0.20931679725595362
-0.0358679287827662 -1.3403515896846945 0.2789665610179891 -0.2676342838082648 -0.047021016825948024 0.09401288886749323 0.010411313569676749 1.2834217432623565
-0.9441846297123376 0.003896920314693221 0.6808434619337714 -0.03509684627933683 0.0049491472176553765 -1.01746322890252 0.1893466032026874 -0.0016219772159159192

classical_nn_linear.weight f8 [1, 4]
00000000: a90c 6dd5 d951 f53f cf42 0dc6 1828 fb3f
00000010: 8661 9af5 6c09 973f 3f5d 9e38 4838 02c0
1.3324831330253721 1.6972892509840454 0.02249689339677865 -2.277481500943082

classical_nn_linear.bias f8 [1]
00000000: 9462 e824 841d d0bf
-0.25180152515671606
