VQ_LSTM_BASE_CLASS_TS_MODEL__DATALOADER_BESSEL_4_QUBIT_2_QuLAYERS_old/VQ_LSTM_BASE_CLASS_TS_MODEL__DATALOADER_BESSEL_4_QUBIT_2_QuLAYERS_NO_2_Epoch_72_torch_model.pth (torch, 3471 bytes, 8 tensors)

q_params_1 f8 [2, 4, 3]
00000000: 07a9 c4d2 d8e8 f8bf 52a0 9453 a584 ecbf
00000010: 958b 1cb9 768f f83f 74f6 355d 3c03 f93f
00000020: 5550 0a78 5d7e e43f 530d 74dd c4fd f8bf
00000030: c3f4 6132 d9cc fabf b5e2 e614 f830 fbbf
00000040: cff8 288d a826 f7bf 88be 559d c7e4 b6bf
00000050: a62b d13e bb81 aa3f e07e 9f5f 89c3 b83f
00000060: aae7 7a88 760c c53f 292f a969 5ec5 f2bf
00000070: 09f5 b8de 8876 6bbf 3d83 fc01 3ad0 b0bf
00000080: 99b2 8735 1ead f8bf 6922 8201 9367 6dbf
00000090: b10f 9662 9987 6e3f cb95 98b1 3313 f9bf
000000a0: 9e7d d020 20d2 84bf f313 341b a9da 843f
000000b0: 9c80 5bed 22d4 f9bf d47f 695f 4579 8b3f
-1.55684740382509 -0.8911921150620492 1.535025332538429 1.5632899895712429 0.6404254288231735 -1.5619553232689511 -1.675011822516624 -1.699455339096102
-1.446938086897308 -0.08942840186295531 0.051771022241687434 0.09673365196749328 0.16444284118716485 -1.173185742128178 -0.0033524201624276534 -0.06567728565688653
-1.5422651377695387 -0.003589427109606459 0.003726768093374099 -1.5671879708619254 -0.010166407586494949 0.010182686941798002 -1.6142911216520934 0.013414899801489279

q_params_2 f8 [2, 4, 3]
00000000: ed4a 251c 5222 f93f 9eb4 49b5 4a64 e03f
00000010: 58c0 ce43 2ca7 f8bf 4040 3fa4 eb4e 49bf
00000020: 07f4 648b 15bd 7f3f 3efd 1b55 a09e 993f
00000030: dbb6 c667 3e8a f2bf 25a3 4d82 cab2 d3bf
00000040: d1c0 cced 3177 f13f b622 0e7a 5de5 893f
00000050: e64b fd3a d684 b0bf 39c6 0485 44cd a4bf
00000060: 201b 606e 511f c1bf d4ed 77e0 3357 f3bf
00000070: 5ff5 0180 c61f 8cbf 7c74 d44f a7bb 8b3f
00000080: d64c 088a 2c46 f8bf 767b c09f e560 78bf
00000090: 4667 84b3 bea6 793f 2c80 d546 5720 f9bf
000000a0: 9f63 a765 7ef5 763f 6c8c 57b5 6580 933f
000000b0: 6014 fe3c ceb0 f7bf 7869 b47f d84e 90bf
1.5708790873947536 0.5122426548747574 -1.5408136986479999 -0.0007723475068761657 0.0077486840803517925 0.025019173807774957 -1.1587509206541913 -0.307787539719856
1.0916003502898557 0.012644510543183923 -0.06452692928478107 -0.04062856792223752 -0.13376825227188593 -1.2087897079753605 -0.01373248174808833 0.013541514514651569
-1.517132319630766 -0.005951783150549219 0.006262535978999234 -1.570395733542692 0.005605214823355547 0.019044484322773433 -1.4806654341239422 -0.015925772470930494

q_params_3 f8 [2, 4, 3]
00000000: 84c3 3e03 f6af 9c3f 2d55 624e 4d65 86bf
00000010: 4ed4 7217 0b7f f83f 105b 4235 33bc 753f
00000020: a1d7 b13a d2c7 993f 46c9 7d6e e5dd 87bf
00000030: 0dff 2983 7e98 e23f e45f 450d 3511 a63f
00000040: 93bc cf86 5371 ed3f f9ef 9ccd 6813 7a3f
00000050: 8b21 f91e 1199 f93f c66f 1a80 3d8d d63f
00000060: 605c cca7 5148 d1bf 4859 72f1 1e4c ed3f
00000070: 6b2f a434 7e8d 833f e3eb b69c 248e f9bf
00000080: 428c 837f 2503 823f 256c 5136 317e 863f
00000090: 4438 d3d5 8ad8 f93f b0bd 4587 b1a1 f8bf
000000a0: 5b9d 8235 48b6 7d3f 91f1 14d8 0b02 b4bf
000000b0: 9440 675f 2db9 9ebf 737c 6b56 69f8 86bf
0.028014987896031865 -0.010935405687897937 1.5310164371451438 0.005306434661312989 0.025176319916191073 -0.011653702196529846 0.5811150132940114 0.043100030775064885
0.9200837739025637 0.006366166484266239 1.5998698434724214 0.3523706198700406 -0.2700389994292376 0.9155420985942238 0.009547220212446658 -1.5972028848325344
0.008795063928522254 0.010982880087047129 1.61536677861615 -1.5394759449080588 0.007253915850163518 -0.07815622353968467 -0.03000327009959898 -0.011215994787049354

q_params_4 f8 [2, 4, 3]
00000000: 8ead 60d5 8529 b3bf 83fb aa5a 1048 85bf
00000010: aa48 a96b e8c9 c43f d7d5 cfff 1a2b f9bf
00000020: bb82 52aa cdae d5bf 8997 9e89 5f22 fa3f
00000030: 92d2 d4a9 edd6 f6bf e643 22c9 5fad f0bf
00000040: 0269 cd37 d528 f13f 14c6 e815 d882 83bf
00000050: 179c 3441 f898 f0bf 5d7e 1880 c224 97bf
00000060: ce14 34e6 6e57 a13f 7d4a caba c26e e1bf
00000070: c74e af4d 9bf7 633f b490 153a ad03 a73f
00000080: 3cf3 7d6b 8af1 d5bf f38f 7781 3abc 803f
00000090: df8f 828b 43c4 c1bf f4a4 43cc f484 f9bf
000000a0: f06b 75d5 1776 513f 8838 c71a d9b6 d63f
000000b0: 4109 0dac a4d3 f7bf f959 9880 d8aa 873f
-0.0748523374501728 -0.010391357199635248 0.16241173989198404 -1.5730237953806545 -0.33879415162122556 1.6333918929826459 -1.4274727472340243 -1.0423276764670333
1.0724689655094726 -0.00952690903531831 -1.0373461291399104 -0.022601164882983905 0.033870187378889235 -0.5447705887075497 0.002437403990805584 0.044949925747262226
-0.3428674745298854 0.00817151744463016 -0.13880199729930973 -1.5949600199767788 0.0010657532455613482 0.3549101602083131 -1.4891707154025229 0.011556331085597714

q_params_5 f8 [2, 4, 3]
00000000: b5c5 6c64 a22f f6bf d6a3 b27b 9e5d e4bf
00000010: 748f 3671 877f f73f b2e2 66b4 ea18 f43f
00000020: f0a6 f782 e39b 0340 0864 a8e3 3817 c9bf
00000030: 3403 1076 ff32 a6bf 05a8 b55d ae2d d33f
00000040: 460c 6f93 f05b 813f e734 17b8 b0fd c3bf
00000050: dfb2 4de7 5587 f33f ee9f 5140 3c96 d83f
00000060: feaf d73c 78e3 f9bf cfc0 8f18 6e30 e8bf
00000070: 9ef7 7bfc 1176 703f dc7f e951 8813 ec3f
00000080: d251 6832 0f80 e3bf 755d 8ddf 0812 983f
00000090: c6b9 7f7e 4475 fabf e96e 6a26 66fa f33f
000000a0: 3d48 d1a0 63fa 8abf 0000 00c0 f307 373f
000000b0: 0000 0080 0212 76bf 0000 0080 2abd 9c3f
-1.3866294787261328 -0.6364281097386264 1.4686350271594764 1.2560832068394743 2.4511175376727508 -0.19602118602850305 -0.043357833063060985 0.299663154137875
0.008476142405816966 -0.15617951382447545 1.2205409083646186 0.3841696384538399 -1.6180345894490524 -0.7559118728368278 0.0040188505734003715 0.8773843383642048
-0.6093822464486556 0.02350629677252188 -1.6536297742237465 1.2486325741401123 -0.013172891946087723 0.00035142613342031837 -0.005388269200921059 0.028065361082553864

q_params_6 f8 [2, 4, 3]
00000000: 69e3 47fb 0d46 c4bf 18dc f088 9552 b63f
00000010: 14fe 58ff db22 cb3f bceb c741 6bcf e53f
00000020: 3525 080d ffc7 cf3f 0370 1d17 a5a2 d6bf
00000030: 47d8 2640 4937 dcbf 118e e3ee fd9f b53f
00000040: 5e80 2421 b74d c03f a00d d710 6449 f7bf
00000050: 4222 f629 74a9 d03f 1e64 fa0c f271 b6bf
00000060: 863b d0f8 e0b0 8c3f ec7f b3d3 7878 a43f
00000070: a946 bdf3 8652 853f 6914 c0d1 2754 f63f
00000080: fd85 dd72 0b52 f5bf 84eb f4d3 6eec 6f3f
00000090: f02a 77b8 752d fc3f 8e3b fcec b24f 903f
000000a0: 3472 d9a6 8e45 743f 0e07 75a2 b5ef f5bf
000000b0: 404a c464 43a9 c13f 41e1 0d46 1193 5abf
-0.15838789720126137 0.08719763367922473 0.21200132339616629 0.681569698789978 0.24829090248412347 -0.35367705590556414 -0.44087439789598587 0.08447253305671888
0.127371684248831 -1.4554176957907217 0.26034263704108096 -0.08767617050979523 0.01400924453085196 0.03998162826769644 0.010411314309439606 1.3955457871791401
-1.332530449574164 0.003896919689990454 1.761098595207553 0.015929027285035917 0.004949147447032721 -1.371022829626273 0.13797800464870313 -0.0016219776809674599

classical_nn_linear.weight f8 [1, 4]
00000000: 3cf5 a72e 1406 fe3f 89ed 62a2 f613 0140
00000010: c00c 11c3 ea69 933f 37f7 6ede d1a6 04c0
1.8764840910437917 2.1347477613869086 0.01895872893898054 -2.5814549806226768

classical_nn_linear.bias f8 [1]
00000000: e12d 1620 9ba1 b0bf
-0.06496591122975516
