VQ_LSTM_BASE_CLASS_TS_MODEL__DATALOADER_BESSEL_4_QUBIT_2_QuLAYERS/VQ_LSTM_BASE_CLASS_TS_MODEL__DATALOADER_BESSEL_4_QUBIT_2_QuLAYERS_NO_2_Epoch_2_torch_model.pth (torch, 3471 bytes, 8 tensors)

q_params_1 f8 [2, 4, 3]
00000000: c71c 655b 7a69 d6bf 00d9 6d1a 6d85 d4bf
00000010: f1f5 2c55 1d76 d43f a574 8035 a316 da3f
00000020: 84ca 6927 a235 d63f 8962 6344 f0bf d6bf
00000030: 3350 5653 5a82 f53f d214 7571 4429 f13f
00000040: 1590 f90a b21e c4bf 19fb 2f6f 2f3f c03f
00000050: 9c52 f206 6ba7 e43f 44b5 6714 0037 c33f
00000060: 7c67 2343 a5ea edbf 6b78 8686 260c e8bf
00000070: 2ce0 f87f 35be 8bbf 32fe 1862 b0fa d3bf
00000080: 06ce 720a 20af cbbf 9397 f27f 42a7 70bf
00000090: c164 0d67 8085 993f fc00 5718 6aef e9bf
000000a0: 1e29 ac7f f409 70bf eb16 e14c de76 ef3f
000000b0: a72c 1f96 d6ee dabf d596 a4a2 cb8b 42bf
-0.3501878635910995 -0.32064368802038246 0.3197091419022789 0.4076316854933089 0.34702352379751056 -0.3554649989942296 1.3443244223935948 1.072575038140077
-0.15718675170785504 0.12692826203416344 0.6454367767024283 0.15011597629874462 -0.9348932563109282 -0.7514832141348625 -0.013546388595486368 -0.312175842092958
-0.21628189573458217 -0.00406576134188254 0.024923330583395357 -0.8104753947627894 -0.003915743897559913 0.9832602979228943 -0.4208275285752258 -0.000565981322584642

q_params_2 f8 [2, 4, 3]
00000000: e3f9 600c 62d3 d5bf b255 0d18 dba4 d0bf
00000010: c154 d607 649b c93f fb6e a9ff d256 ca3f
00000020: f24b ba10 7c1a d03f ba6a 246a d0a3 b9bf
00000030: dc28 8275 1112 ea3f 7b04 970f 6bed e93f
00000040: 5a5a 9d16 0b1e e1bf a25a 26af a6d6 a23f
00000050: 91f3 7606 ac1b e03f e45e 7d67 a28a ad3f
00000060: 9545 f020 2961 e7bf 80dd bfee 977c e9bf
00000070: 54aa 1a00 bf6b 8b3f ef20 5e51 6eca d33f
00000080: ecd0 9eb5 8ae1 dcbf ef14 c5df 0e92 8dbf
00000090: f078 2b14 b389 483f 5799 a541 1572 e9bf
000000a0: 4c84 4646 3437 393f f6a4 1ad9 192f e53f
000000b0: e554 cdf0 c3ad e8bf 6a1c 7320 5df5 643f
-0.3410267945181699 -0.26006200169407656 0.20005464918782503 0.2057746647213817 0.2516164935452131 -0.10015585509646999 0.8147055907332077 0.8102317146769019
-0.5349173967068268 0.03679390800532657 0.5033779264700674 0.05769832146932943 -0.7306104319888386 -0.7964591658664375 0.013389103117636449 0.30923040338576774
-0.45126598106732163 -0.014438739971078777 0.0007488369377275633 -0.7951761514821482 0.00038476015313377156 0.6619996300043158 -0.7712115958371696 0.002558404815860939

q_params_3 f8 [2, 4, 3]
00000000: c1f4 f8dd e5c7 bfbf e743 1b8e df07 8d3f
00000010: 32f0 1d2e 75ab c1bf 24ce 1359 b45f 80bf
00000020: 7d64 31ce 2e56 70bf 364b b2c3 f04c 86bf
00000030: ad0c 0cc0 da1f d1bf 3e04 ede3 5328 c7bf
00000040: 7c9b 2887 679f bbbf fb12 787c d59c c43f
00000050: e0d4 289d 7fdf e5bf 8e71 e2f1 fddf bbbf
00000060: 09d9 6576 10d5 bb3f dd6f ba70 b6a3 b03f
00000070: d9ac e9fe f27a 853f 82e0 75b9 5825 d4bf
00000080: 24b7 27c4 de24 c53f 5ff8 4640 a68b 88bf
00000090: c497 db11 23bd c83f f314 0cae 6e50 e03f
000000a0: d846 e92a 7d64 4bbf aa1e b034 7415 d4bf
000000b0: 38ca 4b6e 3dc2 c93f 4c39 5ebe e4eb 8f3f
-0.12414395016908754 0.014175173305746426 -0.13804497482112904 -0.00799504181711714 -0.003988440355066844 -0.010888939830953608 -0.26756924395176435 -0.18091820363227556
-0.10790106820841844 0.16103619172658754 -0.6835325307389688 -0.10888659625420002 0.10871985331127489 0.06499805690913214 0.01048841324264631 -0.3147794543397212
0.16518768861663446 -0.011985110127053554 0.1932720029064382 0.5098184012755652 -0.0008359538240460774 -0.3138094439059197 0.20124023328351526 0.01558664995152683

q_params_4 f8 [2, 4, 3]
00000000: 71c1 d1f7 7a4c c83f b38c 0613 823f b93f
00000010: 2650 d3e5 b93c c9bf 7592 dac5 4ef7 b6bf
00000020: 4c91 f633 9b4b afbf cfe1 c015 1707 99bf
00000030: e6af 9298 e1e8 ea3f 3e3b 5c08 4eb0 e83f
00000040: 8540 762d e795 d8bf 789d 1166 7f66 a33f
00000050: 54c6 e098 b638 e13f f25c 8bce 0c94 b73f
00000060: b669 858c a08d e7bf 184c bca8 7dcc e8bf
00000070: d09c b8bf 551d 93bf 1e67 c9d4 40ad d33f
00000080: 0ca5 b63f 8cbc e0bf c99c 8720 c329 753f
00000090: 7782 cf91 a281 91bf 4199 156d 211e eabf
000000a0: 1d3b 8f5f de34 953f 8c61 09d5 0118 ef3f
000000b0: 708a 18de 4ca2 eabf 1923 e43f a42f 703f
0.18983399487070643 0.09862530674449736 -0.19716571542687794 -0.08971111612715695 -0.0611237049991212 -0.024441109373784017 0.8409278850499475 0.7715215838705729
-0.3841493553127367 0.03789137001950399 0.538173006620307 0.09210281412684987 -0.7360384697488402 -0.7749622626892032 -0.01866659147904387 0.30744953899339744
-0.523016094627708 0.0051667806769508185 -0.017096080922672088 -0.8161780481866928 0.02070949037789226 0.9716805611488311 -0.8323120439348042 0.003951684570218794

q_params_5 f8 [2, 4, 3]
00000000: d1f2 9db1 b43b b0bf 0bed 9b7e b681 d3bf
00000010: dd3f 196b c3cb b13f d68a a06c 93e5 723f
00000020: 14da 6d93 8e2b 6a3f ffe1 0efe f46c 553f
00000030: bb29 65bc f0a8 bfbf 0e37 71df 501b f0bf
00000040: ab1d f034 17fe ca3f 6981 b3f9 4cd7 aabf
00000050: e0f6 da14 e00f debf c2a8 0cd2 0860 a1bf
00000060: 9b34 a516 8e92 a7bf d7a3 3bb4 b498 b23f
00000070: e234 27c0 1b24 87bf 1e51 af97 5ba4 b6bf
00000080: 1f4d 7eab bb71 e2bf a3a4 e57f e4f9 88bf
00000090: e446 2294 7edf 73bf 863e 894a e8e1 eabf
000000a0: 846b 957f 1f1b 77bf 0000 0060 7d5b 923f
000000b0: 0000 0000 562a 86bf 0000 00a0 f461 743f
-0.06341103874542432 -0.3047920452515462 0.06951543202126183 0.004613471866863525 0.0031945976911018723 0.0013077156547592892 -0.12367157554141432 -1.006668923207545
0.21087923130856487 -0.052423863869765004 -0.4697189525285079 -0.03393580974655343 -0.04604000116760539 0.07264260673731769 -0.011299340058850086 -0.08844540074580151
-0.5763834332923671 -0.012195382264240278 -0.004851812789768071 -0.8400765853675274 -0.005641100922128998 0.017927130684256554 -0.01082293689250946 0.0049762302078306675

q_params_6 f8 [2, 4, 3]
00000000: dc76 b4bf eeb6 e0bf f75f 99c9 cc93 c2bf
00000010: 4d3f a6e2 da04 d7bf b27d 9355 a7e9 da3f
00000020: 0ba9 de1c 713e cdbf cec5 353c 7779 d73f
00000030: 51f1 c462 49d9 c0bf 0c12 cdff a635 c73f
00000040: 0661 bc5e bf16 c6bf 6cb6 7599 81a4 b9bf
00000050: 0cd8 58af 39c4 e5bf f613 6363 c29a c1bf
00000060: 2362 a22e b25c e5bf 9236 b065 1eb2 703f
00000070: d4a8 33dd 74eb 6c3f 7a73 57c1 0622 cebf
00000080: f142 a833 451a a4bf 4337 db06 d9c5 5ebf
00000090: f31f cd6c 8c07 acbf c1dc e7a3 074c b23f
000000a0: fa75 d51f bbc1 8c3f 81ce 0cf3 0b95 d23f
000000b0: 102a 2de5 ca5d a2bf 8be5 73ac 0aee 653f
-0.5223306411969264 -0.14513549655634936 -0.35967132695895004 0.4205110870079479 -0.22846807393700205 0.3667886817921414 -0.13163106272430494 0.18132483949933975
-0.1725691998078746 -0.10016641613557348 -0.6802032875773434 -0.13753537991411208 -0.6675654326273314 0.004076117266789263 0.0035302431584699288 -0.23541340294368834
-0.03926292663175513 -0.001878225269524817 -0.054745090752987745 0.0714726233635359 0.01404138747119087 0.2903470872435961 -0.03587183044017561 0.0026769836873625267

classical_nn_linear.weight f8 [1, 4]
00000000: aa2c 402c 43da ed3f 6251 ecd7 9395 ef3f
00000010: 12b7 ebf5 4fc9 cd3f 0929 8b97 247b e23f
0.9328933586379169 0.987008973812902 0.2327060652527782 0.5775320968471372

classical_nn_linear.bias f8 [1]
00000000: 0cde 5d91 3017 963f
0.02157283675430048
