VQ_LSTM_BASE_CLASS_TS_MODEL__DATALOADER_BESSEL_4_QUBIT_2_QuLAYERS/VQ_LSTM_BASE_CLASS_TS_MODEL__DATALOADER_BESSEL_4_QUBIT_2_QuLAYERS_NO_2_Epoch_1_torch_model.pth (torch, 3471 bytes, 8 tensors)

q_params_1 f8 [2, 4, 3]
-0.22674545064014007 -0.1500031611703076 0.1213023953072955 0.19657110387818874 0.1720794042268269 -0.14805540790528166 1.1676657318061843 0.8607951903748485
-0.24620317086371718 0.1532750644849789 0.7053411241153181 0.1613080780694031 -0.8223899373729758 -0.5774605765578671 -0.013546388599039456 -0.2187336408083975
-0.24147961188467726 -0.0040657613456677195 -0.007618711037116074 -0.8173216046966237 -0.00391574389505746 0.9499323528152308 -0.5381395605695691 -0.0005659813223428382
00000000: 5012 82b3 fe05 cdbf 8ef4 c2b7 4d33 c3bf
00000010: ca73 c57c ac0d bf3f 8f6a 3fef 3d29 c93f
00000020: d514 bcaa b206 c63f ea7c 79c7 7af3 c2bf
00000030: 8d47 2c43 c2ae f23f a6d9 e65a a28b eb3f
00000040: 3afd 83e3 9583 cfbf deac a06e 849e c33f
00000050: 632c 938c 2792 e63f f5c0 f13b bea5 c43f
00000060: 0772 b2b3 0451 eabf 7473 619a 8e7a e2bf
00000070: 0421 1880 35be 8bbf 574e e7c4 76ff cbbf
00000080: e404 d9cd cde8 cebf 822e 3580 42a7 70bf
00000090: 7097 df2b cc34 7fbf 458f 4fa3 7f27 eabf
000000a0: 1223 807f f409 70bf b81e 9888 d865 ee3f
000000b0: 4490 aa74 7038 e1bf ef8e 82a2 cb8b 42bf

q_params_2 f8 [2, 4, 3]
-0.20339809948410872 -0.0999475363445668 0.10053972005506291 0.07699420743689861 0.1059085119792746 0.006357399014722166 0.7258139981657072 0.6661085901586813
-0.4763481937441635 0.04586491431728514 0.524336905059827 0.036513544610842816 -0.6575574267449805 -0.677058100182528 0.013389103120120602 0.13540260059006168
-0.4169478165188278 -0.01443873997729938 -0.025067828685679087 -0.79627775935473 0.00038476014979116444 0.49120062430408873 -0.737754552616016 0.0025584048152644265
00000000: 9928 adec f208 cabf 626a ea67 2996 b9bf
00000010: b5e2 9599 f8bc b93f 7444 ec72 e4b5 b33f
00000020: 8daa 51fb d11c bb3f 4e94 b14d 370a 7a3f
00000030: 1239 2347 de39 e73f 571e 4af6 c250 e53f
00000040: 5ef3 6822 7d7c debf 239c 0d26 9b7b a73f
00000050: 882b 6a30 5ec7 e03f f6e0 ed3f e7b1 a23f
00000060: 4992 63df b50a e5bf c2d3 b8bf 75aa e5bf
00000070: 2584 3000 bf6b 8b3f eff0 a956 df54 c13f
00000080: fb90 05e5 45af dabf 7ccc fbdf 0e92 8dbf
00000090: f100 8c81 61ab 99bf 3fbe de7e 1b7b e9bf
000000a0: 12a8 9942 3437 393f 444b 4abe d46f df3f
000000b0: b1bf 7e6f af9b e7bf 821f 5e20 5df5 643f

q_params_3 f8 [2, 4, 3]
-0.048175719853646076 0.03419197482576693 -0.09829556083335067 -0.01365621237957303 -0.008159171964397367 0.012398486411110717 -0.29413438373443057 -0.20355808403303488
-0.06408263618282235 0.14798353904639472 -0.6345789328309287 -0.053616539318816644 0.12249376585824692 0.07588377724333101 0.010488413286424721 -0.25766495928232
0.18073428587020038 -0.01198511010884277 0.07201895009741972 0.5078731803902528 -0.0008359538557678519 -0.2937048827211072 0.19512358656301954 0.015586649970284154
00000000: 3c20 77ea 7caa a8bf 2a1c 534b 9c81 a13f
00000010: 4008 1fdb e529 b9bf bac0 75cc c9f7 8bbf
00000020: e407 ff85 c1b5 80bf 31b6 3ead 6064 893f
00000030: 002f b105 19d3 d2bf 2010 e1f8 300e cabf
00000040: 5d8d a53a b867 b0bf 347a 46e6 1ff1 c23f
00000050: 53a9 677a 784e e4bf c64b cc85 a073 abbf
00000060: 9a36 535e c05b bf3f 349b 8e85 1e6d b33f
00000070: 11c1 6a00 f37a 853f ca55 5c2b 957d d0bf
00000080: d909 8a13 4d22 c73f 55c9 a63f a68b 88bf
00000090: 1d55 5c7b d56f b23f 2655 8941 7f40 e03f
000000a0: 38b8 593c 7d64 4bbf 669c 7d90 0fcc d2bf
000000b0: ccb2 7b47 cff9 c83f 0937 03bf e4eb 8f3f

q_params_4 f8 [2, 4, 3]
0.07771218983355237 0.03400168169310594 -0.1001468996470552 -0.007260093641156713 -0.0076253781498986815 -0.008923579465594425 0.7637417405280564 0.60727491431863
-0.32382901664331903 0.03932479649200818 0.5449244576104866 0.041783490851429995 -0.6789186163715175 -0.6540953568700976 -0.01866659149078201 0.1583913024912351
-0.4596545088988789 0.0051667806807623095 -0.005356737715356177 -0.8175444943836817 0.020709490394240082 0.6603820991620086 -0.7811863703722178 0.003951684570728342
00000000: 3bed d531 f2e4 b33f 4404 c31d ab68 a13f
00000010: 44a7 c72a 3aa3 b9bf 481c 138c c2bc 7dbf
00000020: d30a 60dc c93b 7fbf 086f be8f 8646 82bf
00000030: 520f c584 9270 e83f 40c0 15cd cb6e e33f
00000040: 37a6 fe56 9db9 d4bf 94c6 b535 6122 a43f
00000050: 5248 876a 0570 e13f 5570 704d a564 a53f
00000060: 76c2 be88 b3b9 e5bf de1e c762 59ee e4bf
00000070: c83c ecbf 551d 93bf 6fd9 158c 2a46 c43f
00000080: fd7e cbbe fa6a ddbf 37aa ca20 c329 753f
00000090: 90af cf54 f2f0 75bf 7be3 4c12 5329 eabf
000000a0: 2021 d75f de34 953f 1078 d8a3 d921 e53f
000000b0: 3d8c 1a8f 7aff e8bf e619 ed3f a42f 703f

q_params_5 f8 [2, 4, 3]
-0.049020834082495246 -0.31165116729441433 0.07829077481305095 -0.02278803387436484 -0.07428922632688081 -0.02606985317546497 -0.20832095481026452 -0.9379340575323168
0.2878995801459904 -0.04601963715139976 -0.42644323814030394 -0.07532845227319147 -0.14537154447885672 0.013188601267267758 -0.011299340059324148 0.05408750265022638
-0.5470933314603286 -0.012195382269966514 0.008097530797177316 -0.7713993409011002 -0.005641100924743324 0.017927130684256554 -0.01082293689250946 0.0049762302078306675
00000000: 90f6 693e 4219 a9bf 028b d2bc 17f2 d3bf
00000010: bb8a 663d dd0a b43f ef11 ec10 bf55 97bf
00000020: 6ee3 8465 9e04 b3bf e558 333b 0eb2 9abf
00000030: 6aa4 fdd3 42aa cabf fffc dc48 8e03 eebf
00000040: 1296 505c f26c d23f 2dfe 13c9 e28f a7bf
00000050: b26d 5a94 d84a dbbf 55be f8b6 b948 b3bf
00000060: 2521 a7e6 889b c2bf 90b2 fb18 a002 8b3f
00000070: 6060 2bc0 1b24 87bf 0894 026e 5bb1 ab3f
00000080: e66a cfdf c981 e1bf f902 1880 e4f9 88bf
00000090: 702a 9e2f 7095 803f 1270 aaab 4daf e8bf
000000a0: 6569 c37f 1f1b 77bf 0000 0060 7d5b 923f
000000b0: 0000 0000 562a 86bf 0000 00a0 f461 743f

q_params_6 f8 [2, 4, 3]
-0.335074635092507 -0.09593265042731595 -0.2455523883312006 0.5007784977023354 -0.2841112822890379 0.27106567130542286 -0.2291514068793024 0.2097273066311744
-0.10711316916070886 -0.1557980238890261 -0.5885189275580371 -0.17243940151998358 -0.6433378630930564 0.014191396792054327 0.003530243245933386 -0.23592543947058947
0.007710341072474475 -0.0018782253134638817 0.008976083111935845 0.0836568081282948 0.014041387442187265 0.3166895831379856 0.011357196980716596 0.0026769837549350806
00000000: be40 dce1 dc71 d5bf 4334 34cc 0a8f b8bf
00000010: 5329 abba 426e cfbf 457d c5a0 6006 e03f
00000020: 64c9 7616 e12e d2bf 0fce 54d4 2359 d13f
00000030: da82 3053 d554 cdbf 368f 8729 58d8 ca3f
00000040: 1523 84c6 c46b bbbf ed40 b18c 30f1 c3bf
00000050: 580a 5ea5 25d5 e2bf 6bfa 088b 7e12 c6bf
00000060: 286c 4849 3996 e4bf 5cf9 d908 6110 8d3f
00000070: 9d01 39e9 74eb 6c3f ba09 6907 ce32 cebf
00000080: 7adf f4eb e094 7f3f 1527 ef12 d9c5 5ebf
00000090: 70a8 4b7b 0d62 823f 99af ff56 886a b53f
000000a0: aa57 d61e bbc1 8c3f f7ef a362 a444 d43f
000000b0: 4bec d92c 7142 873f 0065 bdb5 0aee 653f

classical_nn_linear.weight f8 [1, 4]
0.8328329454582626 0.8714755830431685 0.260520460118794 0.5529003140082657
00000000: 70c9 f846 91a6 ea3f a7da 0dc3 20e3 eb3f
00000010: bb8a 0902 5eac d03f dfa2 d3ff 5bb1 e13f

classical_nn_linear.bias f8 [1]
-0.03227528756372721
00000000: af43 1cf1 6286 a0bf
