VQ_LSTM_AUTOENCODED_TS_MODEL_DATALOADER_WIND_4_QUBIT_AS_RESERVOIR_2_QuLAYERS/VQ_LSTM_AUTOENCODED_TS_MODEL_DATALOADER_WIND_4_QUBIT_AS_RESERVOIR_2_QuLAYERS_NO_3_Epoch_8_torch_model.pth (torch, 6965 bytes, 16 tensors)

encoder.q_params_1 f8 [2, 4, 3]
0.0025692253839224577 -0.0012837480753660202 -0.014820101670920849 -0.007229974493384361 -0.009707607328891754 0.0012006002943962812 0.010715429671108723 0.0006770563777536154
0.00734608294442296 0.016594529151916504 0.0020659889560192823 -0.02073431946337223 -0.0189374927431345 -0.015462757088243961 -0.0032313477713614702 -0.001161732361651957
-0.020956089720129967 -0.004532213788479567 0.024007907137274742 -0.003562351455911994 -0.0022807763889431953 -0.0050842962227761745 -0.0011124755255877972 -0.007078372873365879
00000000: 0000 0060 0e0c 653f 0000 0000 6e08 55bf
00000010: 0000 0060 005a 8ebf 0000 0080 2d9d 7dbf
00000020: 0000 0000 95e1 83bf 0000 00c0 aeab 533f
00000030: 0000 00a0 f8f1 853f 0000 0080 8f2f 463f
00000040: 0000 0020 ed16 7e3f 0000 0000 28fe 903f
00000050: 0000 0060 b1ec 603f 0000 00a0 603b 95bf
00000060: 0000 00a0 5964 93bf 0000 0020 f0aa 8fbf
00000070: 0000 00a0 a078 6abf 0000 00a0 a808 53bf
00000080: 0000 0060 8375 95bf 0000 00e0 5e90 72bf
00000090: 0000 0060 8795 983f 0000 00e0 ca2e 6dbf
000000a0: 0000 0080 22af 62bf 0000 0060 45d3 74bf
000000b0: 0000 0080 0f3a 52bf 0000 0040 36fe 7cbf

encoder.q_params_2 f8 [2, 4, 3]
-0.00557598564773798 0.0031159354839473963 0.020307093858718872 -0.015005093067884445 0.01357362698763609 0.0046851434744894505 -0.002459029434248805 -0.003819484729319811
0.00034075378789566457 0.002129263710230589 0.001143373316153884 -0.014688513241708279 0.018679257482290268 -0.013429026119410992 0.025826746597886086 -0.00017536173982080072
-0.00014057046792004257 0.005393226630985737 0.02091960236430168 0.012907111085951328 -0.005994603969156742 -0.01713116653263569 -0.00032641366124153137 0.0001892455475172028
00000000: 0000 0040 d8d6 76bf 0000 0020 9786 693f
00000010: 0000 0000 62cb 943f 0000 0080 fdba 8ebf
00000020: 0000 0060 7dcc 8b3f 0000 00a0 ba30 733f
00000030: 0000 0060 f524 64bf 0000 0040 0a4a 6fbf
00000040: 0000 0060 e654 363f 0000 00c0 6371 613f
00000050: 0000 00c0 a7bb 523f 0000 00e0 0215 8ebf
00000060: 0000 00c0 a720 933f 0000 0060 ad80 8bbf
00000070: 0000 00a0 5372 9a3f 0000 00e0 29fc 26bf
00000080: 0000 0020 c36c 22bf 0000 0040 3517 763f
00000090: 0000 00c0 f26b 953f 0000 0020 0b6f 8a3f
000000a0: 0000 0040 cc8d 78bf 0000 0020 d58a 91bf
000000b0: 0000 0000 5064 35bf 0000 00e0 06ce 283f

encoder.q_params_3 f8 [2, 4, 3]
-0.0076905833557248116 -0.00736883282661438 -0.026474889367818832 -0.01660774275660515 -0.010638877749443054 0.009876509197056293 0.00674285925924778 -0.010395403020083904
0.0073381331749260426 -0.0020230826921761036 -0.0066935401409864426 0.003428874770179391 0.006936166901141405 -0.011390573345124722 -0.006920923013240099 0.0029770550318062305
0.016649888828396797 -0.0005916046211495996 -0.003075971268117428 0.002895441371947527 -0.014235741458833218 0.005183541681617498 -0.010197771713137627 -0.009050083346664906
00000000: 0000 0040 2980 7fbf 0000 0000 c82e 7ebf
00000010: 0000 00c0 3b1c 9bbf 0000 00c0 9e01 91bf
00000020: 0000 0000 d6c9 85bf 0000 00a0 223a 843f
00000030: 0000 0080 669e 7b3f 0000 0060 2f4a 85bf
00000040: 0000 0020 970e 7e3f 0000 0040 b692 60bf
00000050: 0000 0080 af6a 7bbf 0000 0020 df16 6c3f
00000060: 0000 0020 1969 7c3f 0000 00e0 f053 87bf
00000070: 0000 0020 1d59 7cbf 0000 0040 5663 683f
00000080: 0000 0020 ab0c 913f 0000 0040 bd62 43bf
00000090: 0000 0080 c732 69bf 0000 0040 2eb8 673f
000000a0: 0000 00e0 a027 8dbf 0000 0060 563b 753f
000000b0: 0000 00c0 91e2 84bf 0000 00a0 d988 82bf

encoder.q_params_4 f8 [2, 4, 3]
0.012260560877621174 -0.00222409307025373 0.011969287879765034 0.014270604588091373 0.002628524787724018 -0.02030402608215809 0.007196041755378246 0.0026581694837659597
-0.007008569780737162 0.00951289851218462 -0.004715366754680872 0.007376611232757568 -6.934419798199087e-05 0.006669326685369015 0.0031157848425209522 0.01659080944955349
0.006451030727475882 0.009618250653147697 0.00019214475469198078 0.007385523058474064 -0.014639077708125114 -0.006087436340749264 0.009588493965566158 0.0005424157134257257
00000000: 0000 00a0 101c 893f 0000 00e0 4238 62bf
00000010: 0000 00a0 5a83 883f 0000 0020 e839 8d3f
00000020: 0000 0080 6a88 653f 0000 0020 94ca 94bf
00000030: 0000 00c0 9879 7d3f 0000 00e0 95c6 653f
00000040: 0000 00a0 04b5 7cbf 0000 00a0 7f7b 833f
00000050: 0000 00a0 6b50 73bf 0000 0000 f036 7e3f
00000060: 0000 0040 9c2d 12bf 0000 00c0 4b51 7b3f
00000070: 0000 0040 4686 693f 0000 0060 2efd 903f
00000080: 0000 0060 656c 7a3f 0000 00c0 bbb2 833f
00000090: 0000 00e0 4e2f 293f 0000 0040 4840 7e3f
000000a0: 0000 00c0 17fb 8dbf 0000 00c0 23ef 78bf
000000b0: 0000 00e0 21a3 833f 0000 00e0 1cc6 413f

encoder.q_params_5 f8 [2, 4, 3]
0.01850241608917713 -0.0031846282072365284 -0.015111184678971767 -0.00866294838488102 0.002165484707802534 0.0038015362806618214 -0.010158530436456203 -0.00897221639752388
0.010150564834475517 -0.005526420194655657 -0.0028235299978405237 0.015261699445545673 -0.0006873818929307163 -0.004870232660323381 0.005620286334306002 0.024724695831537247
0.0036552443634718657 -0.020660506561398506 -0.003183633554726839 0.0034946107771247625 0.00046139018377289176 -0.010156575590372086 -0.009010301902890205 -0.001976611325517297
00000000: 0000 0020 4cf2 923f 0000 0040 a616 6abf
00000010: 0000 00e0 9cf2 8ebf 0000 0040 e1bd 81bf
00000020: 0000 00c0 59bd 613f 0000 0040 6624 6f3f
00000030: 0000 00e0 fecd 84bf 0000 0080 0660 82bf
00000040: 0000 00c0 d1c9 843f 0000 0020 dfa2 76bf
00000050: 0000 0020 5f21 67bf 0000 00a0 8641 8f3f
00000060: 0000 0060 2d86 46bf 0000 0020 cff2 73bf
00000070: 0000 0020 4c05 773f 0000 0040 6e51 993f
00000080: 0000 0060 9af1 6d3f 0000 0020 0728 95bf
00000090: 0000 0040 9014 6abf 0000 00e0 baa0 6c3f
000000a0: 0000 00c0 d73c 3e3f 0000 0080 f8cc 84bf
000000b0: 0000 0040 fe73 82bf 0000 0020 4131 60bf

encoder.q_params_6 f8 [2, 4, 3]
0.001373138977214694 0.0012986140791326761 0.012999530881643295 -7.352217653533444e-05 0.002300097607076168 0.022604690864682198 2.6439844077685848e-05 0.005765303038060665
0.002245009411126375 -0.010455965995788574 0.0008916328079067171 0.0014797808835282922 0.00022017216542735696 -0.001481757266446948 -0.0010053731966763735 0.002917546546086669
-0.005451304372400045 -0.004160860553383827 0.005151376593858004 0.0033128883223980665 0.0025093492586165667 0.009883137419819832 -0.0008367161499336362 0.004536232445389032
00000000: 0000 00c0 5c7f 563f 0000 0040 c846 553f
00000010: 0000 0080 7f9f 8a3f 0000 0060 fd45 13bf
00000020: 0000 0080 a7d7 623f 0000 0020 af25 973f
00000030: 0000 0040 64b9 fb3e 0000 00c0 5b9d 773f
00000040: 0000 0040 2064 623f 0000 0000 f069 85bf
00000050: 0000 00e0 8e37 4d3f 0000 00a0 a63e 583f
00000060: 0000 0080 c0db 2c3f 0000 00c0 f046 58bf
00000070: 0000 0040 d778 50bf 0000 00e0 89e6 673f
00000080: 0000 0060 1b54 76bf 0000 0080 fa0a 71bf
00000090: 0000 0020 9c19 753f 0000 0060 a123 6b3f
000000a0: 0000 00a0 7c8e 643f 0000 0040 9c3d 843f
000000b0: 0000 0040 e26a 4bbf 0000 00a0 9594 723f

encoder.classical_nn_linear.weight f8 [1, 3]
0.34720343351364136 -0.5581279993057251 -0.4475383162498474
00000000: 0000 00c0 9438 d63f 0000 0040 2fdc e1bf
00000010: 0000 00c0 77a4 dcbf

encoder.classical_nn_linear.bias f8 [1]
-0.05739796161651611
00000000: 0000 0000 4463 adbf

decoder.q_params_1 f8 [2, 4, 3]
0.02919577993452549 0.0014519710093736649 0.010625628754496574 0.011531904339790344 -0.008814781904220581 0.010754934512078762 0.0011335191084071994 -0.011692061088979244
0.029555203393101692 0.0052567594684660435 -0.0012411444913595915 -0.01411295123398304 0.003142377594485879 0.019328244030475616 0.0047690835781395435 0.008182961493730545
-0.0031398709397763014 -0.010907251387834549 0.02237536385655403 0.0006260006921365857 -0.004340598359704018 0.01384242344647646 -0.0035522745456546545 0.0026485370472073555
00000000: 0000 00a0 7fe5 9d3f 0000 0000 02ca 573f
00000010: 0000 00c0 e3c2 853f 0000 0000 0a9e 873f
00000020: 0000 0000 7c0d 82bf 0000 00e0 ae06 863f
00000030: 0000 00e0 5292 523f 0000 00e0 01f2 87bf
00000040: 0000 0020 b843 9e3f 0000 00a0 1c88 753f
00000050: 0000 00c0 bc55 54bf 0000 0040 40e7 8cbf
00000060: 0000 0020 0bbe 693f 0000 0080 c8ca 933f
00000070: 0000 0020 bf88 733f 0000 0080 3ac2 803f
00000080: 0000 0060 c9b8 69bf 0000 0080 8a56 86bf
00000090: 0000 0040 91e9 963f 0000 0040 4683 443f
000000a0: 0000 0080 72c7 71bf 0000 00a0 6a59 8c3f
000000b0: 0000 00e0 a819 6dbf 0000 0080 62b2 653f

decoder.q_params_2 f8 [2, 4, 3]
-0.0107064014300704 -0.005043278448283672 -0.009866456501185894 0.01718979887664318 0.0007204184657894075 0.008550425991415977 0.006419312208890915 0.003380097448825836
-0.0010521648218855262 -0.014659340493381023 -0.012279465794563293 -0.0036495246458798647 0.0012343635316938162 0.0038981600664556026 -0.015780188143253326 -0.01162329688668251
-0.008657936938107014 -0.008182761259377003 0.003875422989949584 0.008675526827573776 0.01200417336076498 0.012157615274190903 -0.002385864732787013 0.0032513318583369255
00000000: 0000 00e0 3ced 85bf 0000 00c0 42a8 74bf
00000010: 0000 0060 dd34 84bf 0000 00e0 339a 913f
00000020: 0000 00e0 4e9b 473f 0000 00c0 e282 813f
00000030: 0000 0000 234b 7a3f 0000 0000 94b0 6b3f
00000040: 0000 0060 193d 51bf 0000 0060 b705 8ebf
00000050: 0000 0000 fa25 89bf 0000 00a0 9be5 6dbf
00000060: 0000 00c0 4b39 543f 0000 00c0 08ef 6f3f
00000070: 0000 0080 ae28 90bf 0000 0080 f4cd 87bf
00000080: 0000 00a0 40bb 81bf 0000 00a0 1fc2 80bf
00000090: 0000 00e0 59bf 6f3f 0000 0080 79c4 813f
000000a0: 0000 00e0 a495 883f 0000 0080 17e6 883f
000000b0: 0000 0060 858b 63bf 0000 0080 89a2 6a3f

decoder.q_params_3 f8 [2, 4, 3]
0.006803622469305992 -0.005150094628334045 0.008351589553058147 -0.011609886772930622 0.009584369137883186 -0.013308657333254814 0.004785796627402306 -0.0004753735847771168
-0.008688234724104404 0.0035656383261084557 0.0012850575149059296 -0.0023092383053153753 -0.006789802573621273 0.006461350247263908 0.010508904233574867 0.015463951043784618
-0.01678040437400341 -0.010667197406291962 -0.0072466968558728695 -0.0010882379719987512 0.010378357954323292 -0.00748327374458313 -0.013959404081106186 -0.01611017808318138
00000000: 0000 0080 1dde 7b3f 0000 0000 4418 75bf
00000010: 0000 0060 a31a 813f 0000 00a0 ecc6 87bf
00000020: 0000 0040 f8a0 833f 0000 00c0 9141 8bbf
00000030: 0000 0080 459a 733f 0000 0000 7227 3fbf
00000040: 0000 0020 23cb 81bf 0000 0080 af35 6d3f
00000050: 0000 0000 ec0d 553f 0000 00e0 d2ea 62bf
00000060: 0000 00c0 9fcf 7bbf 0000 0080 3777 7a3f
00000070: 0000 0040 b185 853f 0000 0060 90ab 8f3f
00000080: 0000 00e0 e12e 91bf 0000 0000 afd8 85bf
00000090: 0000 0060 b6ae 7dbf 0000 00a0 66d4 51bf
000000a0: 0000 00a0 3f41 853f 0000 0000 c8a6 7ebf
000000b0: 0000 0080 bf96 8cbf 0000 00c0 2f7f 90bf

decoder.q_params_4 f8 [2, 4, 3]
-0.00907832756638527 -0.019291667267680168 -0.001995506463572383 -0.0034782092552632093 -0.01764596626162529 0.006951844319701195 0.022191738709807396 -0.000272951292572543
-0.008706795983016491 -0.0046053556725382805 -0.009296501986682415 -0.013500786386430264 -0.013943571597337723 -0.00882390234619379 -0.009136178530752659 0.0020813499577343464
0.013577866367995739 0.016452742740511894 0.022028226405382156 0.003209271701052785 0.01992148719727993 0.011762944981455803 0.00015186880773399025 -0.008447744883596897
00000000: 0000 0080 a897 82bf 0000 00e0 31c1 93bf
00000010: 0000 0060 e158 60bf 0000 0060 557e 6cbf
00000020: 0000 00c0 c811 92bf 0000 0080 8979 7c3f
00000030: 0000 0060 6eb9 963f 0000 00e0 5ce3 31bf
00000040: 0000 0060 ded4 81bf 0000 00c0 10dd 72bf
00000050: 0000 0060 0b0a 83bf 0000 00e0 4ca6 8bbf
00000060: 0000 0080 728e 8cbf 0000 0020 4412 82bf
00000070: 0000 0020 fdb5 82bf 0000 0040 e80c 613f
00000080: 0000 0060 b6ce 8b3f 0000 00e0 fcd8 903f
00000090: 0000 0040 918e 963f 0000 00a0 544a 6a3f
000000a0: 0000 0060 4c66 943f 0000 00c0 2b17 883f
000000b0: 0000 0020 dfe7 233f 0000 0020 0d4d 81bf

decoder.q_params_5 f8 [2, 4, 3]
0.004481161944568157 0.01590830646455288 0.01629062555730343 0.004287014715373516 -0.0028046295046806335 0.0004389965324662626 0.02623216062784195 -0.0066753593273460865
0.000285940506728366 -0.015785571187734604 -0.005474356934428215 -0.0062634870409965515 -0.004811426624655724 -0.00782505888491869 0.017813080921769142 -0.011673063971102238
-0.0038766409270465374 0.01446177251636982 0.006393673364073038 -0.0027428176254034042 0.009691220708191395 0.01932208426296711 -0.0024415371008217335 -0.0014509953325614333
00000000: 0000 00c0 d65a 723f 0000 0060 444a 903f
00000010: 0000 0060 7dae 903f 0000 00c0 428f 713f
00000020: 0000 0000 bcf9 66bf 0000 00c0 23c5 3c3f
00000030: 0000 0080 9adc 9a3f 0000 0020 9f57 7bbf
00000040: 0000 0020 49bd 323f 0000 00c0 172a 90bf
00000050: 0000 0080 476c 76bf 0000 0000 bea7 79bf
00000060: 0000 0080 25b5 73bf 0000 00a0 9506 80bf
00000070: 0000 00a0 973d 923f 0000 0020 0ce8 87bf
00000080: 0000 00c0 e7c1 6fbf 0000 0040 229e 8d3f
00000090: 0000 00a0 4030 7a3f 0000 0000 1b78 66bf
000000a0: 0000 00a0 fdd8 833f 0000 0020 2bc9 933f
000000b0: 0000 0040 4600 64bf 0000 0060 eac5 57bf

decoder.q_params_6 f8 [2, 4, 3]
0.011277126148343086 -0.0020194603130221367 0.014418774284422398 -0.010547850281000137 -0.007838170044124126 0.0033195735886693 -0.0012156169395893812 -0.011969917453825474
0.016178591176867485 0.005156301893293858 -0.005025163292884827 0.021436048671603203 -0.008751364424824715 -0.013672208413481712 -0.01834387518465519 0.010843001306056976
0.012696638703346252 0.005281649064272642 0.0024088150821626186 -0.006277823820710182 -0.010418673977255821 -0.02252284437417984 -0.013488157652318478 0.002519221045076847
00000000: 0000 0040 7618 873f 0000 0080 1d8b 60bf
00000010: 0000 0020 9787 8d3f 0000 0080 1c9a 85bf
00000020: 0000 0060 750d 80bf 0000 0080 a631 6b3f
00000030: 0000 00c0 aaea 53bf 0000 0020 af83 88bf
00000040: 0000 00e0 1e91 903f 0000 0040 c61e 753f
00000050: 0000 0000 4495 74bf 0000 00e0 54f3 953f
00000060: 0000 0040 3cec 81bf 0000 00c0 2c00 8cbf
00000070: 0000 00a0 bcc8 92bf 0000 0000 db34 863f
00000080: 0000 0000 b200 8a3f 0000 00e0 35a2 753f
00000090: 0000 00c0 a6bb 633f 0000 0080 c6b6 79bf
000000a0: 0000 00c0 6256 85bf 0000 0080 3a10 97bf
000000b0: 0000 00e0 ad9f 8bbf 0000 0080 30a3 643f

decoder.classical_nn_linear.weight f8 [1, 4]
5.093077374500953 1.006262509870899 -1.1576822698309621 -1.2039280893567328
00000000: a3ea ddac 4f5f 1440 d961 b1b7 a619 f03f
00000010: 1754 01d8 dd85 f2bf ef5d a819 4a43 f3bf

decoder.classical_nn_linear.bias f8 [1]
-0.4682845601097539
00000000: 3129 b9cd 5ff8 ddbf
